src/logs/linear_fashionmnist_holdout_[8]_swil6.pt (torch, 408595 bytes, 4 tensors)

input_layer.weight f4 [128, 784]
0	0x3c3c16c6	0.011480039
1	0xbbf5869f	-0.0074928547
2	0xbd2c21c9	-0.042024408
3	0x3c33bfe0	0.0109710395
4	0xbb35c71e	-0.0027737091
5	0xbd4bf9c5	-0.049798746
6	0x3bafac4b	0.005361115
7	0x3db3b57c	0.0877485
8	0x3d250a2f	0.040292915
9	0x3d86f2c5	0.06589273
10	0x3de23f80	0.11047268
11	0x3e23f1b2	0.16010168
12	0xbce810ab	-0.02832826
13	0xbd123a3b	-0.035700064
14	0x3c6a828c	0.014313351
15	0xbd9df482	-0.07712652
16	0x3d9f7ca0	0.07787442
17	0x3ded540b	0.115882955
18	0x3cd5babd	0.02609002
19	0x3d14f0a5	0.03636231
20	0x3e018f8c	0.12652415
21	0x3d8b223a	0.067936376
22	0xbd18161d	-0.037130464
23	0xbb23dd1f	-0.0025003625
24	0x3ae7faf3	0.001769869
25	0xbd639056	-0.05555757
26	0xbd2f2f95	-0.042769987
27	0xbc89d2c1	-0.016824128
28	0xbd2f36b6	-0.042776786
29	0x3b15b3fd	0.0022842877
30	0xbce49998	-0.02790527
31	0x3b04abfe	0.0020244117
32	0xbd63cc34	-0.055614665
33	0xbcd3db28	-0.025861338
34	0x3c63a98a	0.013895402
35	0xbd4ec054	-0.050476387
36	0xbc6bcd9b	-0.014392282
37	0xbc258eb7	-0.010104827
38	0x3d1e1d72	0.0386023
39	0x3af97350	0.0019031558
40	0x3c8be571	0.01707718
41	0x3cc9f3f8	0.024652466
42	0x3d353102	0.04423619
43	0xbd62bae1	-0.055354003
44	0x3d63adc5	0.05558564
45	0x3d0cf01a	0.034408666
46	0x3d18f1e4	0.03734006
47	0xbb3d947c	-0.0028927615
48	0x3c166bf9	0.009181016
49	0x3d45c776	0.048285924
50	0x3beb41f6	0.007179494
51	0xbd5700da	-0.052491046
52	0xbd546d6c	-0.051862165
53	0xbd1740ec	-0.03692715
54	0x3c27f251	0.010250644
55	0xbc0a3442	-0.008435311
56	0x3bbe77cb	0.0058126203
57	0xbd219e95	-0.039457876
58	0x3c29203a	0.010322625
59	0x3a90e003	0.0011053089
60	0xbc4c7593	-0.012479204
61	0xbd5f6778	-0.054542035
62	0xbcb7c174	-0.022431113
63	0xbc8aa29b	-0.01692324
64	0xbc04f4be	-0.008114992
65	0x3c59796a	0.013273576
66	0xbc2ffae2	-0.0107409675
67	0x3cdf82e0	0.027284086
68	0xbc1ecc3d	-0.009692249
69	0xbc8e0468	-0.017336085
70	0x3cc2bd03	0.023771768
71	0xbd94df4e	-0.072691545
72	0x3cdc4606	0.026888859
73	0xbbab4de2	-0.00522779
74	0xbd0ee9cd	-0.03489094
75	0xbd68687d	-0.056740273
76	0xbc061dd6	-0.008185824
77	0x3d443a04	0.04790689
78	0xbc349c88	-0.011023648
79	0xbd0c535d	-0.03425919
80	0xbc368dee	-0.011142237
81	0xbc2c0bda	-0.0105008725
82	0xbd048f5a	-0.032363273
83	0x3b168c81	0.002297193
84	0xbccfe4e9	-0.025377708
85	0xbcc200ff	-0.023682116
86	0x3bd42869	0.006474544
87	0x3cacbc5a	0.021085907
88	0x3d28cd73	0.041211557
89	0x3cb9fbf2	0.022703145
90	0x3d893338	0.06699222
91	0x3c931649	0.017954962
92	0xbcb383a4	-0.021913357
93	0x3c53affc	0.012920376
94	0x3d894de7	0.06704312
95	0x3d405a58	0.04696116
96	0x3bef3b6a	0.007300784
97	0xbd5ad0a0	-0.053421617
98	0xbcd868fa	-0.026417244
99	0xbcb10c70	-0.021612376
100	0x3c700d58	0.014651619
101	0x3d4c8ae7	0.049937155
102	0x3cdb3de7	0.026762916
103	0xbd920b11	-0.07131017
104	0xbd904de9	-0.0704611
105	0x3cdd20ff	0.026993273
106	0xbc2bcecc	-0.010486316
107	0xbba4551c	-0.0050150286
108	0xbbf2a2a7	-0.0074046436
109	0xbd40770a	-0.046988524
110	0x3bc354a7	0.005961019
111	0xbce9c9cb	-0.028538605
112	0xbd679cd6	-0.056546055
113	0xbca0010a	-0.019531745
114	0x3c18206a	0.009285072
115	0x3910ddac	0.0001381549
116	0x3c433db2	0.011916565
117	0xbc71f8de	-0.014768807
118	0x3ddaaf80	0.10678005
119	0x3d07c30d	0.033145
120	0x38135ae4	3.513218e-05
121	0x3cb69ded	0.022292102
122	0x3d36f387	0.04466584
123	0xbcca4e6d	-0.0246956
124	0xbd83cdbe	-0.064357266
125	0x3b8efd54	0.004363695
126	0xbdaa93af	-0.0832895
127	0xbcf1e4ea	-0.0295281
128	0xbcd00aff	-0.025395868
129	0x3caed800	0.021343231
130	0x3d9f812e	0.07788311
131	0xbd1911e9	-0.037370596
132	0xbcffbe05	-0.031218538
133	0xbb3803f3	-0.0028078526
134	0xbc4c01ec	-0.01245163
135	0x3c996e00	0.01872921
136	0xbc927b11	-0.017880948
137	0xbcce3020	-0.025169432
138	0xbc0b9236	-0.008518746
139	0xbb89a15b	-0.0042001433
140	0x3c53c6fd	0.0129258605
141	0xbd231818	-0.0398179
142	0xbc7f6396	-0.015587708
143	0x3cbd1dba	0.023085464
144	0x3cc7f8e8	0.02441068
145	0x3d9b44ba	0.07581468
146	0x3d67ae0a	0.05656246
147	0x3d5bfe34	0.053709224
148	0x3d9a0296	0.075200245
149	0xbbd936bb	-0.006628839
150	0xbcf0f5c2	-0.029414061
151	0xbccccdae	-0.02500042
152	0x3abd1042	0.0014424401
153	0xbc85a0af	-0.016311971
154	0x3c343c3e	0.011000691
155	0xbcba280a	-0.02272417
156	0xbd1da4e4	-0.03848733
157	0x3d0cbacf	0.034357842
158	0x3da20a86	0.079121634
159	0x3b8a26b4	0.0042160396
160	0xbd1faf51	-0.038985554
161	0xbc887222	-0.016655985
162	0x3c0ac3ee	0.008469565
163	0xbd18dcbf	-0.037319895
164	0xbceb364e	-0.028712418
165	0xbda1bf8d	-0.078978635
166	0xbd1ac5ea	-0.0377864
167	0x3c732134	0.014839459
168	0xbd008ade	-0.031382434
169	0xbccc7b90	-0.024961263
170	0xbc9f18ad	-0.019420946
171	0xbd1eda18	-0.03878221
172	0xbc3d9fa7	-0.011573709
173	0x3d218b25	0.03943934
174	0x3d8c51e1	0.06851555
175	0x3d7d3fd5	0.061828453
176	0x3d22acec	0.039715692
177	0x3bdbd560	0.006708786
178	0x3cda60cc	0.026657484
179	0xbd05fbf6	-0.03271099
180	0xbd4c13ee	-0.049823694
181	0xbd094665	-0.0335144
182	0xbcaba704	-0.020953663
183	0xbd2849a5	-0.041085858
184	0xbae45d0d	-0.0017422751
185	0x3d7faaa4	0.062418595
186	0x3d250722	0.040290006
187	0x3cb85634	0.022502042
188	0xbdb7daa9	-0.08977253
189	0xbd92c846	-0.071671054
190	0x3bc36dcf	0.005964018
191	0x3c847b6e	0.016172137
192	0xbdcc55a8	-0.09977275
193	0xbce3aed0	-0.027793318
194	0x3d3cc7c8	0.046088964
195	0xbc0c42b4	-0.008560825
196	0xbd47657e	-0.048680775
197	0xbc89bb8b	-0.01681306
198	0xbc42bb5e	-0.011885492
199	0xbc360e5b	-0.011111821
200	0xbcabf8e5	-0.020992706
201	0x3d1ad0b5	0.037796695
202	0x3dfbe068	0.122986615
203	0x3d5157c6	0.051109098
204	0x3c90706f	0.017631738
205	0x3b8d92e3	0.004320489
206	0xbb3f63d8	-0.0029203799
207	0xbda1b027	-0.078949265
208	0xbcb7c46c	-0.022432528
209	0xbd187954	-0.037225083
210	0xbd482d74	-0.048871472
211	0x3d0d4353	0.034488034
212	0x3d257fc3	0.040405046
213	0x3c567810	0.013090149
214	0x3daeb414	0.08530441
215	0x3de22f4a	0.11044176
216	0x3dcc7b8a	0.09984501
217	0xbd04fa32	-0.032465167
218	0x3b2abc67	0.0026052238
219	0xbcd7daed	-0.02634951
220	0xbd25ad89	-0.0404487
221	0xbd4321e1	-0.04763973
222	0x3c552987	0.013010389
223	0xbcbeb055	-0.023277441
224	0xbb8148ae	-0.0039454317
225	0x3c906428	0.017625883
226	0xbc9aab84	-0.018880613
227	0x3c0995e2	0.008397551
228	0x3ce288d0	0.027653128
229	0x3d58125a	0.052751876
230	0x3d8009a7	0.06251841
231	0x3d793519	0.060841653
232	0x3dc0b17d	0.09408853
233	0x3cc54e7e	0.02408528
234	0x3c99a335	0.018754581
235	0xbd9531fc	-0.072849244
236	0x3cafa152	0.021439228
237	0xbd8f7597	-0.0700485
238	0xbde1026d	-0.10986791
239	0xbdeb2e0e	-0.114833936
240	0x3c34382e	0.010999722
241	0x3ddb5a73	0.10710611
242	0x3d0f4b34	0.03498383
243	0xbcb70605	-0.022341738
244	0xbcf73e2c	-0.030181013
245	0xbd11db31	-0.035609428
246	0x3c275132	0.01021223
247	0xbd3a7dbb	-0.045530062
248	0xbd2f3655	-0.042776424
249	0xbd418149	-0.047242437
250	0xbd6cff23	-0.057860505
251	0x3b49bc69	0.0030782467
252	0x3b2fd98f	0.0026832556
253	0x3cd714ce	0.026255038
254	0xbca2ccca	-0.019873042
255	0x3cdc1381	0.026864769

input_layer.bias f4 [128]
0	0x3cf8a08e	0.030349996
1	0xbc60fec1	-0.013732613
2	0x3d140b67	0.036143687
3	0x3da780eb	0.08178886
4	0x3c6dad04	0.014506582
5	0x3ce69fb4	0.028152324
6	0x3d8b68e6	0.06807117
7	0x3d8e680a	0.069534376
8	0x3bcd5a2d	0.0062668533
9	0xbc26373c	-0.010145005
10	0x3d2fc76a	0.042914785
11	0x3c9d9838	0.019237623
12	0xbd175adc	-0.036951885
13	0x3d3c6bae	0.04600113
14	0x3d5526d1	0.05203897
15	0xbb5d8afa	-0.003380476
16	0x3c38954a	0.011266062
17	0xbcc33ebf	-0.02383363
18	0xbd3b02b0	-0.04565686
19	0xbc5c95b4	-0.013463426
20	0xbd18ffef	-0.037353452
21	0xbcdbf279	-0.026849018
22	0xbd2de35e	-0.042453162
23	0xbc98563b	-0.018595805
24	0x3cb5c939	0.022190677
25	0xbc429bee	-0.011877997
26	0x3d01093d	0.03150295
27	0xbd0d4503	-0.034489643
28	0x3d09a7f3	0.033607434
29	0x3c336554	0.0109494515
30	0xbc73f9ba	-0.014891082
31	0x3d1d0533	0.038335036
32	0x3ba54b4d	0.005044377
33	0x3ca8d780	0.02061057
34	0xbd1e8cc7	-0.038708474
35	0x3d0bf0bb	0.034165125
36	0x3b6e1f67	0.0036334635
37	0xbcf9187f	-0.030407188
38	0x3d22138c	0.039569423
39	0x3bfe7416	0.0077653034
40	0xbcdaa9fa	-0.02669238
41	0x3c704ef9	0.014667266
42	0xbce1b233	-0.027550792
43	0x3d2020a8	0.039093643
44	0xbbc6f7a2	-0.0060720006
45	0x3d2a4d2c	0.041577503
46	0xbb030e96	-0.0019997708
47	0xbc6a2cdf	-0.014292925
48	0xbbf3c690	-0.007439442
49	0xbc461414	-0.012089748
50	0x3c3ae63f	0.011407434
51	0x3ba713b4	0.0050987843
52	0x3d1f1d75	0.03884645
53	0xbd28e3d3	-0.041232895
54	0xbc6c1f11	-0.014411704
55	0xbce01aaf	-0.027356474
56	0xbd5f02eb	-0.054446142
57	0x3d3f5e87	0.046721008
58	0x3c530fa5	0.012882148
59	0xbd5227ce	-0.051307492
60	0x3caf33d5	0.02138702
61	0xbd33e645	-0.043920774
62	0x3cb7073e	0.02234232
63	0xbceb3d58	-0.028715774
64	0xbc8d9088	-0.017280832
65	0xbd069441	-0.03285623
66	0x3c137aaa	0.009001413
67	0x3b98a94a	0.0046588527
68	0xbcdb87b7	-0.026798112
69	0xbc97100b	-0.018440267
70	0xbd203237	-0.03911039
71	0x3cd1d711	0.025615247
72	0x3ca32376	0.01991437
73	0x3c2fcea1	0.0107304165
74	0x3c53e6d7	0.0129334545
75	0xbad7e5f0	-0.0016471725
76	0xbbcbce07	-0.0062196287
77	0xbd3e6887	-0.046486404
78	0xbd5c0684	-0.05371715
79	0x3ce4362f	0.027857868
80	0x3c97c8d1	0.018528374
81	0x39deb9eb	0.0004248166
82	0x3d358a06	0.044321083
83	0xbc2b4ef8	-0.010455839
84	0xbbd5d01f	-0.006525054
85	0xbd0bff7e	-0.034179203
86	0x3cc8cc7e	0.024511572
87	0x3b4695ff	0.0030301807
88	0xbaf74809	-0.0018866073
89	0x3ce0943e	0.027414437
90	0xbca95170	-0.020668715
91	0x3cd46070	0.025924891
92	0xbd0661ae	-0.032808
93	0xbd0f51ae	-0.034990005
94	0x3cc8f0ee	0.024528947
95	0x3cc2cd8f	0.023779659
96	0xbd282b9c	-0.041057214
97	0xbc345c5a	-0.011008346
98	0xbc02dfbc	-0.007987913
99	0x3d8091ba	0.06277795
100	0xbc180afb	-0.009279962
101	0xbb29a6d8	-0.00258868
102	0x3bfc0531	0.0076910486
103	0x3ccac3a1	0.024751486
104	0x3ccd1ab9	0.025037156
105	0xbc51035c	-0.012757149
106	0x3cb2390a	0.021755714
107	0xbd86f862	-0.06590344
108	0xbd217c0a	-0.039424933
109	0xbd24f01f	-0.04026806
110	0x3d0500ab	0.03247134
111	0x3c6b4e2c	0.014361899
112	0xbca29e08	-0.019850746
113	0xbbe64fac	-0.0070285406
114	0x3cc7c53a	0.024386037
115	0x3cd138cc	0.025539778
116	0x3d3eacb1	0.04655141
117	0xbcc33763	-0.023830121
118	0xbcb32259	-0.021866964
119	0x3d1bc956	0.038033806
120	0xbcc40c5f	-0.02393168
121	0xbcdbfe7e	-0.02685475
122	0x3cc6abdb	0.024251869
123	0xbbf342e9	-0.007423748
124	0xbd1b6ccb	-0.03794555
125	0xbc974be7	-0.01846881
126	0xbd42caa6	-0.04755654
127	0xbba9a9db	-0.005177719

output_layer.weight f4 [9, 128]
0	0x3cbd411a	0.023102332
1	0xbe1ef283	-0.15522198
2	0x3ccd4f52	0.025062237
3	0x3c904b47	0.01761402
4	0x3b9530bc	0.0045529287
5	0x3dc8d438	0.098061025
6	0x3dd41299	0.1035511
7	0x3e1938a5	0.14963014
8	0x3df6824d	0.12036572
9	0x3c930b4e	0.017949726
10	0xbdb9e0fd	-0.09076116
11	0xbd9e13d3	-0.07718625
12	0x3ba17e10	0.004928358
13	0xbd9df93b	-0.077135526
14	0x3e21279a	0.15737763
15	0xbc6afc6d	-0.01434241
16	0x3e09281a	0.13394204
17	0x3cab0e07	0.020880712
18	0xbd1d83e5	-0.038455863
19	0x3d9214ca	0.071328714
20	0x3cf56377	0.029954655
21	0xbe248229	-0.16065277
22	0xbdbdfa0e	-0.0927621
23	0xbcd9260c	-0.0265074
24	0x3e039924	0.12851387
25	0xbdc14af3	-0.094381236
26	0xbda19a49	-0.07890756
27	0x3e3307d1	0.1748345
28	0xbd9bb2b8	-0.07602447
29	0x3ce694fc	0.028147213
30	0xbe007b3d	-0.12547012
31	0x3e49a700	0.19692612
32	0xbd88c3ca	-0.06677969
33	0xbe095f02	-0.13415149
34	0x3c8d390f	0.017239122
35	0xbda66da5	-0.08126382
36	0x3e4c839f	0.19972084
37	0xbe2216c3	-0.15828995
38	0xbcd31eff	-0.025771616
39	0xbdd935e8	-0.10605985
40	0x3df8382e	0.121200904
41	0x3e3f7c6d	0.18699808
42	0x3cde3917	0.027126832
43	0x3e1f316c	0.15546197
44	0x3dfd6269	0.12372286
45	0x3dad1104	0.08450511
46	0x3dac13f4	0.08402243
47	0xbde4bd8c	-0.11168966
48	0xbd785d0e	-0.06063562
49	0xbdb7a7dc	-0.089675635
50	0x3d53ed17	0.05173978
51	0x3df225c0	0.118236065
52	0xbc79e0e0	-0.015251368
53	0x3d6dff90	0.05810505
54	0x3dabe9b5	0.083941855
55	0xbdd19eca	-0.10235365
56	0xbd13f080	-0.03611803
57	0x3c3795a2	0.011205109
58	0x3b2098bb	0.0024505097
59	0x3b1e9cc3	0.0024202324
60	0x3c8143e9	0.015779452
61	0x3d945ff3	0.07244863
62	0x3da48e54	0.080349594
63	0xbd91cfab	-0.07119688
64	0x3d1522a5	0.036409993
65	0xbc819fe5	-0.015823314
66	0x3d404e18	0.046949476
67	0xbcacc4d6	-0.021089952
68	0xbdcdad07	-0.10042768
69	0x3e02edbc	0.12786001
70	0x3d50bae5	0.050959487
71	0x3dccd63f	0.10001802
72	0x3d43e993	0.047830176
73	0x3da6d51b	0.081461154
74	0x3e034a7c	0.12821382
75	0x3d295271	0.041338388
76	0xbd4181d6	-0.04724296
77	0xbc24cbdf	-0.010058372
78	0xbdb27cab	-0.08715185
79	0x3df48b39	0.11940617
80	0x3d9d7a7d	0.076893784
81	0x3ddca1b2	0.107730284
82	0xbc5e57f6	-0.013570776
83	0x3debe9fd	0.11519239
84	0x3d6a19b3	0.057153415
85	0xbd448401	-0.04797745
86	0xbdb04da8	-0.08608562
87	0x3d26ad7f	0.040692803
88	0x3c441e8b	0.011970173
89	0x3deaeba3	0.114707254
90	0xbc6c0d18	-0.014407419
91	0xbd18c8d8	-0.037300915
92	0xbe00767a	-0.12545195
93	0xbbad27b6	-0.005284275
94	0xbe219510	-0.15779519
95	0xbe09d0b4	-0.1345852
96	0xbc47da78	-0.012198083
97	0x3d98b692	0.074566975
98	0x3e2a9898	0.16659772
99	0x3e045e82	0.12926677
100	0x3d99e612	0.075145856
101	0xbda1b527	-0.0789588
102	0x3e1735df	0.14766644
103	0x3da0ace7	0.078454785
104	0xbd4436ce	-0.04790383
105	0x3ca74ec5	0.020423302
106	0xbe19558e	-0.14974043
107	0xbd8ce1e3	-0.06879022
108	0x3c9eafeb	0.019370994
109	0x3bca589f	0.0061751152
110	0x3c9ea6d8	0.019366667
111	0x3d4e2ef0	0.05033773
112	0xbdfcc93f	-0.12343072
113	0xbd411cf0	-0.047146738
114	0x3d8b623f	0.06805848
115	0x3d0d2f85	0.034469146
116	0x3cd72db2	0.026266906
117	0xbe062e93	-0.13103704
118	0x3de1f06e	0.110321864
119	0x3e167054	0.14691287
120	0xbd91c775	-0.071181215
121	0xbd8cb2f9	-0.06870074
122	0x3cad6cdb	0.02117007
123	0xbe37fb0a	-0.17966858
124	0xbdc7c4e1	-0.097543485
125	0x3e2167b0	0.1576221
126	0xbdacd9a6	-0.08439951
127	0xbdb4a5bd	-0.088206746
128	0x3d64fbd0	0.05590421
129	0xbe18078e	-0.14846632
130	0x3c87b6cc	0.016566657
131	0xbd1036f8	-0.035208672
132	0x3e24b523	0.16084723
133	0x3c5811e2	0.013187857
134	0x3d0982bb	0.03357194
135	0x3e20ebac	0.15714902
136	0x3dad4321	0.084600694
137	0xbe2d9359	-0.1695074
138	0xbdf8ec86	-0.12154488
139	0xbe21a53b	-0.15785687
140	0x3d54fcc4	0.05199887
141	0xbd9ce571	-0.0766095
142	0x3e12c557	0.14333092
143	0xbe23ccdf	-0.15996121
144	0xbd7abbf5	-0.061214406
145	0xbe1dd22a	-0.15412202
146	0x3c466baf	0.012110635
147	0xbe338699	-0.17531814
148	0xbd084546	-0.03326919
149	0xbe2714d1	-0.16316535
150	0x3e3eae15	0.18621095
151	0x3e6089f8	0.21927631
152	0x3e405e03	0.18785863
153	0xbe10fe96	-0.14159617
154	0xbb80b26d	-0.00392752
155	0xbde5c745	-0.11219648
156	0xbbdab640	-0.006674558
157	0xbe23ded9	-0.16002978
158	0xbd277529	-0.040883217
159	0x3e1920cc	0.14953917
160	0xbc0fb490	-0.008771077
161	0xbe123707	-0.14278804
162	0x3dc213d8	0.09476441
163	0x3de13c73	0.10997858
164	0x3dbe41c8	0.092898905
165	0x3d81ba25	0.063343324
166	0xbd53fb28	-0.051753193
167	0xbdb2053f	-0.08692407
168	0x3c71da4d	0.01476152
169	0x3dd07dfc	0.101802796
170	0x3da93688	0.08262354
171	0x3da5ca91	0.08095277
172	0x3da2ceaf	0.07949578
173	0xbd02aa50	-0.031900704
174	0xbdf073b2	-0.11740817
175	0xbe122f78	-0.1427592
176	0xbe2f221a	-0.17102852
177	0x3dc56814	0.09638992
178	0x3e4e8797	0.20168911
179	0x3c999624	0.01874835
180	0xbe25f97f	-0.16208456
181	0x3d70db27	0.05880275
182	0xbd9177d7	-0.07102936
183	0x3ce387d1	0.027774723
184	0x3e2362be	0.15955636
185	0xbe1d7aec	-0.15378922
186	0x3d41bf36	0.047301494
187	0xbdf8e366	-0.12152748
188	0xbd462303	-0.048373234
189	0x3e13aab7	0.14420591
190	0x3e121997	0.14267574
191	0x3d9b3303	0.07578089
192	0x3df09b3a	0.11748357
193	0x3e0b026a	0.1357514
194	0x3dd3be6a	0.10339053
195	0xbdf278b9	-0.11839432
196	0xbd92beb4	-0.0716528
197	0xbc805e83	-0.015670067
198	0x3e83b8b6	0.2572686
199	0xbd82a1cd	-0.06378517
200	0xbe27ca0a	-0.16385666
201	0x3d804811	0.062637456
202	0x3e103af8	0.14084995
203	0xbe5ecb84	-0.21757323
204	0x3db79e92	0.08965792
205	0x3da9107f	0.082550995
206	0xbe08abd9	-0.13346805
207	0xbdf8acf6	-0.12142365
208	0x3d8df3b7	0.069312505
209	0x3dcb0c90	0.099145055
210	0xbd479cea	-0.04873363
211	0x3d1d1ea9	0.038359318
212	0xbd2bada1	-0.041913632
213	0xbdfa5623	-0.122234605
214	0xbc954a2f	-0.01822385
215	0x3d02b8f3	0.031914663
216	0x3e628110	0.22119546
217	0x3d5b7fda	0.053588726
218	0xbd903a3b	-0.070423566
219	0x3e02c49f	0.12770317
220	0xbcaa07a3	-0.020755595
221	0xbd7b64d7	-0.061375465
222	0xbd35f10b	-0.04441933
223	0xbd874ba3	-0.066062234
224	0x3c17daf9	0.009268516
225	0xbdc5ba22	-0.09654643
226	0x3e0b858a	0.1362516
227	0x3db95a6a	0.09050448
228	0x3e53f2aa	0.20698038
229	0x3d663ade	0.056208484
230	0x3e29e0a7	0.16589604
231	0xbdcdc3f8	-0.10047144
232	0x3e00c6ad	0.12575789
233	0xbe17976f	-0.14803861
234	0xbd19ab34	-0.037516788
235	0xbe2f70e5	-0.1713291
236	0x3d6e9417	0.0582467
237	0x3e7941e0	0.24341536
238	0xbe94a4b6	-0.29031914
239	0x3d89fdfa	0.06737895
240	0x3dbdf787	0.09275728
241	0x3d6d86dc	0.05798994
242	0x3e0b671f	0.13613556
243	0x3dcd50de	0.1002519
244	0x3cde1fdb	0.0271148
245	0xbe0cbe26	-0.13744411
246	0x3d72e3a7	0.059299137
247	0x3e0a1288	0.13483632
248	0xbd7f7e45	-0.06237628
249	0xbe91e24a	-0.28492957
250	0x3de76cd3	0.113000534
251	0xbe610c87	-0.21977435
252	0xbe52601c	-0.20544475
253	0x3d41ba28	0.047296673
254	0xbc8064b0	-0.015673012
255	0xbe379ba1	-0.17930461

output_layer.bias f4 [9]
0	0x3d7da45c	0.061924323
1	0x3dad9a0c	0.08476648
2	0x3da9dcff	0.08294105
3	0x3dccdc2d	0.10002933
4	0x3db2e97d	0.087359406
5	0xbdf240fc	-0.11828801
6	0x3d353e4e	0.04424887
7	0xbe332821	-0.17495777
8	0x3f8dd343	1.1080097
