src/logs/linear_fashionmnist_holdout_[8]_swil4.pt (torch, 408595 bytes, 4 tensors)

input_layer.weight f4 [128, 784]
0	0x3c3c16c6	0.011480039
1	0xbbf5869f	-0.0074928547
2	0xbd2c21c9	-0.042024408
3	0x3c33bfe0	0.0109710395
4	0xbb35c71e	-0.0027737091
5	0xbd4bf9c5	-0.049798746
6	0x3bafac4b	0.005361115
7	0x3db3b57c	0.0877485
8	0x3d250a2f	0.040292915
9	0x3d86f2c5	0.06589273
10	0x3de23f80	0.11047268
11	0x3e23f1b2	0.16010168
12	0xbce810ab	-0.02832826
13	0xbd123a3b	-0.035700064
14	0x3c6a828c	0.014313351
15	0xbd9df482	-0.07712652
16	0x3d9f7ca0	0.07787442
17	0x3ded540b	0.115882955
18	0x3cd5babd	0.02609002
19	0x3d14f0a5	0.03636231
20	0x3e018f8c	0.12652415
21	0x3d8b223a	0.067936376
22	0xbd18161d	-0.037130464
23	0xbb23dd1f	-0.0025003625
24	0x3ae7faf3	0.001769869
25	0xbd639056	-0.05555757
26	0xbd2f2f95	-0.042769987
27	0xbc89d2c1	-0.016824128
28	0xbd2f36b6	-0.042776786
29	0x3b15b3fd	0.0022842877
30	0xbce49998	-0.02790527
31	0x3b04abfe	0.0020244117
32	0xbd63cc34	-0.055614665
33	0xbcd3db28	-0.025861338
34	0x3c63a98a	0.013895402
35	0xbd4ec054	-0.050476387
36	0xbc6bcd9b	-0.014392282
37	0xbc258eb7	-0.010104827
38	0x3d1e1d72	0.0386023
39	0x3af97350	0.0019031558
40	0x3c8be571	0.01707718
41	0x3cc9f3f8	0.024652466
42	0x3d353102	0.04423619
43	0xbd62bae1	-0.055354003
44	0x3d63adc5	0.05558564
45	0x3d0cf01a	0.034408666
46	0x3d18f1e4	0.03734006
47	0xbb3d947c	-0.0028927615
48	0x3c166bf9	0.009181016
49	0x3d45c776	0.048285924
50	0x3beb41f6	0.007179494
51	0xbd5700da	-0.052491046
52	0xbd546d6c	-0.051862165
53	0xbd1740ec	-0.03692715
54	0x3c27f251	0.010250644
55	0xbc0a3442	-0.008435311
56	0x3bbe77cb	0.0058126203
57	0xbd219e95	-0.039457876
58	0x3c29203a	0.010322625
59	0x3a90e003	0.0011053089
60	0xbc4c7593	-0.012479204
61	0xbd5f6778	-0.054542035
62	0xbcb7c174	-0.022431113
63	0xbc8aa29b	-0.01692324
64	0xbc04f4be	-0.008114992
65	0x3c59796a	0.013273576
66	0xbc2ffae2	-0.0107409675
67	0x3cdf82e0	0.027284086
68	0xbc1ecc3d	-0.009692249
69	0xbc8e0468	-0.017336085
70	0x3cc2bd03	0.023771768
71	0xbd94df4e	-0.072691545
72	0x3cdc4606	0.026888859
73	0xbbab4de2	-0.00522779
74	0xbd0ee9cd	-0.03489094
75	0xbd68687d	-0.056740273
76	0xbc061dd6	-0.008185824
77	0x3d443a04	0.04790689
78	0xbc349c88	-0.011023648
79	0xbd0c535d	-0.03425919
80	0xbc368dee	-0.011142237
81	0xbc2c0bda	-0.0105008725
82	0xbd048f5a	-0.032363273
83	0x3b168c81	0.002297193
84	0xbccfe4e9	-0.025377708
85	0xbcc200ff	-0.023682116
86	0x3bd42869	0.006474544
87	0x3cacbc5a	0.021085907
88	0x3d28cd73	0.041211557
89	0x3cb9fbf2	0.022703145
90	0x3d893338	0.06699222
91	0x3c931649	0.017954962
92	0xbcb383a4	-0.021913357
93	0x3c53affc	0.012920376
94	0x3d894de7	0.06704312
95	0x3d405a58	0.04696116
96	0x3bef3b6a	0.007300784
97	0xbd5ad0a0	-0.053421617
98	0xbcd868fa	-0.026417244
99	0xbcb10c70	-0.021612376
100	0x3c700d58	0.014651619
101	0x3d4c8ae7	0.049937155
102	0x3cdb3de7	0.026762916
103	0xbd920b11	-0.07131017
104	0xbd904de9	-0.0704611
105	0x3cdd20ff	0.026993273
106	0xbc2bcecc	-0.010486316
107	0xbba4551c	-0.0050150286
108	0xbbf2a2a7	-0.0074046436
109	0xbd40770a	-0.046988524
110	0x3bc354a7	0.005961019
111	0xbce9c9cb	-0.028538605
112	0xbd679cd6	-0.056546055
113	0xbca0010a	-0.019531745
114	0x3c18206a	0.009285072
115	0x3910ddac	0.0001381549
116	0x3c433db2	0.011916565
117	0xbc71f8de	-0.014768807
118	0x3ddaaf80	0.10678005
119	0x3d07c30d	0.033145
120	0x38135ae4	3.513218e-05
121	0x3cb69ded	0.022292102
122	0x3d36f387	0.04466584
123	0xbcca4e6d	-0.0246956
124	0xbd83cdbe	-0.064357266
125	0x3b8efd54	0.004363695
126	0xbdaa93af	-0.0832895
127	0xbcf1e4ea	-0.0295281
128	0xbcd00aff	-0.025395868
129	0x3caed800	0.021343231
130	0x3d9f812e	0.07788311
131	0xbd1911e9	-0.037370596
132	0xbcffbe05	-0.031218538
133	0xbb3803f3	-0.0028078526
134	0xbc4c01ec	-0.01245163
135	0x3c996e00	0.01872921
136	0xbc927b11	-0.017880948
137	0xbcce3020	-0.025169432
138	0xbc0b9236	-0.008518746
139	0xbb89a15b	-0.0042001433
140	0x3c53c6fd	0.0129258605
141	0xbd231818	-0.0398179
142	0xbc7f6396	-0.015587708
143	0x3cbd1dba	0.023085464
144	0x3cc7f8e8	0.02441068
145	0x3d9b44ba	0.07581468
146	0x3d67ae0a	0.05656246
147	0x3d5bfe34	0.053709224
148	0x3d9a0296	0.075200245
149	0xbbd936bb	-0.006628839
150	0xbcf0f5c2	-0.029414061
151	0xbccccdae	-0.02500042
152	0x3abd1042	0.0014424401
153	0xbc85a0af	-0.016311971
154	0x3c343c3e	0.011000691
155	0xbcba280a	-0.02272417
156	0xbd1da4e4	-0.03848733
157	0x3d0cbacf	0.034357842
158	0x3da20a86	0.079121634
159	0x3b8a26b4	0.0042160396
160	0xbd1faf51	-0.038985554
161	0xbc887222	-0.016655985
162	0x3c0ac3ee	0.008469565
163	0xbd18dcbf	-0.037319895
164	0xbceb364e	-0.028712418
165	0xbda1bf8d	-0.078978635
166	0xbd1ac5ea	-0.0377864
167	0x3c732134	0.014839459
168	0xbd008ade	-0.031382434
169	0xbccc7b90	-0.024961263
170	0xbc9f18ad	-0.019420946
171	0xbd1eda18	-0.03878221
172	0xbc3d9fa7	-0.011573709
173	0x3d218b25	0.03943934
174	0x3d8c51e1	0.06851555
175	0x3d7d3fd5	0.061828453
176	0x3d22acec	0.039715692
177	0x3bdbd560	0.006708786
178	0x3cda60cc	0.026657484
179	0xbd05fbf6	-0.03271099
180	0xbd4c13ee	-0.049823694
181	0xbd094665	-0.0335144
182	0xbcaba704	-0.020953663
183	0xbd2849a5	-0.041085858
184	0xbae45d0d	-0.0017422751
185	0x3d7faaa4	0.062418595
186	0x3d250722	0.040290006
187	0x3cb85634	0.022502042
188	0xbdb7daa9	-0.08977253
189	0xbd92c846	-0.071671054
190	0x3bc36dcf	0.005964018
191	0x3c847b6e	0.016172137
192	0xbdcc55a8	-0.09977275
193	0xbce3aed0	-0.027793318
194	0x3d3cc7c8	0.046088964
195	0xbc0c42b4	-0.008560825
196	0xbd47657e	-0.048680775
197	0xbc89bb8b	-0.01681306
198	0xbc42bb5e	-0.011885492
199	0xbc360e5b	-0.011111821
200	0xbcabf8e5	-0.020992706
201	0x3d1ad0b5	0.037796695
202	0x3dfbe068	0.122986615
203	0x3d5157c6	0.051109098
204	0x3c90706f	0.017631738
205	0x3b8d92e3	0.004320489
206	0xbb3f63d8	-0.0029203799
207	0xbda1b027	-0.078949265
208	0xbcb7c46c	-0.022432528
209	0xbd187954	-0.037225083
210	0xbd482d74	-0.048871472
211	0x3d0d4353	0.034488034
212	0x3d257fc3	0.040405046
213	0x3c567810	0.013090149
214	0x3daeb414	0.08530441
215	0x3de22f4a	0.11044176
216	0x3dcc7b8a	0.09984501
217	0xbd04fa32	-0.032465167
218	0x3b2abc67	0.0026052238
219	0xbcd7daed	-0.02634951
220	0xbd25ad89	-0.0404487
221	0xbd4321e1	-0.04763973
222	0x3c552987	0.013010389
223	0xbcbeb055	-0.023277441
224	0xbb8148ae	-0.0039454317
225	0x3c906428	0.017625883
226	0xbc9aab84	-0.018880613
227	0x3c0995e2	0.008397551
228	0x3ce288d0	0.027653128
229	0x3d58125a	0.052751876
230	0x3d8009a7	0.06251841
231	0x3d793519	0.060841653
232	0x3dc0b17d	0.09408853
233	0x3cc54e7e	0.02408528
234	0x3c99a335	0.018754581
235	0xbd9531fc	-0.072849244
236	0x3cafa152	0.021439228
237	0xbd8f7597	-0.0700485
238	0xbde1026d	-0.10986791
239	0xbdeb2e0e	-0.114833936
240	0x3c34382e	0.010999722
241	0x3ddb5a73	0.10710611
242	0x3d0f4b34	0.03498383
243	0xbcb70605	-0.022341738
244	0xbcf73e2c	-0.030181013
245	0xbd11db31	-0.035609428
246	0x3c275132	0.01021223
247	0xbd3a7dbb	-0.045530062
248	0xbd2f3655	-0.042776424
249	0xbd418149	-0.047242437
250	0xbd6cff23	-0.057860505
251	0x3b49bc69	0.0030782467
252	0x3b2fd98f	0.0026832556
253	0x3cd714ce	0.026255038
254	0xbca2ccca	-0.019873042
255	0x3cdc1381	0.026864769

input_layer.bias f4 [128]
0	0x3cf8a08e	0.030349996
1	0xbc60fec1	-0.013732613
2	0x3d140b67	0.036143687
3	0x3da780eb	0.08178886
4	0x3c6dad04	0.014506582
5	0x3ce69fb4	0.028152324
6	0x3d8b68e6	0.06807117
7	0x3d8e680a	0.069534376
8	0x3bcd5a2d	0.0062668533
9	0xbc26373c	-0.010145005
10	0x3d2fc76a	0.042914785
11	0x3c9d9838	0.019237623
12	0xbd175adc	-0.036951885
13	0x3d3c6bae	0.04600113
14	0x3d5526d1	0.05203897
15	0xbb5d8afa	-0.003380476
16	0x3c38954a	0.011266062
17	0xbcc33ebf	-0.02383363
18	0xbd3b02b0	-0.04565686
19	0xbc5c95b4	-0.013463426
20	0xbd18ffef	-0.037353452
21	0xbcdbf279	-0.026849018
22	0xbd2de35e	-0.042453162
23	0xbc98563b	-0.018595805
24	0x3cb5c939	0.022190677
25	0xbc429bee	-0.011877997
26	0x3d01093d	0.03150295
27	0xbd0d4503	-0.034489643
28	0x3d09a7f3	0.033607434
29	0x3c336554	0.0109494515
30	0xbc73f9ba	-0.014891082
31	0x3d1d0533	0.038335036
32	0x3ba54b4d	0.005044377
33	0x3ca8d780	0.02061057
34	0xbd1e8cc7	-0.038708474
35	0x3d0bf0bb	0.034165125
36	0x3b6e1f67	0.0036334635
37	0xbcf9187f	-0.030407188
38	0x3d22138c	0.039569423
39	0x3bfe7416	0.0077653034
40	0xbcdaa9fa	-0.02669238
41	0x3c704ef9	0.014667266
42	0xbce1b233	-0.027550792
43	0x3d2020a8	0.039093643
44	0xbbc6f7a2	-0.0060720006
45	0x3d2a4d2c	0.041577503
46	0xbb030e96	-0.0019997708
47	0xbc6a2cdf	-0.014292925
48	0xbbf3c690	-0.007439442
49	0xbc461414	-0.012089748
50	0x3c3ae63f	0.011407434
51	0x3ba713b4	0.0050987843
52	0x3d1f1d75	0.03884645
53	0xbd28e3d3	-0.041232895
54	0xbc6c1f11	-0.014411704
55	0xbce01aaf	-0.027356474
56	0xbd5f02eb	-0.054446142
57	0x3d3f5e87	0.046721008
58	0x3c530fa5	0.012882148
59	0xbd5227ce	-0.051307492
60	0x3caf33d5	0.02138702
61	0xbd33e645	-0.043920774
62	0x3cb7073e	0.02234232
63	0xbceb3d58	-0.028715774
64	0xbc8d9088	-0.017280832
65	0xbd069441	-0.03285623
66	0x3c137aaa	0.009001413
67	0x3b98a94a	0.0046588527
68	0xbcdb87b7	-0.026798112
69	0xbc97100b	-0.018440267
70	0xbd203237	-0.03911039
71	0x3cd1d711	0.025615247
72	0x3ca32376	0.01991437
73	0x3c2fcea1	0.0107304165
74	0x3c53e6d7	0.0129334545
75	0xbad7e5f0	-0.0016471725
76	0xbbcbce07	-0.0062196287
77	0xbd3e6887	-0.046486404
78	0xbd5c0684	-0.05371715
79	0x3ce4362f	0.027857868
80	0x3c97c8d1	0.018528374
81	0x39deb9eb	0.0004248166
82	0x3d358a06	0.044321083
83	0xbc2b4ef8	-0.010455839
84	0xbbd5d01f	-0.006525054
85	0xbd0bff7e	-0.034179203
86	0x3cc8cc7e	0.024511572
87	0x3b4695ff	0.0030301807
88	0xbaf74809	-0.0018866073
89	0x3ce0943e	0.027414437
90	0xbca95170	-0.020668715
91	0x3cd46070	0.025924891
92	0xbd0661ae	-0.032808
93	0xbd0f51ae	-0.034990005
94	0x3cc8f0ee	0.024528947
95	0x3cc2cd8f	0.023779659
96	0xbd282b9c	-0.041057214
97	0xbc345c5a	-0.011008346
98	0xbc02dfbc	-0.007987913
99	0x3d8091ba	0.06277795
100	0xbc180afb	-0.009279962
101	0xbb29a6d8	-0.00258868
102	0x3bfc0531	0.0076910486
103	0x3ccac3a1	0.024751486
104	0x3ccd1ab9	0.025037156
105	0xbc51035c	-0.012757149
106	0x3cb2390a	0.021755714
107	0xbd86f862	-0.06590344
108	0xbd217c0a	-0.039424933
109	0xbd24f01f	-0.04026806
110	0x3d0500ab	0.03247134
111	0x3c6b4e2c	0.014361899
112	0xbca29e08	-0.019850746
113	0xbbe64fac	-0.0070285406
114	0x3cc7c53a	0.024386037
115	0x3cd138cc	0.025539778
116	0x3d3eacb1	0.04655141
117	0xbcc33763	-0.023830121
118	0xbcb32259	-0.021866964
119	0x3d1bc956	0.038033806
120	0xbcc40c5f	-0.02393168
121	0xbcdbfe7e	-0.02685475
122	0x3cc6abdb	0.024251869
123	0xbbf342e9	-0.007423748
124	0xbd1b6ccb	-0.03794555
125	0xbc974be7	-0.01846881
126	0xbd42caa6	-0.04755654
127	0xbba9a9db	-0.005177719

output_layer.weight f4 [9, 128]
0	0xbd0df10f	-0.03465372
1	0x3d47f7e2	0.048820384
2	0xbc20d85a	-0.009817207
3	0xbd591538	-0.05299875
4	0x3d531e4b	0.05154256
5	0x3c98c8ec	0.018650495
6	0x3d76cbfd	0.060253132
7	0x3d52ff79	0.05151317
8	0x3dcb68fe	0.09932135
9	0x3c032285	0.008003836
10	0x3b53aadb	0.0032297883
11	0x3d1d0111	0.038331095
12	0x3cc9946a	0.024606902
13	0xbca160df	-0.019699512
14	0x3d86e39c	0.06586382
15	0xbcc9c7e5	-0.02463145
16	0x3ccd7a78	0.025082812
17	0x3cdf06a5	0.027224848
18	0xbd000ce8	-0.03126231
19	0x3d9b3043	0.075775646
20	0x3c98503f	0.018592952
21	0xbd45d00c	-0.048294112
22	0xbc9acfec	-0.018897973
23	0xbbac94f5	-0.0052667805
24	0x3bc18247	0.005905423
25	0xbd2aec99	-0.041729543
26	0xbc8e2cff	-0.01735544
27	0x3cd55488	0.026041284
28	0xbd8cf1d8	-0.068820655
29	0x3dba897f	0.091082565
30	0xbda42fbb	-0.08016916
31	0x3dc056ab	0.093915306
32	0x3c251fc7	0.010078377
33	0xbdf50a7e	-0.11964892
34	0xbd7b7b48	-0.061396867
35	0xbcee289c	-0.029072098
36	0x3de35864	0.111008435
37	0xbdcad620	-0.09904122
38	0xbdeb1825	-0.114792146
39	0xbcce4563	-0.02517957
40	0x3da1c02e	0.078979835
41	0x3da3f535	0.08005754
42	0xbdbd466f	-0.0924195
43	0x3db3c57e	0.08777903
44	0x3c8577c5	0.016292462
45	0x3d86b6cf	0.06577837
46	0x3ca70e04	0.020392425
47	0xbdbfee96	-0.093716785
48	0x3c33efa5	0.010982429
49	0x3b789928	0.0037933085
50	0xbc85694e	-0.016285565
51	0x3d637cf9	0.055539105
52	0xbd45d766	-0.048301123
53	0x3d851d0a	0.064996794
54	0x3c8cb7ae	0.017177429
55	0xbd27950d	-0.04091363
56	0xbb9751ed	-0.0046179206
57	0xbcc38a92	-0.023869786
58	0x3cc49d88	0.024000898
59	0xbd806d33	-0.06270828
60	0x3c9fa3e1	0.019487323
61	0xbce8820a	-0.02838232
62	0x3dfec9eb	0.124408565
63	0x3bde6d88	0.0067879595
64	0xbd470a62	-0.048593886
65	0x3cdef39e	0.027215775
66	0xbc1bca30	-0.0095086545
67	0xbcd20825	-0.02563865
68	0xbd3e7f84	-0.046508327
69	0xbc4823d3	-0.012215572
70	0xbd1cb981	-0.038262848
71	0x3da74426	0.08167295
72	0x3d8d57f4	0.06901541
73	0x3e1de438	0.1541909
74	0xbc384867	-0.011247731
75	0x3dab136a	0.08353312
76	0xbd90d582	-0.070719734
77	0xbc9b2557	-0.018938703
78	0xbcec13ea	-0.02881809
79	0x3d63b8a4	0.05559601
80	0x3d76ede3	0.06028546
81	0x3cc54581	0.024080994
82	0xbd803883	-0.06260779
83	0x3d43df57	0.047820415
84	0x3d0a9215	0.03383072
85	0xbd5e0d13	-0.054211687
86	0xbd516ffe	-0.051132195
87	0xbd021b9b	-0.031764608
88	0xbd3df6e8	-0.046378046
89	0xbd3a43ab	-0.04547469
90	0xbcab69e1	-0.02092451
91	0xbcb6e817	-0.022327466
92	0xbd628af0	-0.055308282
93	0xbc27394e	-0.010206534
94	0xbd6080f9	-0.054810498
95	0xbc7eade1	-0.015544386
96	0xbc6fab71	-0.014628277
97	0x3c780b73	0.015139448
98	0x3d2530f1	0.040329877
99	0x3d645a47	0.055750158
100	0x3d04577d	0.032309998
101	0xbc18daf9	-0.009329551
102	0x3d0d1b89	0.034450088
103	0x3d4d706e	0.05015605
104	0xbd3f8893	-0.046761107
105	0x3c5e77db	0.01357838
106	0xbde27a2d	-0.110584594
107	0x3c790916	0.01519992
108	0xbc88a157	-0.016678495
109	0x3d2bcca8	0.041943222
110	0xbd15cb6d	-0.036570955
111	0x3d842d17	0.06453913
112	0xbd7d2b08	-0.061808616
113	0xbc36f6cf	-0.011167242
114	0x3da8b45e	0.08237527
115	0x3d030671	0.031988565
116	0x3dd12d22	0.102136865
117	0xbdf0b3fa	-0.11753078
118	0x3d2885a4	0.041143075
119	0x3dd7e582	0.10541822
120	0xbd713f9c	-0.058898553
121	0xbba5eeb0	-0.005063854
122	0xbc940492	-0.018068586
123	0xbd3a6050	-0.045502007
124	0xbd5da136	-0.05410882
125	0x3da4fa51	0.080555566
126	0xbd37d725	-0.044882912
127	0x3d19c947	0.03754547
128	0x3d2a42e9	0.041567717
129	0xbcc24dbf	-0.023718713
130	0x3d309188	0.04310754
131	0xbded23f7	-0.115791254
132	0x3defeb50	0.11714804
133	0xbd90f1cf	-0.07077371
134	0xbd7a5fa2	-0.06112636
135	0x3e0429c1	0.12906553
136	0x3c3c2066	0.011482334
137	0xbddac448	-0.10681969
138	0x3c57cd41	0.013171495
139	0xbe1eccc1	-0.15507795
140	0xbd3ea1ad	-0.046540905
141	0x3cf24eca	0.029578585
142	0x3db5b88f	0.088730924
143	0xbdae6c3c	-0.08516738
144	0xbd5e7eaf	-0.054320034
145	0xbdcacef1	-0.09902752
146	0xbdc8697b	-0.09785744
147	0xbdcf0bd7	-0.1010968
148	0xbdf2ae76	-0.11849682
149	0xbd90cabb	-0.07069918
150	0x3dde44e7	0.10852986
151	0x3e0f8292	0.14014652
152	0x3d71fc94	0.059078768
153	0xbde8a1f4	-0.11359015
154	0x3dd312cf	0.10306322
155	0xbd04e759	-0.032447193
156	0x3d97e5eb	0.074169
157	0xbd719761	-0.058982257
158	0x3c0ce392	0.008599179
159	0x3dd9880d	0.10621653
160	0xbd06b8bb	-0.032891016
161	0xbda87814	-0.08226028
162	0x3c3e11e1	0.011600942
163	0x3dc18026	0.094482705
164	0x3e412c01	0.18864442
165	0x3d5f8666	0.05457153
166	0x3d0933af	0.033496555
167	0x3c001c97	0.007819316
168	0xbd86e3a2	-0.06586386
169	0xbc9254d2	-0.017862711
170	0xbd8516f5	-0.06498519
171	0xbd070607	-0.032964732
172	0xbd38963a	-0.045065142
173	0xbdf04201	-0.11731339
174	0xbe1525fe	-0.14565274
175	0xbdc0ac60	-0.09407878
176	0xbdd92202	-0.106021896
177	0x3d560188	0.052247554
178	0xbc60db74	-0.013724197
179	0xbda5dd5f	-0.08098864
180	0xbdb9eb8e	-0.090781316
181	0x3c7a0c6c	0.015261751
182	0xbd7f0d65	-0.062268633
183	0x3e2b6fac	0.16741818
184	0x3e048918	0.12942922
185	0xbe08bde8	-0.13353693
186	0xbc871461	-0.01648921
187	0xbbdeaa5f	-0.006795212
188	0xbc194779	-0.009355419
189	0x3ca645a0	0.020296872
190	0x3df59435	0.11991159
191	0xbbc9657a	-0.00614613
192	0x3e3577b3	0.17721443
193	0x3ded4fae	0.11587463
194	0x3d93eff5	0.072235025
195	0xbd82174b	-0.06352099
196	0xbdb53bd0	-0.08849299
197	0xbe6b3d00	-0.22972488
198	0x3e1ca25c	0.1529631
199	0xbdd90f57	-0.10598629
200	0xbd597466	-0.05308952
201	0xbb185f28	-0.0023250077
202	0x3db67292	0.08908571
203	0xbde528f3	-0.11189451
204	0xbc4c2d06	-0.012461906
205	0x3d6458d8	0.05574879
206	0xbd718001	-0.058959965
207	0xbd5ad7c0	-0.05342841
208	0x3e2e6142	0.17029288
209	0x3c38757e	0.011258481
210	0x3d2e6955	0.04258092
211	0xbd9997d7	-0.07499664
212	0xbe1b897d	-0.15189166
213	0xbdcf57e0	-0.10124183
214	0x3d8c56fa	0.06852527
215	0x39ff1ede	0.00048660388
216	0x3e308466	0.17238006
217	0x3dcab413	0.09897628
218	0xbd9dfeb1	-0.07714594
219	0x3d729fb7	0.059234347
220	0x3dd387af	0.10328614
221	0x3d6fd967	0.05855694
222	0x3da2dabd	0.07951877
223	0x3e018746	0.12649259
224	0xbd0a494b	-0.033761304
225	0xbd3c45e6	-0.045965098
226	0x3d96e3a1	0.073676355
227	0x3ca7d319	0.020486401
228	0x3ddcdf7b	0.10784813
229	0x3e886167	0.26636812
230	0x3dfb2829	0.12263519
231	0xbd9dfabe	-0.07713841
232	0x3d9cc842	0.07655384
233	0xbe68dfa2	-0.22741559
234	0x3d1f683e	0.038917772
235	0xbdb0b679	-0.08628554
236	0x3cb38374	0.021913268
237	0x3e5115ea	0.20418516
238	0xbe2c4ddf	-0.1682658
239	0x3ce38854	0.027774967
240	0x3dccfade	0.100087866
241	0x3dd24c42	0.10268451
242	0x3dd813cc	0.10550651
243	0x3d67b56f	0.056569513
244	0xbb01e5a5	-0.0019820717
245	0xbdb8bc07	-0.09020238
246	0x3db70db2	0.08938159
247	0x3dc7a62f	0.09748494
248	0x3cbe29d3	0.023213303
249	0xbe211fc0	-0.15734768
250	0x3d438c26	0.047741078
251	0xbe26e589	-0.16298498
252	0xbe1a5306	-0.15070733
253	0xbd931a96	-0.07182805
254	0x3cd29b17	0.025708718
255	0xbda8a874	-0.08235255

output_layer.bias f4 [9]
0	0xbc057a32	-0.008146809
1	0xbd13216a	-0.035920538
2	0x3dd63522	0.10459353
3	0xbd8ce639	-0.06879849
4	0x3cd2393c	0.025662057
5	0x3d57ced4	0.05268748
6	0xbc3b5f8a	-0.0114363525
7	0xbd153b6a	-0.036433615
8	0xbf1e9e0c	-0.6195991
