src/logs/linear_fashionmnist_holdout_[8]_swil0.pt (torch, 408595 bytes, 4 tensors)

input_layer.weight f4 [128, 784]
00000000: c616 3c3c 9f86 f5bb c921 2cbd e0bf 333c
00000010: 1ec7 35bb c5f9 4bbd 4bac af3b 7cb5 b33d
00000020: 2f0a 253d c5f2 863d 803f e23d b2f1 233e
00000030: ab10 e8bc 3b3a 12bd 8c82 6a3c 82f4 9dbd
00000040: a07c 9f3d 0b54 ed3d bdba d53c a5f0 143d
00000050: 8c8f 013e 3a22 8b3d 1d16 18bd 1fdd 23bb
00000060: f3fa e73a 5690 63bd 952f 2fbd c1d2 89bc
00000070: b636 2fbd fdb3 153b 9899 e4bc feab 043b
00000080: 34cc 63bd 28db d3bc 8aa9 633c 54c0 4ebd
00000090: 9bcd 6bbc b78e 25bc 721d 1e3d 5073 f93a
000000a0: 71e5 8b3c f8f3 c93c 0231 353d e1ba 62bd
000000b0: c5ad 633d 1af0 0c3d e4f1 183d 7c94 3dbb
000000c0: f96b 163c 76c7 453d f641 eb3b da00 57bd
000000d0: 6c6d 54bd ec40 17bd 51f2 273c 4234 0abc
000000e0: cb77 be3b 959e 21bd 3a20 293c 03e0 903a
000000f0: 9375 4cbc 7867 5fbd 74c1 b7bc 9ba2 8abc
00000100: bef4 04bc 6a79 593c e2fa 2fbc e082 df3c
00000110: 3dcc 1ebc 6804 8ebc 03bd c23c 4edf 94bd
00000120: 0646 dc3c e24d abbb cde9 0ebd 7d68 68bd
00000130: d61d 06bc 043a 443d 889c 34bc 5d53 0cbd
00000140: ee8d 36bc da0b 2cbc 5a8f 04bd 818c 163b
00000150: e9e4 cfbc ff00 c2bc 6928 d43b 5abc ac3c
00000160: 73cd 283d f2fb b93c 3833 893d 4916 933c
00000170: a483 b3bc fcaf 533c e74d 893d 585a 403d
00000180: 6a3b ef3b a0d0 5abd fa68 d8bc 700c b1bc
00000190: 580d 703c e78a 4c3d e73d db3c 110b 92bd
000001a0: e94d 90bd ff20 dd3c ccce 2bbc 1c55 a4bb
000001b0: a7a2 f2bb 0a77 40bd a754 c33b cbc9 e9bc
000001c0: d69c 67bd 0a01 a0bc 6a20 183c acdd 1039
000001d0: b23d 433c def8 71bc 80af da3d 0dc3 073d
000001e0: e45a 1338 ed9d b63c 87f3 363d 6d4e cabc
000001f0: becd 83bd 54fd 8e3b af93 aabd eae4 f1bc
00000200: ff0a d0bc 00d8 ae3c 2e81 9f3d e911 19bd
00000210: 05be ffbc f303 38bb ec01 4cbc 006e 993c
00000220: 117b 92bc 2030 cebc 3692 0bbc 5ba1 89bb
00000230: fdc6 533c 1818 23bd 9663 7fbc ba1d bd3c
00000240: e8f8 c73c ba44 9b3d 0aae 673d 34fe 5b3d
00000250: 9602 9a3d bb36 d9bb c2f5 f0bc aecd ccbc
00000260: 4210 bd3a afa0 85bc 3e3c 343c 0a28 babc
00000270: e4a4 1dbd cfba 0c3d 860a a23d b426 8a3b
00000280: 51af 1fbd 2272 88bc eec3 0a3c bfdc 18bd
00000290: 4e36 ebbc 8dbf a1bd eac5 1abd 3421 733c
000002a0: de8a 00bd 907b ccbc ad18 9fbc 18da 1ebd
000002b0: a79f 3dbc 258b 213d e151 8c3d d53f 7d3d
000002c0: ecac 223d 60d5 db3b cc60 da3c f6fb 05bd
000002d0: ee13 4cbd 6546 09bd 04a7 abbc a549 28bd
000002e0: 0d5d e4ba a4aa 7f3d 2207 253d 3456 b83c
000002f0: a9da b7bd 46c8 92bd cf6d c33b 6e7b 843c
00000300: a855 ccbd d0ae e3bc c8c7 3c3d b442 0cbc
00000310: 7e65 47bd 8bbb 89bc 5ebb 42bc 5b0e 36bc
00000320: e5f8 abbc b5d0 1a3d 68e0 fb3d c657 513d
00000330: 6f70 903c e392 8d3b d863 3fbb 27b0 a1bd
00000340: 6cc4 b7bc 5479 18bd 742d 48bd 5343 0d3d
00000350: c37f 253d 1078 563c 14b4 ae3d 4a2f e23d
00000360: 8a7b cc3d 32fa 04bd 67bc 2a3b edda d7bc
00000370: 89ad 25bd e121 43bd 8729 553c 55b0 bebc
00000380: ae48 81bb 2864 903c 84ab 9abc e295 093c
00000390: d088 e23c 5a12 583d a709 803d 1935 793d
000003a0: 7db1 c03d 7e4e c53c 35a3 993c fc31 95bd
000003b0: 52a1 af3c 9775 8fbd 6d02 e1bd 0e2e ebbd
000003c0: 2e38 343c 735a db3d 344b 0f3d 0506 b7bc
000003d0: 2c3e f7bc 31db 11bd 3251 273c bb7d 3abd
000003e0: 5536 2fbd 4981 41bd 23ff 6cbd 69bc 493b
000003f0: 8fd9 2f3b ce14 d73c cacc a2bc 8113 dc3c
0.011480039 -0.0074928547 -0.042024408 0.0109710395 -0.0027737091 -0.049798746 0.005361115 0.0877485
0.040292915 0.06589273 0.11047268 0.16010168 -0.02832826 -0.035700064 0.014313351 -0.07712652
0.07787442 0.115882955 0.02609002 0.03636231 0.12652415 0.067936376 -0.037130464 -0.0025003625
0.001769869 -0.05555757 -0.042769987 -0.016824128 -0.042776786 0.0022842877 -0.02790527 0.0020244117
-0.055614665 -0.025861338 0.013895402 -0.050476387 -0.014392282 -0.010104827 0.0386023 0.0019031558
0.01707718 0.024652466 0.04423619 -0.055354003 0.05558564 0.034408666 0.03734006 -0.0028927615
0.009181016 0.048285924 0.007179494 -0.052491046 -0.051862165 -0.03692715 0.010250644 -0.008435311
0.0058126203 -0.039457876 0.010322625 0.0011053089 -0.012479204 -0.054542035 -0.022431113 -0.01692324
-0.008114992 0.013273576 -0.0107409675 0.027284086 -0.009692249 -0.017336085 0.023771768 -0.072691545
0.026888859 -0.00522779 -0.03489094 -0.056740273 -0.008185824 0.04790689 -0.011023648 -0.03425919
-0.011142237 -0.0105008725 -0.032363273 0.002297193 -0.025377708 -0.023682116 0.006474544 0.021085907
0.041211557 0.022703145 0.06699222 0.017954962 -0.021913357 0.012920376 0.06704312 0.04696116
0.007300784 -0.053421617 -0.026417244 -0.021612376 0.014651619 0.049937155 0.026762916 -0.07131017
-0.0704611 0.026993273 -0.010486316 -0.0050150286 -0.0074046436 -0.046988524 0.005961019 -0.028538605
-0.056546055 -0.019531745 0.009285072 0.0001381549 0.011916565 -0.014768807 0.10678005 0.033145
3.513218e-05 0.022292102 0.04466584 -0.0246956 -0.064357266 0.004363695 -0.0832895 -0.0295281
-0.025395868 0.021343231 0.07788311 -0.037370596 -0.031218538 -0.0028078526 -0.01245163 0.01872921
-0.017880948 -0.025169432 -0.008518746 -0.0042001433 0.0129258605 -0.0398179 -0.015587708 0.023085464
0.02441068 0.07581468 0.05656246 0.053709224 0.075200245 -0.006628839 -0.029414061 -0.02500042
0.0014424401 -0.016311971 0.011000691 -0.02272417 -0.03848733 0.034357842 0.079121634 0.0042160396
-0.038985554 -0.016655985 0.008469565 -0.037319895 -0.028712418 -0.078978635 -0.0377864 0.014839459
-0.031382434 -0.024961263 -0.019420946 -0.03878221 -0.011573709 0.03943934 0.06851555 0.061828453
0.039715692 0.006708786 0.026657484 -0.03271099 -0.049823694 -0.0335144 -0.020953663 -0.041085858
-0.0017422751 0.062418595 0.040290006 0.022502042 -0.08977253 -0.071671054 0.005964018 0.016172137
-0.09977275 -0.027793318 0.046088964 -0.008560825 -0.048680775 -0.01681306 -0.011885492 -0.011111821
-0.020992706 0.037796695 0.122986615 0.051109098 0.017631738 0.004320489 -0.0029203799 -0.078949265
-0.022432528 -0.037225083 -0.048871472 0.034488034 0.040405046 0.013090149 0.08530441 0.11044176
0.09984501 -0.032465167 0.0026052238 -0.02634951 -0.0404487 -0.04763973 0.013010389 -0.023277441
-0.0039454317 0.017625883 -0.018880613 0.008397551 0.027653128 0.052751876 0.06251841 0.060841653
0.09408853 0.02408528 0.018754581 -0.072849244 0.021439228 -0.0700485 -0.10986791 -0.114833936
0.010999722 0.10710611 0.03498383 -0.022341738 -0.030181013 -0.035609428 0.01021223 -0.045530062
-0.042776424 -0.047242437 -0.057860505 0.0030782467 0.0026832556 0.026255038 -0.019873042 0.026864769

input_layer.bias f4 [128]
00000000: 8ea0 f83c c1fe 60bc 670b 143d eb80 a73d
00000010: 04ad 6d3c b49f e63c e668 8b3d 0a68 8e3d
00000020: 2d5a cd3b 3c37 26bc 6ac7 2f3d 3898 9d3c
00000030: dc5a 17bd ae6b 3c3d d126 553d fa8a 5dbb
00000040: 4a95 383c bf3e c3bc b002 3bbd b495 5cbc
00000050: efff 18bd 79f2 dbbc 5ee3 2dbd 3b56 98bc
00000060: 39c9 b53c ee9b 42bc 3d09 013d 0345 0dbd
00000070: f3a7 093d 5465 333c baf9 73bc 3305 1d3d
00000080: 4d4b a53b 80d7 a83c c78c 1ebd bbf0 0b3d
00000090: 671f 6e3b 7f18 f9bc 8c13 223d 1674 fe3b
000000a0: faa9 dabc f94e 703c 33b2 e1bc a820 203d
000000b0: a2f7 c6bb 2c4d 2a3d 960e 03bb df2c 6abc
000000c0: 90c6 f3bb 1414 46bc 3fe6 3a3c b413 a73b
000000d0: 751d 1f3d d3e3 28bd 111f 6cbc af1a e0bc
000000e0: eb02 5fbd 875e 3f3d a50f 533c ce27 52bd
000000f0: d533 af3c 45e6 33bd 3e07 b73c 583d ebbc
00000100: 8890 8dbc 4194 06bd aa7a 133c 4aa9 983b
00000110: b787 dbbc 0b10 97bc 3732 20bd 11d7 d13c
00000120: 7623 a33c a1ce 2f3c d7e6 533c f0e5 d7ba
00000130: 07ce cbbb 8768 3ebd 8406 5cbd 2f36 e43c
00000140: d1c8 973c ebb9 de39 068a 353d f84e 2bbc
00000150: 1fd0 d5bb 7eff 0bbd 7ecc c83c ff95 463b
00000160: 0948 f7ba 3e94 e03c 7051 a9bc 7060 d43c
00000170: ae61 06bd ae51 0fbd eef0 c83c 8fcd c23c
00000180: 9c2b 28bd 5a5c 34bc bcdf 02bc ba91 803d
00000190: fb0a 18bc d8a6 29bb 3105 fc3b a1c3 ca3c
000001a0: b91a cd3c 5c03 51bc 0a39 b23c 62f8 86bd
000001b0: 0a7c 21bd 1ff0 24bd ab00 053d 2c4e 6b3c
000001c0: 089e a2bc ac4f e6bb 3ac5 c73c cc38 d13c
000001d0: b1ac 3e3d 6337 c3bc 5922 b3bc 56c9 1b3d
000001e0: 5f0c c4bc 7efe dbbc dbab c63c e942 f3bb
000001f0: cb6c 1bbd e74b 97bc a6ca 42bd dba9 a9bb
0.030349996 -0.013732613 0.036143687 0.08178886 0.014506582 0.028152324 0.06807117 0.069534376
0.0062668533 -0.010145005 0.042914785 0.019237623 -0.036951885 0.04600113 0.05203897 -0.003380476
0.011266062 -0.02383363 -0.04565686 -0.013463426 -0.037353452 -0.026849018 -0.042453162 -0.018595805
0.022190677 -0.011877997 0.03150295 -0.034489643 0.033607434 0.0109494515 -0.014891082 0.038335036
0.005044377 0.02061057 -0.038708474 0.034165125 0.0036334635 -0.030407188 0.039569423 0.0077653034
-0.02669238 0.014667266 -0.027550792 0.039093643 -0.0060720006 0.041577503 -0.0019997708 -0.014292925
-0.007439442 -0.012089748 0.011407434 0.0050987843 0.03884645 -0.041232895 -0.014411704 -0.027356474
-0.054446142 0.046721008 0.012882148 -0.051307492 0.02138702 -0.043920774 0.02234232 -0.028715774
-0.017280832 -0.03285623 0.009001413 0.0046588527 -0.026798112 -0.018440267 -0.03911039 0.025615247
0.01991437 0.0107304165 0.0129334545 -0.0016471725 -0.0062196287 -0.046486404 -0.05371715 0.027857868
0.018528374 0.0004248166 0.044321083 -0.010455839 -0.006525054 -0.034179203 0.024511572 0.0030301807
-0.0018866073 0.027414437 -0.020668715 0.025924891 -0.032808 -0.034990005 0.024528947 0.023779659
-0.041057214 -0.011008346 -0.007987913 0.06277795 -0.009279962 -0.00258868 0.0076910486 0.024751486
0.025037156 -0.012757149 0.021755714 -0.06590344 -0.039424933 -0.04026806 0.03247134 0.014361899
-0.019850746 -0.0070285406 0.024386037 0.025539778 0.04655141 -0.023830121 -0.021866964 0.038033806
-0.02393168 -0.02685475 0.024251869 -0.007423748 -0.03794555 -0.01846881 -0.04755654 -0.005177719

output_layer.weight f4 [9, 128]
00000000: a2ec d8bd 7256 c8bc da5a 633d 2d06 10bd
00000010: ec63 f73c 1cc7 163d 473d 933d cad6 b93c
00000020: a7e8 183e 2450 7c3d 3c96 85bd 9229 893d
00000030: 777a 823d 1c83 93bd b749 b43d 04be a2bd
00000040: 97da 513d c2e3 273d 8efd bfbc f8ca e03d
00000050: 9ba7 713d bb03 bfbd 9a0c b9bc b641 893c
00000060: d900 2b3d 9d28 32bd ef09 57bd 3263 223d
00000070: 514b cdbd 2122 2d3d e119 babd 64b2 c63d
00000080: 8930 52bc dd93 c3bd 634c 5ebc 5122 d2bd
00000090: 7c64 db3d 2337 f5bd 74ee 31be 0311 6b3b
000000a0: 7a30 d73d 5598 0a3e d8d1 36bd 3516 e43d
000000b0: 371b 693d 4e48 bd3d b44d f43c 1eb8 aebd
000000c0: 04d3 e23c 71b5 313d d9b8 133d d1ff cd3d
000000d0: 7640 a2bd fe6f 173e 1110 4cbd ac10 8dbd
000000e0: 267d 0bbd 2adc 0abd 4b5c 8e3d 22ed 2dbc
000000f0: 7247 9f3d ba84 8dbc 07f2 903d 1b5e a73c
00000100: 6082 d4bd 88c8 15bd 40b3 bbbd 1088 b7bc
00000110: 7317 afbd bb2a c03c ee38 8e3c 7653 dd3d
00000120: 84c2 a23c b7d5 4b3e 396b 1dbd 2814 533d
00000130: 8ecf bebd b6b4 7a3d 9bd8 cb3b f666 173d
00000140: c7cc 463d 2ed3 a23c 0b3d 4fbe 0eef 0c3d
00000150: 2bc5 113d cc64 fd3b a626 e8bd 74bc f5bc
00000160: c175 e7bd bf39 fabc 2dff 9e3d 8a18 f43c
00000170: a5f7 adbd 50b2 943d a4f0 dabd 7ed7 84bd
00000180: 93f1 9dbc a260 223c add0 a03d 92b2 833d
00000190: c5a8 bb3c 3bed 15bd 8cbd 8dbb c3db 3b3d
000001a0: d29a 30bd a43c 013d 7a35 06be 13ec 563c
000001b0: 8e5f 84bd 5992 883d 4df9 56bd 2319 10bc
000001c0: 963f efbd 23f6 d6bd 3a83 73bd e4f3 7b3d
000001d0: 2c52 bdbb fbd9 f8bd 3069 393d a4cd de3d
000001e0: 2610 7fbd a20f 29bc 5b13 f5bd 2b28 68bd
000001f0: 6ba3 ad3b 661d f43d 2296 83bd 5e67 4f3c
00000200: 9b6f 1b3d 07f4 fdbc fa63 8b3c 582c fabd
00000210: 4e80 db3d e21a d5bc 1d7d f0bc aa15 a63d
00000220: e761 7e3d 50c4 cabd d4d2 28bd f319 9abd
00000230: 696c debd 6991 a9b9 0acc a03d 4c26 02be
00000240: d542 63bc 9957 e4bd f604 ddbc 742f cabd
00000250: 508b 1dbe 332d a1bd 33c8 b8bc e913 f03d
00000260: e6d3 b83d adee 24be d270 783d 9a00 0cbc
00000270: 6c5f ed3c 6d43 5dbd 9601 33bc a72e 033e
00000280: afb5 1abc 7353 d0bd c578 9dbb bdfa 93bd
00000290: f46b 733e 86d0 46bd 1069 c5bb 25af 26bc
000002a0: b6bf 27bd 10c1 c63c 7edf a7bd cf60 f0bc
000002b0: 8200 c2bd 411f 19be 9413 78bd 9265 00be
000002c0: bc10 29be 0445 8e3d 806a 0abc 03dc c9bd
000002d0: 46e3 07be aaef 5b3d 4c9d cebd 8253 653e
000002e0: 84a1 b03d 6bf4 31be 99d0 0d3d f8ba 62bd
000002f0: 6c41 86bb fa1a 963c 92e4 ab3d e732 21be
00000300: a403 ad3c 35e6 b83d e302 5bbc 17dc a6bd
00000310: ca33 d9bd 3112 18be 9953 293e 8473 1dbe
00000320: cd92 b4bd 82ff 45bc 62d8 ef3d 3b0d 28be
00000330: eac3 0e3a f189 723d 1d9e 01bd cf2a 71bc
00000340: 9a40 293e b0af 973d 9987 593a 627b 9cbd
00000350: d588 4abe 872d d2bd 35e4 e7bb a873 8c3d
00000360: 84e8 093e 0e26 1f3e 1b29 b53d c2e0 a73d
00000370: 7183 3f3d 9249 153d 4c27 a53c 9b46 783d
00000380: f989 89bd f532 15bd a2fa a93d b88a ac3d
00000390: 0e6c f33d 5482 803e a5a8 003e d17e 343d
000003a0: 178b 07bd 6fa2 5ebe 37ae 123c 8c42 cebd
000003b0: 0f85 e13d 3630 9e3d f25c e3bd d85c 293d
000003c0: d98b abbd 6e59 573d c8a0 dc3d 9243 b83d
000003d0: 52fb a8bd d027 02be 2338 483e 0c3f 033e
000003e0: c325 203e 22e6 65be 7cca 88bd cf09 32be
000003f0: 8643 39be 0f9f d4bc 414e dbbd f3c7 ddbc
-0.10592009 -0.024455283 0.055506565 -0.03516214 0.030199014 0.03681098 0.07189422 0.022685427
0.149325 0.061599866 -0.065227956 0.06697382 0.063710146 -0.072027415 0.088031225 -0.07946399
0.051233854 0.04098869 -0.023436334 0.10976213 0.05899773 -0.093268834 -0.022589017 0.016754966
0.041748855 -0.043495763 -0.052499708 0.03964538 -0.10024131 0.042268876 -0.09086967 0.09701994
-0.0128289545 -0.09549687 -0.013568017 -0.102604516 0.10712525 -0.11973407 -0.17376119 0.0035868294
0.10507293 0.13534673 -0.044633716 0.11137048 0.05691072 0.09242307 0.029822208 -0.08531211
0.02768851 0.043385927 0.036064956 0.10058559 -0.07922451 0.14788815 -0.04982001 -0.068879455
-0.034054898 -0.03390137 0.06951197 -0.010615619 0.07777299 -0.017275203 0.07077413 0.020430615
-0.103764296 -0.036568195 -0.091650486 -0.022403747 -0.085493945 0.023457875 0.01736113 0.108069345
0.019868143 0.19905744 -0.038432334 0.051532894 -0.09316932 0.061207496 0.0062208897 0.036963426
0.048535135 0.019876089 -0.2023813 0.034407668 0.035588425 0.007732963 -0.113354966 -0.029997088
-0.11301757 -0.030545114 0.07763515 0.029796857 -0.084945 0.07260573 -0.1069043 -0.064864144
-0.01928023 0.009910734 0.07852302 0.06430544 0.022907624 -0.036603194 -0.0043255743 0.045863878
-0.0431164 0.031551972 -0.13106337 0.013117808 -0.06463538 0.066685386 -0.052483846 -0.008795056
-0.1168205 -0.104961656 -0.05945132 0.06151189 -0.005777618 -0.121509515 0.04526633 0.108790666
-0.06227126 -0.010318669 -0.119665824 -0.056678932 0.005299022 0.1191967 -0.0642512 0.012658922
0.037948232 -0.03100015 0.017015446 -0.12215489 0.107178316 -0.026013795 -0.029356534 0.08109601
0.062105086 -0.09900725 -0.041216686 -0.07524481 -0.10860521 -0.0003234253 0.07851417 -0.12709922
-0.0138709145 -0.111495204 -0.026979905 -0.09872332 -0.15385175 -0.07869949 -0.0225564 0.117225476
0.090247914 -0.16106673 0.06065447 -0.008545065 0.028976165 -0.05401938 -0.010925671 0.12810765
-0.009442731 -0.10172167 -0.0048056566 -0.07225559 0.2377165 -0.048538707 -0.0060244873 -0.010173594
-0.040954314 0.024261981 -0.081969246 -0.029343037 -0.09472753 -0.14953329 -0.060565546 -0.12538746
-0.1651029 0.069467574 -0.008448243 -0.09856417 -0.13270292 0.05369536 -0.10088596 0.22395137
0.08624557 -0.17378394 0.034622762 -0.05535409 -0.0040971544 0.01832341 0.08393206 -0.15742074
0.0211199 0.090282835 -0.0133673875 -0.081474476 -0.10605581 -0.1485069 0.16535796 -0.15376097
-0.088170625 -0.012084844 0.117111936 -0.16411297 0.00054460636 0.059213582 -0.03164493 -0.014719679
0.1652855 0.074065566 0.00082980987 -0.07640721 -0.1977876 -0.1026259 -0.007076765 0.06857997
0.13467604 0.1554186 0.08845731 0.08197166 0.04675621 0.036447115 0.02016034 0.06061421
-0.06715769 -0.03642555 0.082997575 0.08424896 0.11885844 0.25099432 0.12564333 0.044066254
-0.03309163 -0.21741651 0.008952669 -0.100712866 0.11011707 0.07724039 -0.11101712 0.04134831
-0.08376283 0.05257552 0.10772854 0.08997263 -0.082510605 -0.127105 0.19552664 0.12817019
0.15639405 -0.2245107 -0.06679246 -0.17386554 -0.18092164 -0.025954751 -0.10708285 -0.027072882

output_layer.bias f4 [9]
00000000: 76b9 833d 4317 dd3b 4e69 ce3d afa9 bbbd
00000010: 1dd8 af3b 89cf a6bb bccd b2bc 3fa8 07be
00000020: bcdf 2ebf
0.06431858 0.006747158 0.10078679 -0.09163224 0.005366339 -0.005090658 -0.021826617 -0.13247775
-0.6831014
