src/logs/linear_fashionmnist_holdout_[8]_swil2.pt (torch, 408595 bytes, 4 tensors)

input_layer.weight f4 [128, 784]
0.011480039 -0.0074928547 -0.042024408 0.0109710395 -0.0027737091 -0.049798746 0.005361115 0.0877485
0.040292915 0.06589273 0.11047268 0.16010168 -0.02832826 -0.035700064 0.014313351 -0.07712652
0.07787442 0.115882955 0.02609002 0.03636231 0.12652415 0.067936376 -0.037130464 -0.0025003625
0.001769869 -0.05555757 -0.042769987 -0.016824128 -0.042776786 0.0022842877 -0.02790527 0.0020244117
-0.055614665 -0.025861338 0.013895402 -0.050476387 -0.014392282 -0.010104827 0.0386023 0.0019031558
0.01707718 0.024652466 0.04423619 -0.055354003 0.05558564 0.034408666 0.03734006 -0.0028927615
0.009181016 0.048285924 0.007179494 -0.052491046 -0.051862165 -0.03692715 0.010250644 -0.008435311
0.0058126203 -0.039457876 0.010322625 0.0011053089 -0.012479204 -0.054542035 -0.022431113 -0.01692324
-0.008114992 0.013273576 -0.0107409675 0.027284086 -0.009692249 -0.017336085 0.023771768 -0.072691545
0.026888859 -0.00522779 -0.03489094 -0.056740273 -0.008185824 0.04790689 -0.011023648 -0.03425919
-0.011142237 -0.0105008725 -0.032363273 0.002297193 -0.025377708 -0.023682116 0.006474544 0.021085907
0.041211557 0.022703145 0.06699222 0.017954962 -0.021913357 0.012920376 0.06704312 0.04696116
0.007300784 -0.053421617 -0.026417244 -0.021612376 0.014651619 0.049937155 0.026762916 -0.07131017
-0.0704611 0.026993273 -0.010486316 -0.0050150286 -0.0074046436 -0.046988524 0.005961019 -0.028538605
-0.056546055 -0.019531745 0.009285072 0.0001381549 0.011916565 -0.014768807 0.10678005 0.033145
3.513218e-05 0.022292102 0.04466584 -0.0246956 -0.064357266 0.004363695 -0.0832895 -0.0295281
-0.025395868 0.021343231 0.07788311 -0.037370596 -0.031218538 -0.0028078526 -0.01245163 0.01872921
-0.017880948 -0.025169432 -0.008518746 -0.0042001433 0.0129258605 -0.0398179 -0.015587708 0.023085464
0.02441068 0.07581468 0.05656246 0.053709224 0.075200245 -0.006628839 -0.029414061 -0.02500042
0.0014424401 -0.016311971 0.011000691 -0.02272417 -0.03848733 0.034357842 0.079121634 0.0042160396
-0.038985554 -0.016655985 0.008469565 -0.037319895 -0.028712418 -0.078978635 -0.0377864 0.014839459
-0.031382434 -0.024961263 -0.019420946 -0.03878221 -0.011573709 0.03943934 0.06851555 0.061828453
0.039715692 0.006708786 0.026657484 -0.03271099 -0.049823694 -0.0335144 -0.020953663 -0.041085858
-0.0017422751 0.062418595 0.040290006 0.022502042 -0.08977253 -0.071671054 0.005964018 0.016172137
-0.09977275 -0.027793318 0.046088964 -0.008560825 -0.048680775 -0.01681306 -0.011885492 -0.011111821
-0.020992706 0.037796695 0.122986615 0.051109098 0.017631738 0.004320489 -0.0029203799 -0.078949265
-0.022432528 -0.037225083 -0.048871472 0.034488034 0.040405046 0.013090149 0.08530441 0.11044176
0.09984501 -0.032465167 0.0026052238 -0.02634951 -0.0404487 -0.04763973 0.013010389 -0.023277441
-0.0039454317 0.017625883 -0.018880613 0.008397551 0.027653128 0.052751876 0.06251841 0.060841653
0.09408853 0.02408528 0.018754581 -0.072849244 0.021439228 -0.0700485 -0.10986791 -0.114833936
0.010999722 0.10710611 0.03498383 -0.022341738 -0.030181013 -0.035609428 0.01021223 -0.045530062
-0.042776424 -0.047242437 -0.057860505 0.0030782467 0.0026832556 0.026255038 -0.019873042 0.026864769
00000000: c616 3c3c 9f86 f5bb c921 2cbd e0bf 333c
00000010: 1ec7 35bb c5f9 4bbd 4bac af3b 7cb5 b33d
00000020: 2f0a 253d c5f2 863d 803f e23d b2f1 233e
00000030: ab10 e8bc 3b3a 12bd 8c82 6a3c 82f4 9dbd
00000040: a07c 9f3d 0b54 ed3d bdba d53c a5f0 143d
00000050: 8c8f 013e 3a22 8b3d 1d16 18bd 1fdd 23bb
00000060: f3fa e73a 5690 63bd 952f 2fbd c1d2 89bc
00000070: b636 2fbd fdb3 153b 9899 e4bc feab 043b
00000080: 34cc 63bd 28db d3bc 8aa9 633c 54c0 4ebd
00000090: 9bcd 6bbc b78e 25bc 721d 1e3d 5073 f93a
000000a0: 71e5 8b3c f8f3 c93c 0231 353d e1ba 62bd
000000b0: c5ad 633d 1af0 0c3d e4f1 183d 7c94 3dbb
000000c0: f96b 163c 76c7 453d f641 eb3b da00 57bd
000000d0: 6c6d 54bd ec40 17bd 51f2 273c 4234 0abc
000000e0: cb77 be3b 959e 21bd 3a20 293c 03e0 903a
000000f0: 9375 4cbc 7867 5fbd 74c1 b7bc 9ba2 8abc
00000100: bef4 04bc 6a79 593c e2fa 2fbc e082 df3c
00000110: 3dcc 1ebc 6804 8ebc 03bd c23c 4edf 94bd
00000120: 0646 dc3c e24d abbb cde9 0ebd 7d68 68bd
00000130: d61d 06bc 043a 443d 889c 34bc 5d53 0cbd
00000140: ee8d 36bc da0b 2cbc 5a8f 04bd 818c 163b
00000150: e9e4 cfbc ff00 c2bc 6928 d43b 5abc ac3c
00000160: 73cd 283d f2fb b93c 3833 893d 4916 933c
00000170: a483 b3bc fcaf 533c e74d 893d 585a 403d
00000180: 6a3b ef3b a0d0 5abd fa68 d8bc 700c b1bc
00000190: 580d 703c e78a 4c3d e73d db3c 110b 92bd
000001a0: e94d 90bd ff20 dd3c ccce 2bbc 1c55 a4bb
000001b0: a7a2 f2bb 0a77 40bd a754 c33b cbc9 e9bc
000001c0: d69c 67bd 0a01 a0bc 6a20 183c acdd 1039
000001d0: b23d 433c def8 71bc 80af da3d 0dc3 073d
000001e0: e45a 1338 ed9d b63c 87f3 363d 6d4e cabc
000001f0: becd 83bd 54fd 8e3b af93 aabd eae4 f1bc
00000200: ff0a d0bc 00d8 ae3c 2e81 9f3d e911 19bd
00000210: 05be ffbc f303 38bb ec01 4cbc 006e 993c
00000220: 117b 92bc 2030 cebc 3692 0bbc 5ba1 89bb
00000230: fdc6 533c 1818 23bd 9663 7fbc ba1d bd3c
00000240: e8f8 c73c ba44 9b3d 0aae 673d 34fe 5b3d
00000250: 9602 9a3d bb36 d9bb c2f5 f0bc aecd ccbc
00000260: 4210 bd3a afa0 85bc 3e3c 343c 0a28 babc
00000270: e4a4 1dbd cfba 0c3d 860a a23d b426 8a3b
00000280: 51af 1fbd 2272 88bc eec3 0a3c bfdc 18bd
00000290: 4e36 ebbc 8dbf a1bd eac5 1abd 3421 733c
000002a0: de8a 00bd 907b ccbc ad18 9fbc 18da 1ebd
000002b0: a79f 3dbc 258b 213d e151 8c3d d53f 7d3d
000002c0: ecac 223d 60d5 db3b cc60 da3c f6fb 05bd
000002d0: ee13 4cbd 6546 09bd 04a7 abbc a549 28bd
000002e0: 0d5d e4ba a4aa 7f3d 2207 253d 3456 b83c
000002f0: a9da b7bd 46c8 92bd cf6d c33b 6e7b 843c
00000300: a855 ccbd d0ae e3bc c8c7 3c3d b442 0cbc
00000310: 7e65 47bd 8bbb 89bc 5ebb 42bc 5b0e 36bc
00000320: e5f8 abbc b5d0 1a3d 68e0 fb3d c657 513d
00000330: 6f70 903c e392 8d3b d863 3fbb 27b0 a1bd
00000340: 6cc4 b7bc 5479 18bd 742d 48bd 5343 0d3d
00000350: c37f 253d 1078 563c 14b4 ae3d 4a2f e23d
00000360: 8a7b cc3d 32fa 04bd 67bc 2a3b edda d7bc
00000370: 89ad 25bd e121 43bd 8729 553c 55b0 bebc
00000380: ae48 81bb 2864 903c 84ab 9abc e295 093c
00000390: d088 e23c 5a12 583d a709 803d 1935 793d
000003a0: 7db1 c03d 7e4e c53c 35a3 993c fc31 95bd
000003b0: 52a1 af3c 9775 8fbd 6d02 e1bd 0e2e ebbd
000003c0: 2e38 343c 735a db3d 344b 0f3d 0506 b7bc
000003d0: 2c3e f7bc 31db 11bd 3251 273c bb7d 3abd
000003e0: 5536 2fbd 4981 41bd 23ff 6cbd 69bc 493b
000003f0: 8fd9 2f3b ce14 d73c cacc a2bc 8113 dc3c

input_layer.bias f4 [128]
0.030349996 -0.013732613 0.036143687 0.08178886 0.014506582 0.028152324 0.06807117 0.069534376
0.0062668533 -0.010145005 0.042914785 0.019237623 -0.036951885 0.04600113 0.05203897 -0.003380476
0.011266062 -0.02383363 -0.04565686 -0.013463426 -0.037353452 -0.026849018 -0.042453162 -0.018595805
0.022190677 -0.011877997 0.03150295 -0.034489643 0.033607434 0.0109494515 -0.014891082 0.038335036
0.005044377 0.02061057 -0.038708474 0.034165125 0.0036334635 -0.030407188 0.039569423 0.0077653034
-0.02669238 0.014667266 -0.027550792 0.039093643 -0.0060720006 0.041577503 -0.0019997708 -0.014292925
-0.007439442 -0.012089748 0.011407434 0.0050987843 0.03884645 -0.041232895 -0.014411704 -0.027356474
-0.054446142 0.046721008 0.012882148 -0.051307492 0.02138702 -0.043920774 0.02234232 -0.028715774
-0.017280832 -0.03285623 0.009001413 0.0046588527 -0.026798112 -0.018440267 -0.03911039 0.025615247
0.01991437 0.0107304165 0.0129334545 -0.0016471725 -0.0062196287 -0.046486404 -0.05371715 0.027857868
0.018528374 0.0004248166 0.044321083 -0.010455839 -0.006525054 -0.034179203 0.024511572 0.0030301807
-0.0018866073 0.027414437 -0.020668715 0.025924891 -0.032808 -0.034990005 0.024528947 0.023779659
-0.041057214 -0.011008346 -0.007987913 0.06277795 -0.009279962 -0.00258868 0.0076910486 0.024751486
0.025037156 -0.012757149 0.021755714 -0.06590344 -0.039424933 -0.04026806 0.03247134 0.014361899
-0.019850746 -0.0070285406 0.024386037 0.025539778 0.04655141 -0.023830121 -0.021866964 0.038033806
-0.02393168 -0.02685475 0.024251869 -0.007423748 -0.03794555 -0.01846881 -0.04755654 -0.005177719
00000000: 8ea0 f83c c1fe 60bc 670b 143d eb80 a73d
00000010: 04ad 6d3c b49f e63c e668 8b3d 0a68 8e3d
00000020: 2d5a cd3b 3c37 26bc 6ac7 2f3d 3898 9d3c
00000030: dc5a 17bd ae6b 3c3d d126 553d fa8a 5dbb
00000040: 4a95 383c bf3e c3bc b002 3bbd b495 5cbc
00000050: efff 18bd 79f2 dbbc 5ee3 2dbd 3b56 98bc
00000060: 39c9 b53c ee9b 42bc 3d09 013d 0345 0dbd
00000070: f3a7 093d 5465 333c baf9 73bc 3305 1d3d
00000080: 4d4b a53b 80d7 a83c c78c 1ebd bbf0 0b3d
00000090: 671f 6e3b 7f18 f9bc 8c13 223d 1674 fe3b
000000a0: faa9 dabc f94e 703c 33b2 e1bc a820 203d
000000b0: a2f7 c6bb 2c4d 2a3d 960e 03bb df2c 6abc
000000c0: 90c6 f3bb 1414 46bc 3fe6 3a3c b413 a73b
000000d0: 751d 1f3d d3e3 28bd 111f 6cbc af1a e0bc
000000e0: eb02 5fbd 875e 3f3d a50f 533c ce27 52bd
000000f0: d533 af3c 45e6 33bd 3e07 b73c 583d ebbc
00000100: 8890 8dbc 4194 06bd aa7a 133c 4aa9 983b
00000110: b787 dbbc 0b10 97bc 3732 20bd 11d7 d13c
00000120: 7623 a33c a1ce 2f3c d7e6 533c f0e5 d7ba
00000130: 07ce cbbb 8768 3ebd 8406 5cbd 2f36 e43c
00000140: d1c8 973c ebb9 de39 068a 353d f84e 2bbc
00000150: 1fd0 d5bb 7eff 0bbd 7ecc c83c ff95 463b
00000160: 0948 f7ba 3e94 e03c 7051 a9bc 7060 d43c
00000170: ae61 06bd ae51 0fbd eef0 c83c 8fcd c23c
00000180: 9c2b 28bd 5a5c 34bc bcdf 02bc ba91 803d
00000190: fb0a 18bc d8a6 29bb 3105 fc3b a1c3 ca3c
000001a0: b91a cd3c 5c03 51bc 0a39 b23c 62f8 86bd
000001b0: 0a7c 21bd 1ff0 24bd ab00 053d 2c4e 6b3c
000001c0: 089e a2bc ac4f e6bb 3ac5 c73c cc38 d13c
000001d0: b1ac 3e3d 6337 c3bc 5922 b3bc 56c9 1b3d
000001e0: 5f0c c4bc 7efe dbbc dbab c63c e942 f3bb
000001f0: cb6c 1bbd e74b 97bc a6ca 42bd dba9 a9bb

output_layer.weight f4 [9, 128]
0.021105181 0.0008876613 0.048647366 0.011002605 -0.0332092 0.08565737 0.12080351 0.10375408
0.1130752 0.05500512 -0.0046547498 0.089210935 -0.033299178 -0.044724803 0.12697048 -0.06774956
0.06846357 0.08101328 -0.01149333 0.11984174 0.06665867 -0.12821893 -0.07375078 -0.05488394
0.08670239 -0.09102936 -0.08367333 0.09423133 -0.12302879 0.103173375 -0.1402056 0.16369809
0.06467284 -0.15691479 -0.03537049 -0.11084649 0.16731788 -0.17532209 -0.12435041 -0.1146369
0.12727231 0.1724016 -0.09093215 0.15158795 0.09883814 0.11137067 0.10372095 -0.09587603
-0.014126877 -0.053779587 -0.029962724 0.119129114 -0.01260519 0.12326944 0.07443629 -0.12379438
-0.046615694 0.023550602 0.0743008 -0.03676548 -0.057211723 -0.023268066 0.0499218 0.005572887
-0.11421864 -0.08235466 0.037782684 -0.04907925 -0.053254023 0.067874774 -0.057315227 0.121593416
0.103099756 0.06292771 0.076225065 0.10775211 -0.08077707 -0.075562246 -0.062069073 0.14777428
0.037082907 0.097979814 -0.06690158 0.04607422 0.08364389 -0.04713214 -0.1443663 0.011285035
-0.11802321 -0.031045655 0.095483266 -0.066940375 -0.11930599 -0.02942565 -0.1481042 -0.084833115
0.013095331 0.11091001 0.10283565 0.12638715 0.086687155 -0.09457574 0.115320146 0.09800558
-0.10591359 0.0950789 -0.17545016 -0.034544244 -0.054253746 0.0097992215 0.008876219 0.04545866
-0.09346407 0.02545422 0.041863423 0.12607175 -0.046925265 -0.07206849 0.025449736 0.1548957
-0.08485323 0.009731768 -0.09547205 -0.10651658 -0.041632224 0.15913501 -0.06613163 -0.0053783935
0.050498508 -0.1422996 0.02409094 -0.16401717 0.07924059 0.0045830724 -0.02269301 0.1553818
0.08925733 -0.079290435 -0.0596912 -0.1043889 -0.07420227 0.005226545 0.094239764 -0.104699284
0.019764554 -0.09073946 0.009077705 -0.16994832 -0.043338913 -0.10867719 0.0009015072 0.16264047
0.14895724 -0.17608678 0.03627572 0.02062122 -0.016033743 -0.14096145 -0.02915848 0.17950374
-0.051729865 -0.11230667 0.046211623 -0.023654385 0.27197194 -0.09874952 0.010061112 -0.13974273
-0.03910027 0.062252164 0.0124405995 -0.09301219 0.00018882415 -0.19923303 -0.053490166 -0.109519996
-0.16304518 0.021285053 0.036198135 -0.1353823 -0.12075601 0.06588833 -0.015947789 0.17626277
0.121414624 -0.15424205 0.02509895 -0.057966523 -0.0025132517 0.04801824 0.11143686 -0.121684425
0.04023506 0.06572373 0.05741103 -0.06295749 -0.110141955 -0.11400406 0.21563207 -0.12660305
-0.11032519 0.038239785 0.17000219 -0.17978182 0.055417556 0.04657551 -0.078810014 0.023223711
0.15530902 0.106849395 0.02698229 -0.041952573 -0.17036654 -0.11643875 -0.033626743 0.06072985
0.1466567 0.1503134 0.058532808 0.040225632 0.05912282 0.04198807 -0.013377332 0.056374546
-0.030750807 -0.020011172 0.11475286 0.13559522 0.2008363 0.22881478 0.14777303 -0.060951598
0.04989625 -0.20733085 -0.024466952 -0.12183351 0.09371654 0.13747294 -0.20348364 0.05835053
0.024649853 0.037081514 0.09344149 0.069884226 -0.015380518 -0.11175893 0.16744854 0.13085519
0.08336133 -0.223861 -0.006049546 -0.20460309 -0.17854588 -0.002498228 -0.12081458 -0.11203252
00000000: c6e4 ac3c f1b1 683a 7642 473d 4544 343c
00000010: 5f06 08bd 226d af3d d567 f73d 057d d43d
00000020: f893 e73d 0c4d 613d df86 98bb 39b4 b63d
00000030: b864 08bd 5b31 37bd 8d04 023e 48c0 8abd
00000040: a136 8c3d 4aea a53d 854e 3cbc 966f f53d
00000050: 5784 883d d34b 03be a60a 97bd fbcd 60bd
00000060: 0691 b13d 9a6d babd ec5c abbd 5bfc c03d
00000070: 85f6 fbbd 904c d33d 0f92 0fbe 79a0 273e
00000080: 3273 843d 45ae 20be a6e0 10bd 7c03 e3bd
00000090: 6155 2b3e a287 33be 6eab febd c0c6 eabd
000000a0: ac53 023e 0c8a 303e a33a babd df39 1b3e
000000b0: a76b ca3d 4e16 e43d a66b d43d a75a c4bd
000000c0: 6b74 67bc fc47 5cbd 6374 f5bc f7f9 f33d
000000d0: 0086 4ebc b074 fc3d 0e72 983d e887 fdbd
000000e0: 19f0 3ebd 31ed c03c 052b 983d 6697 16bd
000000f0: d756 6abd ac9c bebc cd7a 4c3d c49c b63b
00000100: 76eb e9bd 8fa9 a8bd 04c2 1a3d 5307 49bd
00000110: e420 5abd ee01 8b3d 5fc3 6abd f805 f93d
00000120: f725 d33d 3ee0 803d e31b 9c3d 23ad dc3d
00000130: 736e a5bd 61c0 9abd 243c 7ebd 2452 173e
00000140: 3fe4 173d a4a9 c83d b203 89bd 52b8 3c3d
00000150: 7d4d ab3d a10d 41bd c2d4 13be dee4 383c
00000160: 27b6 f1bd 7553 febc bb8c c33d 0918 89bd
00000170: b356 f4bd 100e f1bc a1a8 17be fcbc adbd
00000180: cd8d 563c ca24 e33d 7f9b d23d a26b 013e
00000190: 0989 b13d edb0 c1bd f82c ec3d 26b7 c83d
000001a0: 39e9 d8bd bab8 c23d 35a9 33be 447e 0dbd
000001b0: 2d39 5ebd ea8c 203c 906d 113c dc32 3a3d
000001c0: 176a bfbd 5e85 d03c fb78 2b3d f418 013e
000001d0: b534 40bd a598 93bd f77b d03c fa9c 1e3e
000001e0: 88c7 adbd fe71 1f3c da86 c3bd 5d25 dabd
000001f0: 8d86 2abd 4af4 223e 0570 87bd 3c3d b0bb
00000200: 86d7 4e3d fdb6 11be 5d5a c53c 1ef4 27be
00000210: e448 a23d 992d 963b b1e6 b9bc 681c 1f3e
00000220: 8ccc b63d 0663 a2bd c27e 74bd d9c9 d5bd
00000230: 5cf7 97bd 7043 ab3b c700 c13d 946c d6bd
00000240: 46e9 a13c 9cd5 b9bd a8ba 143c ef06 2ebe
00000250: 2584 31bd 2692 debd 2053 6c3a 398b 263e
00000260: 3f88 183e 1850 34be d995 143d d5ed a83c
00000270: 3259 83bc 3358 10be c4dd eebc d4cf 373e
00000280: b2e2 53bd 0a01 e6bd 6648 3d3d d7c6 c1bc
00000290: e83f 8b3e 303d cabd 5dd7 243c b818 0fbe
000002a0: 9b27 20bd 20fc 7e3d a8d3 4b3c 2d7d bebd
000002b0: 19ff 4539 be03 4cbe 8118 5bbd 054c e0bd
000002c0: 51f5 26be fe5d ae3c 7f44 143d a8a1 0abe
000002d0: ed4e f7bd 76f0 863d f0a4 82bc 3a7e 343e
000002e0: 3ba8 f83d a1f1 1dbe 509c cd3c 4e6e 6dbd
000002f0: 5eb5 24bb c6ae 443d 0239 e43d af35 f9bd
00000300: 85cd 243d 2a9a 863d d427 6b3d dbef 80bd
00000310: 1b92 e1bd f67a e9bd a7ce 5c3e 3ba4 01be
00000320: 2cf2 e1bd 52a1 1c3d 0e15 2e3e ba18 38be
00000330: 85fd 623d f6c5 3e3d 2567 a1bd a73f be3c
00000340: 5409 1f3e dbd3 da3d f709 dd3c 76d6 2bbd
00000350: 9174 2ebe 7077 eebd 32bc 09bd ddbf 783d
00000360: 2d2d 163e c2eb 193e 19c0 6f3d a2c3 243d
00000370: c52a 723d affb 2b3d 992c 5bbc ffe8 663d
00000380: 1ee9 fbbc 78ee a3bc 8c03 eb3d 79d9 0a3e
00000390: 08a8 4d3e 6c4e 6a3e d051 173e 62a8 79bd
000003a0: 0360 4c3d 8a4e 54be eb6e c8bc d983 f9bd
000003b0: 75ee bf3d b5c5 0c3e 045e 50be f700 6f3d
000003c0: 7dee c93c c9e2 173d 405e bf3d 761f 8f3d
000003d0: 91fe 7bbc dee1 e4bd a177 2b3e e7fe 053e
000003e0: 58b9 aa3d d13b 65be 453b c6bb 7983 51be
000003f0: bbd4 36be 50b9 23bb a26d f7bd 4e71 e5bd

output_layer.bias f4 [9]
0.05868542 -0.044571605 0.0950346 0.046750177 0.110071376 -0.112768136 0.004179498 -0.1515249
-0.9015708
00000000: 1f60 703d b790 36bd 80a1 c23d 1d7d 3f3d
00000010: 1a6d e13d fbf2 e6bd 2cf4 883b 5829 1bbe
00000020: 58cd 66bf
