src/logs/linear_fashionmnist_holdout_[8]_swil1.pt (torch, 408595 bytes, 4 tensors)

input_layer.weight f4 [128, 784]
000000 c6 16 3c 3c 9f 86 f5 bb c9 21 2c bd e0 bf 33 3c
       0.011480039 -0.0074928547 -0.042024408 0.0109710395
000010 1e c7 35 bb c5 f9 4b bd 4b ac af 3b 7c b5 b3 3d
       -0.0027737091 -0.049798746 0.005361115 0.0877485
000020 2f 0a 25 3d c5 f2 86 3d 80 3f e2 3d b2 f1 23 3e
       0.040292915 0.06589273 0.11047268 0.16010168
000030 ab 10 e8 bc 3b 3a 12 bd 8c 82 6a 3c 82 f4 9d bd
       -0.02832826 -0.035700064 0.014313351 -0.07712652
000040 a0 7c 9f 3d 0b 54 ed 3d bd ba d5 3c a5 f0 14 3d
       0.07787442 0.115882955 0.02609002 0.03636231
000050 8c 8f 01 3e 3a 22 8b 3d 1d 16 18 bd 1f dd 23 bb
       0.12652415 0.067936376 -0.037130464 -0.0025003625
000060 f3 fa e7 3a 56 90 63 bd 95 2f 2f bd c1 d2 89 bc
       0.001769869 -0.05555757 -0.042769987 -0.016824128
000070 b6 36 2f bd fd b3 15 3b 98 99 e4 bc fe ab 04 3b
       -0.042776786 0.0022842877 -0.02790527 0.0020244117
000080 34 cc 63 bd 28 db d3 bc 8a a9 63 3c 54 c0 4e bd
       -0.055614665 -0.025861338 0.013895402 -0.050476387
000090 9b cd 6b bc b7 8e 25 bc 72 1d 1e 3d 50 73 f9 3a
       -0.014392282 -0.010104827 0.0386023 0.0019031558
0000a0 71 e5 8b 3c f8 f3 c9 3c 02 31 35 3d e1 ba 62 bd
       0.01707718 0.024652466 0.04423619 -0.055354003
0000b0 c5 ad 63 3d 1a f0 0c 3d e4 f1 18 3d 7c 94 3d bb
       0.05558564 0.034408666 0.03734006 -0.0028927615
0000c0 f9 6b 16 3c 76 c7 45 3d f6 41 eb 3b da 00 57 bd
       0.009181016 0.048285924 0.007179494 -0.052491046
0000d0 6c 6d 54 bd ec 40 17 bd 51 f2 27 3c 42 34 0a bc
       -0.051862165 -0.03692715 0.010250644 -0.008435311
0000e0 cb 77 be 3b 95 9e 21 bd 3a 20 29 3c 03 e0 90 3a
       0.0058126203 -0.039457876 0.010322625 0.0011053089
0000f0 93 75 4c bc 78 67 5f bd 74 c1 b7 bc 9b a2 8a bc
       -0.012479204 -0.054542035 -0.022431113 -0.01692324
000100 be f4 04 bc 6a 79 59 3c e2 fa 2f bc e0 82 df 3c
       -0.008114992 0.013273576 -0.0107409675 0.027284086
000110 3d cc 1e bc 68 04 8e bc 03 bd c2 3c 4e df 94 bd
       -0.009692249 -0.017336085 0.023771768 -0.072691545
000120 06 46 dc 3c e2 4d ab bb cd e9 0e bd 7d 68 68 bd
       0.026888859 -0.00522779 -0.03489094 -0.056740273
000130 d6 1d 06 bc 04 3a 44 3d 88 9c 34 bc 5d 53 0c bd
       -0.008185824 0.04790689 -0.011023648 -0.03425919
000140 ee 8d 36 bc da 0b 2c bc 5a 8f 04 bd 81 8c 16 3b
       -0.011142237 -0.0105008725 -0.032363273 0.002297193
000150 e9 e4 cf bc ff 00 c2 bc 69 28 d4 3b 5a bc ac 3c
       -0.025377708 -0.023682116 0.006474544 0.021085907
000160 73 cd 28 3d f2 fb b9 3c 38 33 89 3d 49 16 93 3c
       0.041211557 0.022703145 0.06699222 0.017954962
000170 a4 83 b3 bc fc af 53 3c e7 4d 89 3d 58 5a 40 3d
       -0.021913357 0.012920376 0.06704312 0.04696116
000180 6a 3b ef 3b a0 d0 5a bd fa 68 d8 bc 70 0c b1 bc
       0.007300784 -0.053421617 -0.026417244 -0.021612376
000190 58 0d 70 3c e7 8a 4c 3d e7 3d db 3c 11 0b 92 bd
       0.014651619 0.049937155 0.026762916 -0.07131017
0001a0 e9 4d 90 bd ff 20 dd 3c cc ce 2b bc 1c 55 a4 bb
       -0.0704611 0.026993273 -0.010486316 -0.0050150286
0001b0 a7 a2 f2 bb 0a 77 40 bd a7 54 c3 3b cb c9 e9 bc
       -0.0074046436 -0.046988524 0.005961019 -0.028538605
0001c0 d6 9c 67 bd 0a 01 a0 bc 6a 20 18 3c ac dd 10 39
       -0.056546055 -0.019531745 0.009285072 0.0001381549
0001d0 b2 3d 43 3c de f8 71 bc 80 af da 3d 0d c3 07 3d
       0.011916565 -0.014768807 0.10678005 0.033145
0001e0 e4 5a 13 38 ed 9d b6 3c 87 f3 36 3d 6d 4e ca bc
       3.513218e-05 0.022292102 0.04466584 -0.0246956
0001f0 be cd 83 bd 54 fd 8e 3b af 93 aa bd ea e4 f1 bc
       -0.064357266 0.004363695 -0.0832895 -0.0295281
000200 ff 0a d0 bc 00 d8 ae 3c 2e 81 9f 3d e9 11 19 bd
       -0.025395868 0.021343231 0.07788311 -0.037370596
000210 05 be ff bc f3 03 38 bb ec 01 4c bc 00 6e 99 3c
       -0.031218538 -0.0028078526 -0.01245163 0.01872921
000220 11 7b 92 bc 20 30 ce bc 36 92 0b bc 5b a1 89 bb
       -0.017880948 -0.025169432 -0.008518746 -0.0042001433
000230 fd c6 53 3c 18 18 23 bd 96 63 7f bc ba 1d bd 3c
       0.0129258605 -0.0398179 -0.015587708 0.023085464
000240 e8 f8 c7 3c ba 44 9b 3d 0a ae 67 3d 34 fe 5b 3d
       0.02441068 0.07581468 0.05656246 0.053709224
000250 96 02 9a 3d bb 36 d9 bb c2 f5 f0 bc ae cd cc bc
       0.075200245 -0.006628839 -0.029414061 -0.02500042
000260 42 10 bd 3a af a0 85 bc 3e 3c 34 3c 0a 28 ba bc
       0.0014424401 -0.016311971 0.011000691 -0.02272417
000270 e4 a4 1d bd cf ba 0c 3d 86 0a a2 3d b4 26 8a 3b
       -0.03848733 0.034357842 0.079121634 0.0042160396
000280 51 af 1f bd 22 72 88 bc ee c3 0a 3c bf dc 18 bd
       -0.038985554 -0.016655985 0.008469565 -0.037319895
000290 4e 36 eb bc 8d bf a1 bd ea c5 1a bd 34 21 73 3c
       -0.028712418 -0.078978635 -0.0377864 0.014839459
0002a0 de 8a 00 bd 90 7b cc bc ad 18 9f bc 18 da 1e bd
       -0.031382434 -0.024961263 -0.019420946 -0.03878221
0002b0 a7 9f 3d bc 25 8b 21 3d e1 51 8c 3d d5 3f 7d 3d
       -0.011573709 0.03943934 0.06851555 0.061828453
0002c0 ec ac 22 3d 60 d5 db 3b cc 60 da 3c f6 fb 05 bd
       0.039715692 0.006708786 0.026657484 -0.03271099
0002d0 ee 13 4c bd 65 46 09 bd 04 a7 ab bc a5 49 28 bd
       -0.049823694 -0.0335144 -0.020953663 -0.041085858
0002e0 0d 5d e4 ba a4 aa 7f 3d 22 07 25 3d 34 56 b8 3c
       -0.0017422751 0.062418595 0.040290006 0.022502042
0002f0 a9 da b7 bd 46 c8 92 bd cf 6d c3 3b 6e 7b 84 3c
       -0.08977253 -0.071671054 0.005964018 0.016172137
000300 a8 55 cc bd d0 ae e3 bc c8 c7 3c 3d b4 42 0c bc
       -0.09977275 -0.027793318 0.046088964 -0.008560825
000310 7e 65 47 bd 8b bb 89 bc 5e bb 42 bc 5b 0e 36 bc
       -0.048680775 -0.01681306 -0.011885492 -0.011111821
000320 e5 f8 ab bc b5 d0 1a 3d 68 e0 fb 3d c6 57 51 3d
       -0.020992706 0.037796695 0.122986615 0.051109098
000330 6f 70 90 3c e3 92 8d 3b d8 63 3f bb 27 b0 a1 bd
       0.017631738 0.004320489 -0.0029203799 -0.078949265
000340 6c c4 b7 bc 54 79 18 bd 74 2d 48 bd 53 43 0d 3d
       -0.022432528 -0.037225083 -0.048871472 0.034488034
000350 c3 7f 25 3d 10 78 56 3c 14 b4 ae 3d 4a 2f e2 3d
       0.040405046 0.013090149 0.08530441 0.11044176
000360 8a 7b cc 3d 32 fa 04 bd 67 bc 2a 3b ed da d7 bc
       0.09984501 -0.032465167 0.0026052238 -0.02634951
000370 89 ad 25 bd e1 21 43 bd 87 29 55 3c 55 b0 be bc
       -0.0404487 -0.04763973 0.013010389 -0.023277441
000380 ae 48 81 bb 28 64 90 3c 84 ab 9a bc e2 95 09 3c
       -0.0039454317 0.017625883 -0.018880613 0.008397551
000390 d0 88 e2 3c 5a 12 58 3d a7 09 80 3d 19 35 79 3d
       0.027653128 0.052751876 0.06251841 0.060841653
0003a0 7d b1 c0 3d 7e 4e c5 3c 35 a3 99 3c fc 31 95 bd
       0.09408853 0.02408528 0.018754581 -0.072849244
0003b0 52 a1 af 3c 97 75 8f bd 6d 02 e1 bd 0e 2e eb bd
       0.021439228 -0.0700485 -0.10986791 -0.114833936
0003c0 2e 38 34 3c 73 5a db 3d 34 4b 0f 3d 05 06 b7 bc
       0.010999722 0.10710611 0.03498383 -0.022341738
0003d0 2c 3e f7 bc 31 db 11 bd 32 51 27 3c bb 7d 3a bd
       -0.030181013 -0.035609428 0.01021223 -0.045530062
0003e0 55 36 2f bd 49 81 41 bd 23 ff 6c bd 69 bc 49 3b
       -0.042776424 -0.047242437 -0.057860505 0.0030782467
0003f0 8f d9 2f 3b ce 14 d7 3c ca cc a2 bc 81 13 dc 3c
       0.0026832556 0.026255038 -0.019873042 0.026864769

input_layer.bias f4 [128]
000000 8e a0 f8 3c c1 fe 60 bc 67 0b 14 3d eb 80 a7 3d
       0.030349996 -0.013732613 0.036143687 0.08178886
000010 04 ad 6d 3c b4 9f e6 3c e6 68 8b 3d 0a 68 8e 3d
       0.014506582 0.028152324 0.06807117 0.069534376
000020 2d 5a cd 3b 3c 37 26 bc 6a c7 2f 3d 38 98 9d 3c
       0.0062668533 -0.010145005 0.042914785 0.019237623
000030 dc 5a 17 bd ae 6b 3c 3d d1 26 55 3d fa 8a 5d bb
       -0.036951885 0.04600113 0.05203897 -0.003380476
000040 4a 95 38 3c bf 3e c3 bc b0 02 3b bd b4 95 5c bc
       0.011266062 -0.02383363 -0.04565686 -0.013463426
000050 ef ff 18 bd 79 f2 db bc 5e e3 2d bd 3b 56 98 bc
       -0.037353452 -0.026849018 -0.042453162 -0.018595805
000060 39 c9 b5 3c ee 9b 42 bc 3d 09 01 3d 03 45 0d bd
       0.022190677 -0.011877997 0.03150295 -0.034489643
000070 f3 a7 09 3d 54 65 33 3c ba f9 73 bc 33 05 1d 3d
       0.033607434 0.0109494515 -0.014891082 0.038335036
000080 4d 4b a5 3b 80 d7 a8 3c c7 8c 1e bd bb f0 0b 3d
       0.005044377 0.02061057 -0.038708474 0.034165125
000090 67 1f 6e 3b 7f 18 f9 bc 8c 13 22 3d 16 74 fe 3b
       0.0036334635 -0.030407188 0.039569423 0.0077653034
0000a0 fa a9 da bc f9 4e 70 3c 33 b2 e1 bc a8 20 20 3d
       -0.02669238 0.014667266 -0.027550792 0.039093643
0000b0 a2 f7 c6 bb 2c 4d 2a 3d 96 0e 03 bb df 2c 6a bc
       -0.0060720006 0.041577503 -0.0019997708 -0.014292925
0000c0 90 c6 f3 bb 14 14 46 bc 3f e6 3a 3c b4 13 a7 3b
       -0.007439442 -0.012089748 0.011407434 0.0050987843
0000d0 75 1d 1f 3d d3 e3 28 bd 11 1f 6c bc af 1a e0 bc
       0.03884645 -0.041232895 -0.014411704 -0.027356474
0000e0 eb 02 5f bd 87 5e 3f 3d a5 0f 53 3c ce 27 52 bd
       -0.054446142 0.046721008 0.012882148 -0.051307492
0000f0 d5 33 af 3c 45 e6 33 bd 3e 07 b7 3c 58 3d eb bc
       0.02138702 -0.043920774 0.02234232 -0.028715774
000100 88 90 8d bc 41 94 06 bd aa 7a 13 3c 4a a9 98 3b
       -0.017280832 -0.03285623 0.009001413 0.0046588527
000110 b7 87 db bc 0b 10 97 bc 37 32 20 bd 11 d7 d1 3c
       -0.026798112 -0.018440267 -0.03911039 0.025615247
000120 76 23 a3 3c a1 ce 2f 3c d7 e6 53 3c f0 e5 d7 ba
       0.01991437 0.0107304165 0.0129334545 -0.0016471725
000130 07 ce cb bb 87 68 3e bd 84 06 5c bd 2f 36 e4 3c
       -0.0062196287 -0.046486404 -0.05371715 0.027857868
000140 d1 c8 97 3c eb b9 de 39 06 8a 35 3d f8 4e 2b bc
       0.018528374 0.0004248166 0.044321083 -0.010455839
000150 1f d0 d5 bb 7e ff 0b bd 7e cc c8 3c ff 95 46 3b
       -0.006525054 -0.034179203 0.024511572 0.0030301807
000160 09 48 f7 ba 3e 94 e0 3c 70 51 a9 bc 70 60 d4 3c
       -0.0018866073 0.027414437 -0.020668715 0.025924891
000170 ae 61 06 bd ae 51 0f bd ee f0 c8 3c 8f cd c2 3c
       -0.032808 -0.034990005 0.024528947 0.023779659
000180 9c 2b 28 bd 5a 5c 34 bc bc df 02 bc ba 91 80 3d
       -0.041057214 -0.011008346 -0.007987913 0.06277795
000190 fb 0a 18 bc d8 a6 29 bb 31 05 fc 3b a1 c3 ca 3c
       -0.009279962 -0.00258868 0.0076910486 0.024751486
0001a0 b9 1a cd 3c 5c 03 51 bc 0a 39 b2 3c 62 f8 86 bd
       0.025037156 -0.012757149 0.021755714 -0.06590344
0001b0 0a 7c 21 bd 1f f0 24 bd ab 00 05 3d 2c 4e 6b 3c
       -0.039424933 -0.04026806 0.03247134 0.014361899
0001c0 08 9e a2 bc ac 4f e6 bb 3a c5 c7 3c cc 38 d1 3c
       -0.019850746 -0.0070285406 0.024386037 0.025539778
0001d0 b1 ac 3e 3d 63 37 c3 bc 59 22 b3 bc 56 c9 1b 3d
       0.04655141 -0.023830121 -0.021866964 0.038033806
0001e0 5f 0c c4 bc 7e fe db bc db ab c6 3c e9 42 f3 bb
       -0.02393168 -0.02685475 0.024251869 -0.007423748
0001f0 cb 6c 1b bd e7 4b 97 bc a6 ca 42 bd db a9 a9 bb
       -0.03794555 -0.01846881 -0.04755654 -0.005177719

output_layer.weight f4 [9, 128]
000000 61 55 ba 3d 85 da 25 3e 52 31 e6 bd e1 5e f9 b9
       0.09098316 0.1619664 -0.11239876 -0.0004756367
000010 d4 f0 eb 3d ed fc 2b 3d 32 e2 06 3e 82 e4 71 3d
       0.11520544 0.041989256 0.13172224 0.059055813
000020 1b 02 1d 3e ec bc 2e bd 6d 3f dd 3d 92 ec a0 3d
       0.15332834 -0.04266064 0.10803113 0.07857622
000030 6a af d2 bd 83 6a 4e 3d d0 de 19 3e 0d 74 c5 bd
       -0.10287364 0.050394546 0.15026402 -0.096412756
000040 65 92 12 be 9b 93 67 bd 96 40 0d bd 1e 86 f9 3d
       -0.14313658 -0.056537252 -0.034485422 0.12183784
000050 91 82 07 3d ac bc 05 be 63 b0 9c bd 95 c2 17 bd
       0.033083502 -0.13060254 -0.076508306 -0.037050802
000060 01 3d b1 3d 9d f3 1a be ad 8a ab bd 7e 4b 27 bc
       0.08654214 -0.15131994 -0.0837606 -0.01021087
000070 fb 85 06 be 30 c0 02 3e 3a a7 48 be aa ca 1a 3e
       -0.13137047 0.12768626 -0.19595042 0.15116373
000080 52 54 c3 3d c0 09 50 be 1b b8 ad bd e3 82 02 bd
       0.09537567 -0.2031622 -0.08482381 -0.031863105
000090 bd 59 70 3e b7 9e 44 be ca 64 06 be 1f 7c a8 bd
       0.23471732 -0.1920117 -0.13124385 -0.08226799
0000a0 6e 89 29 3e ac 79 31 3e 06 67 2c be fd 18 23 3e
       0.16556332 0.1733157 -0.16836175 0.15927501
0000b0 b9 56 96 3d 81 b0 0a 3e 11 d5 09 3e 9d fc 17 be
       0.0734076 0.13543893 0.13460185 -0.14842458
0000c0 b1 07 35 bd dd a6 2f 3d 03 cf f1 bc 2b da 00 3e
       -0.04419679 0.042883743 -0.029517656 0.12583224
0000d0 7e 47 98 bd 31 22 3e 3e 67 d2 95 3d f2 a6 00 be
       -0.07435511 0.1856773 0.07315522 -0.12563685
0000e0 75 bd 5b bd 40 b6 84 bc 9e 77 f4 3d 53 32 a0 bc
       -0.053647477 -0.016200185 0.11936878 -0.019555246
0000f0 cf ef c3 bd 77 b6 bc bd 17 df 4d 3e 41 74 69 3d
       -0.09567224 -0.0921449 0.20104633 0.056995634
000100 16 46 ea bd 91 f9 c6 3d 17 00 bc 3d 8a 3c e4 bd
       -0.11439149 0.0971557 0.09179705 -0.111443594
000110 60 7a 34 be ee 1f 9b bd 7e 9e 67 bd e6 7a 08 3e
       -0.17624807 -0.075744495 -0.056547634 0.13328132
000120 e2 92 08 3e ad 02 e5 3d 05 25 65 3d e5 f4 fb 3d
       0.13337281 0.11182151 0.055943508 0.12302569
000130 79 11 81 bd bc f7 48 3c 75 62 4b bd fa 1f 15 3e
       -0.06302161 0.012266096 -0.049654443 0.1456298
000140 ad 6c 17 3e f7 64 0c 3e 31 ae 20 be 05 48 db bc
       0.1478755 0.1371039 -0.15691449 -0.02676774
000150 81 d7 6a 3d 59 38 28 be ec 60 e7 bd 5b 5a 05 be
       0.057334427 -0.16427745 -0.11297783 -0.13022749
000160 9d 16 8c bc 7b 71 cf bd b9 4e e3 3c a7 5f f9 bb
       -0.017100627 -0.101290666 0.027747499 -0.0076102796
000170 97 2b e7 bd 9e 53 1c 3e dd 66 1e be ec 4a de 3c
       -0.11287611 0.15266272 -0.15468927 0.027135335
000180 80 57 cb 3d 4f 5d b0 bd 6d c5 01 3e 23 b4 15 3e
       0.09928799 -0.08611547 0.12672968 0.14619498
000190 32 fc 3d 3e 8c 4c 2e bd e1 d1 ee 3d 51 09 f6 3d
       0.18553236 -0.04255347 0.11661125 0.12013496
0001a0 25 0b 00 bd 78 c4 8f 3c 7e 9f 41 be c9 df a5 bd
       -0.03126063 0.017549738 -0.18908498 -0.08099324
0001b0 e2 26 8a bd 2a 69 9a 3d b3 57 97 bb fe bb e4 3d
       -0.067456976 0.0753959 -0.004618609 0.11168669
0001c0 91 6e 7f bd c4 62 34 3e af ee 36 3e c3 02 15 3e
       -0.062361304 0.17615801 0.17864488 0.14551835
0001d0 26 3b fc bd 4e 40 07 be 8a 0f 2a bd d2 7e 49 3e
       -0.12315969 -0.13208124 -0.041518725 0.19677284
0001e0 52 54 e0 bd 6f df 5f 3d ed 53 18 bd 69 0c 15 be
       -0.10953583 0.054656442 -0.037189413 -0.14555515
0001f0 21 e5 85 bd d4 1d 34 3e e8 af ac bd ed f5 62 3c
       -0.065378435 0.17589504 -0.08431989 0.013852579
000200 81 cb 5b 3c 89 e6 1a bd b3 22 46 bc 25 48 88 bd
       0.013415218 -0.03781751 -0.012093234 -0.066543855
000210 b1 d9 16 3e 22 c0 12 bd c7 5d 54 3d 1f a0 01 3e
       0.1473148 -0.035827763 0.051847246 0.12658738
000220 36 42 c3 3d f8 45 01 be ca 6e 17 bd 3f f5 d6 bd
       0.09534113 -0.12624347 -0.03697089 -0.10495996
000230 d0 0c 34 3c 2d d3 17 bd a5 4a 00 3e b3 0c 02 be
       0.010989383 -0.037066627 0.12528475 -0.12700157
000240 73 33 96 bd 45 4c 03 be 59 a9 d1 bd 52 1b ad bd
       -0.07334032 -0.12822063 -0.102373786 -0.084524766
000250 10 54 84 bd 04 f2 f2 bd e8 83 9e 3d 60 a8 25 3e
       -0.06461346 -0.11862567 0.07740003 0.16177511
000260 a2 76 df 3d fe 3e 05 be d0 58 d6 3c 80 73 b6 bd
       0.10911299 -0.13012311 0.026165396 -0.089087486
000270 be c0 1a 3c 52 78 91 bd 5d 5d 19 bd b7 49 f2 3d
       0.009445367 -0.071030274 -0.037442554 0.11830466
000280 88 12 06 bd 67 27 f3 bd ce b0 50 3d b6 25 b9 3d
       -0.032732517 -0.1187275 0.050949864 0.09040396
000290 83 be 1d 3e 1c b4 85 3c 28 3c 75 bd 3c 4d 90 3c
       0.15404706 0.016321234 -0.059871823 0.017614953
0002a0 9b 34 9d 3c 0e 1f 56 3d dc f8 19 bd a4 c3 b7 3c
       0.019190123 0.05227571 -0.037590846 0.022432156
0002b0 4e 0e 16 bb ec ed c4 bd 02 b2 0e be 31 38 22 be
       -0.002289671 -0.096156925 -0.13935092 -0.15841748
0002c0 71 24 26 be 5f 4e e6 3d fb 12 02 3d 6a cb 16 bd
       -0.16224839 0.11245417 0.031756382 -0.036815085
0002d0 fb 3d 1b be a7 59 da 3d b8 2f bb bd b9 91 15 3e
       -0.15160362 0.10661631 -0.09139961 0.1460637
0002e0 da 26 eb 3d 4c f8 1b be 71 cd 23 3d 7c 7c 5d bd
       0.1148202 -0.15231436 0.039990846 -0.054073796
0002f0 71 ee 3f bd 8b 05 a2 3c 32 ca ee 3d db 1e 0e bd
       -0.046858255 0.019778034 0.116596594 -0.034697395
000300 0c 08 8b 3c 66 0a 08 3e 15 53 78 3d c1 75 e6 bd
       0.01697161 0.13285217 0.06062611 -0.112529285
000310 7e d5 ce bd 3b 7f 23 be 1e d4 3a 3e 43 62 8d bd
       -0.10099314 -0.15966503 0.18244979 -0.069035076
000320 db b3 d5 bd 8b b6 99 3d 4b 69 90 3d 62 33 1c be
       -0.10434695 0.075055204 0.07051333 -0.15253976
000330 c4 70 8a bc 18 b6 82 3d b3 36 92 3a 8c bd 8f bd
       -0.016899474 0.06382388 0.0011155218 -0.07018575
000340 49 5b db 3d 38 01 f9 3c 61 64 63 bd 6a eb 0c bd
       0.10710771 0.030396089 -0.05551565 -0.034404196
000350 38 bf 16 be eb 51 cc bd 0f 94 ef bb 5a e3 7d bc
       -0.14721382 -0.09976562 -0.007311351 -0.015496099
000360 45 2c 3f 3e 88 ae 51 3d df 2a 1b bd b0 97 fd 3d
       0.18669231 0.051191837 -0.037882682 0.12382448
000370 a0 7f 14 3c a2 1f 52 3d 78 5f bf 3c 28 73 45 3d
       0.009063631 0.0512997 0.023360953 0.048205525
000380 62 24 5e 3d c3 61 a2 bd 04 14 e8 3d f8 47 0e 3d
       0.054233916 -0.07928803 0.11331943 0.034736603
000390 fe e3 14 3e f3 b5 42 3e dc 4b f8 3d ca a5 93 bd
       0.14540097 0.1901472 0.12123844 -0.07209356
0003a0 d8 14 f4 3d 35 64 3e be 31 bc 26 bd 92 ff ca bd
       0.11918038 -0.18592913 -0.040706817 -0.099120274
0003b0 c4 e9 9a 3d 6e 97 3d 3e 0f d8 55 be 56 24 7e 3d
       0.075641185 0.18514797 -0.20883201 0.06204637
0003c0 b9 3f 6a 3d 7c 94 7d 3d 32 59 ee 3d e5 80 bc 3d
       0.057189677 0.061909184 0.116381064 0.09204272
0003d0 19 1e 08 bd cf b6 14 be 29 f3 b5 3d 0e 16 04 3e
       -0.03323183 -0.14522861 0.0888427 0.12899038
0003e0 00 e4 63 3c 10 fd 2e be cc c7 99 3d 86 97 34 be
       0.01390934 -0.17088723 0.07508811 -0.17635927
0003f0 7c cb 3f be 3e 40 33 ba 4c 6c fc bb 23 5e 03 be
       -0.18729967 -0.0006837881 -0.0077033397 -0.12828879

output_layer.bias f4 [9]
000000 53 9c 18 3d 4a 76 5c 3d c1 82 db 3d d8 a1 0e 3d
       0.037258457 0.053823747 0.10718299 0.034822315
000010 63 d3 c9 3c 0c 68 84 bc 25 02 83 3d 8d 0f 12 be
       0.02463693 -0.016162895 0.063968934 -0.14263745
000020 ed e9 a6 bf
       -1.3040138
