src/logs/linear_fashionmnist_holdout_[8]_swil5.pt (torch, 408595 bytes, 4 tensors)

input_layer.weight f4 [128, 784]
00000000: c616 3c3c 9f86 f5bb c921 2cbd e0bf 333c
00000010: 1ec7 35bb c5f9 4bbd 4bac af3b 7cb5 b33d
00000020: 2f0a 253d c5f2 863d 803f e23d b2f1 233e
00000030: ab10 e8bc 3b3a 12bd 8c82 6a3c 82f4 9dbd
00000040: a07c 9f3d 0b54 ed3d bdba d53c a5f0 143d
00000050: 8c8f 013e 3a22 8b3d 1d16 18bd 1fdd 23bb
00000060: f3fa e73a 5690 63bd 952f 2fbd c1d2 89bc
00000070: b636 2fbd fdb3 153b 9899 e4bc feab 043b
00000080: 34cc 63bd 28db d3bc 8aa9 633c 54c0 4ebd
00000090: 9bcd 6bbc b78e 25bc 721d 1e3d 5073 f93a
000000a0: 71e5 8b3c f8f3 c93c 0231 353d e1ba 62bd
000000b0: c5ad 633d 1af0 0c3d e4f1 183d 7c94 3dbb
000000c0: f96b 163c 76c7 453d f641 eb3b da00 57bd
000000d0: 6c6d 54bd ec40 17bd 51f2 273c 4234 0abc
000000e0: cb77 be3b 959e 21bd 3a20 293c 03e0 903a
000000f0: 9375 4cbc 7867 5fbd 74c1 b7bc 9ba2 8abc
00000100: bef4 04bc 6a79 593c e2fa 2fbc e082 df3c
00000110: 3dcc 1ebc 6804 8ebc 03bd c23c 4edf 94bd
00000120: 0646 dc3c e24d abbb cde9 0ebd 7d68 68bd
00000130: d61d 06bc 043a 443d 889c 34bc 5d53 0cbd
00000140: ee8d 36bc da0b 2cbc 5a8f 04bd 818c 163b
00000150: e9e4 cfbc ff00 c2bc 6928 d43b 5abc ac3c
00000160: 73cd 283d f2fb b93c 3833 893d 4916 933c
00000170: a483 b3bc fcaf 533c e74d 893d 585a 403d
00000180: 6a3b ef3b a0d0 5abd fa68 d8bc 700c b1bc
00000190: 580d 703c e78a 4c3d e73d db3c 110b 92bd
000001a0: e94d 90bd ff20 dd3c ccce 2bbc 1c55 a4bb
000001b0: a7a2 f2bb 0a77 40bd a754 c33b cbc9 e9bc
000001c0: d69c 67bd 0a01 a0bc 6a20 183c acdd 1039
000001d0: b23d 433c def8 71bc 80af da3d 0dc3 073d
000001e0: e45a 1338 ed9d b63c 87f3 363d 6d4e cabc
000001f0: becd 83bd 54fd 8e3b af93 aabd eae4 f1bc
00000200: ff0a d0bc 00d8 ae3c 2e81 9f3d e911 19bd
00000210: 05be ffbc f303 38bb ec01 4cbc 006e 993c
00000220: 117b 92bc 2030 cebc 3692 0bbc 5ba1 89bb
00000230: fdc6 533c 1818 23bd 9663 7fbc ba1d bd3c
00000240: e8f8 c73c ba44 9b3d 0aae 673d 34fe 5b3d
00000250: 9602 9a3d bb36 d9bb c2f5 f0bc aecd ccbc
00000260: 4210 bd3a afa0 85bc 3e3c 343c 0a28 babc
00000270: e4a4 1dbd cfba 0c3d 860a a23d b426 8a3b
00000280: 51af 1fbd 2272 88bc eec3 0a3c bfdc 18bd
00000290: 4e36 ebbc 8dbf a1bd eac5 1abd 3421 733c
000002a0: de8a 00bd 907b ccbc ad18 9fbc 18da 1ebd
000002b0: a79f 3dbc 258b 213d e151 8c3d d53f 7d3d
000002c0: ecac 223d 60d5 db3b cc60 da3c f6fb 05bd
000002d0: ee13 4cbd 6546 09bd 04a7 abbc a549 28bd
000002e0: 0d5d e4ba a4aa 7f3d 2207 253d 3456 b83c
000002f0: a9da b7bd 46c8 92bd cf6d c33b 6e7b 843c
00000300: a855 ccbd d0ae e3bc c8c7 3c3d b442 0cbc
00000310: 7e65 47bd 8bbb 89bc 5ebb 42bc 5b0e 36bc
00000320: e5f8 abbc b5d0 1a3d 68e0 fb3d c657 513d
00000330: 6f70 903c e392 8d3b d863 3fbb 27b0 a1bd
00000340: 6cc4 b7bc 5479 18bd 742d 48bd 5343 0d3d
00000350: c37f 253d 1078 563c 14b4 ae3d 4a2f e23d
00000360: 8a7b cc3d 32fa 04bd 67bc 2a3b edda d7bc
00000370: 89ad 25bd e121 43bd 8729 553c 55b0 bebc
00000380: ae48 81bb 2864 903c 84ab 9abc e295 093c
00000390: d088 e23c 5a12 583d a709 803d 1935 793d
000003a0: 7db1 c03d 7e4e c53c 35a3 993c fc31 95bd
000003b0: 52a1 af3c 9775 8fbd 6d02 e1bd 0e2e ebbd
000003c0: 2e38 343c 735a db3d 344b 0f3d 0506 b7bc
000003d0: 2c3e f7bc 31db 11bd 3251 273c bb7d 3abd
000003e0: 5536 2fbd 4981 41bd 23ff 6cbd 69bc 493b
000003f0: 8fd9 2f3b ce14 d73c cacc a2bc 8113 dc3c
0.011480039 -0.0074928547 -0.042024408 0.0109710395 -0.0027737091 -0.049798746 0.005361115 0.0877485
0.040292915 0.06589273 0.11047268 0.16010168 -0.02832826 -0.035700064 0.014313351 -0.07712652
0.07787442 0.115882955 0.02609002 0.03636231 0.12652415 0.067936376 -0.037130464 -0.0025003625
0.001769869 -0.05555757 -0.042769987 -0.016824128 -0.042776786 0.0022842877 -0.02790527 0.0020244117
-0.055614665 -0.025861338 0.013895402 -0.050476387 -0.014392282 -0.010104827 0.0386023 0.0019031558
0.01707718 0.024652466 0.04423619 -0.055354003 0.05558564 0.034408666 0.03734006 -0.0028927615
0.009181016 0.048285924 0.007179494 -0.052491046 -0.051862165 -0.03692715 0.010250644 -0.008435311
0.0058126203 -0.039457876 0.010322625 0.0011053089 -0.012479204 -0.054542035 -0.022431113 -0.01692324
-0.008114992 0.013273576 -0.0107409675 0.027284086 -0.009692249 -0.017336085 0.023771768 -0.072691545
0.026888859 -0.00522779 -0.03489094 -0.056740273 -0.008185824 0.04790689 -0.011023648 -0.03425919
-0.011142237 -0.0105008725 -0.032363273 0.002297193 -0.025377708 -0.023682116 0.006474544 0.021085907
0.041211557 0.022703145 0.06699222 0.017954962 -0.021913357 0.012920376 0.06704312 0.04696116
0.007300784 -0.053421617 -0.026417244 -0.021612376 0.014651619 0.049937155 0.026762916 -0.07131017
-0.0704611 0.026993273 -0.010486316 -0.0050150286 -0.0074046436 -0.046988524 0.005961019 -0.028538605
-0.056546055 -0.019531745 0.009285072 0.0001381549 0.011916565 -0.014768807 0.10678005 0.033145
3.513218e-05 0.022292102 0.04466584 -0.0246956 -0.064357266 0.004363695 -0.0832895 -0.0295281
-0.025395868 0.021343231 0.07788311 -0.037370596 -0.031218538 -0.0028078526 -0.01245163 0.01872921
-0.017880948 -0.025169432 -0.008518746 -0.0042001433 0.0129258605 -0.0398179 -0.015587708 0.023085464
0.02441068 0.07581468 0.05656246 0.053709224 0.075200245 -0.006628839 -0.029414061 -0.02500042
0.0014424401 -0.016311971 0.011000691 -0.02272417 -0.03848733 0.034357842 0.079121634 0.0042160396
-0.038985554 -0.016655985 0.008469565 -0.037319895 -0.028712418 -0.078978635 -0.0377864 0.014839459
-0.031382434 -0.024961263 -0.019420946 -0.03878221 -0.011573709 0.03943934 0.06851555 0.061828453
0.039715692 0.006708786 0.026657484 -0.03271099 -0.049823694 -0.0335144 -0.020953663 -0.041085858
-0.0017422751 0.062418595 0.040290006 0.022502042 -0.08977253 -0.071671054 0.005964018 0.016172137
-0.09977275 -0.027793318 0.046088964 -0.008560825 -0.048680775 -0.01681306 -0.011885492 -0.011111821
-0.020992706 0.037796695 0.122986615 0.051109098 0.017631738 0.004320489 -0.0029203799 -0.078949265
-0.022432528 -0.037225083 -0.048871472 0.034488034 0.040405046 0.013090149 0.08530441 0.11044176
0.09984501 -0.032465167 0.0026052238 -0.02634951 -0.0404487 -0.04763973 0.013010389 -0.023277441
-0.0039454317 0.017625883 -0.018880613 0.008397551 0.027653128 0.052751876 0.06251841 0.060841653
0.09408853 0.02408528 0.018754581 -0.072849244 0.021439228 -0.0700485 -0.10986791 -0.114833936
0.010999722 0.10710611 0.03498383 -0.022341738 -0.030181013 -0.035609428 0.01021223 -0.045530062
-0.042776424 -0.047242437 -0.057860505 0.0030782467 0.0026832556 0.026255038 -0.019873042 0.026864769

input_layer.bias f4 [128]
00000000: 8ea0 f83c c1fe 60bc 670b 143d eb80 a73d
00000010: 04ad 6d3c b49f e63c e668 8b3d 0a68 8e3d
00000020: 2d5a cd3b 3c37 26bc 6ac7 2f3d 3898 9d3c
00000030: dc5a 17bd ae6b 3c3d d126 553d fa8a 5dbb
00000040: 4a95 383c bf3e c3bc b002 3bbd b495 5cbc
00000050: efff 18bd 79f2 dbbc 5ee3 2dbd 3b56 98bc
00000060: 39c9 b53c ee9b 42bc 3d09 013d 0345 0dbd
00000070: f3a7 093d 5465 333c baf9 73bc 3305 1d3d
00000080: 4d4b a53b 80d7 a83c c78c 1ebd bbf0 0b3d
00000090: 671f 6e3b 7f18 f9bc 8c13 223d 1674 fe3b
000000a0: faa9 dabc f94e 703c 33b2 e1bc a820 203d
000000b0: a2f7 c6bb 2c4d 2a3d 960e 03bb df2c 6abc
000000c0: 90c6 f3bb 1414 46bc 3fe6 3a3c b413 a73b
000000d0: 751d 1f3d d3e3 28bd 111f 6cbc af1a e0bc
000000e0: eb02 5fbd 875e 3f3d a50f 533c ce27 52bd
000000f0: d533 af3c 45e6 33bd 3e07 b73c 583d ebbc
00000100: 8890 8dbc 4194 06bd aa7a 133c 4aa9 983b
00000110: b787 dbbc 0b10 97bc 3732 20bd 11d7 d13c
00000120: 7623 a33c a1ce 2f3c d7e6 533c f0e5 d7ba
00000130: 07ce cbbb 8768 3ebd 8406 5cbd 2f36 e43c
00000140: d1c8 973c ebb9 de39 068a 353d f84e 2bbc
00000150: 1fd0 d5bb 7eff 0bbd 7ecc c83c ff95 463b
00000160: 0948 f7ba 3e94 e03c 7051 a9bc 7060 d43c
00000170: ae61 06bd ae51 0fbd eef0 c83c 8fcd c23c
00000180: 9c2b 28bd 5a5c 34bc bcdf 02bc ba91 803d
00000190: fb0a 18bc d8a6 29bb 3105 fc3b a1c3 ca3c
000001a0: b91a cd3c 5c03 51bc 0a39 b23c 62f8 86bd
000001b0: 0a7c 21bd 1ff0 24bd ab00 053d 2c4e 6b3c
000001c0: 089e a2bc ac4f e6bb 3ac5 c73c cc38 d13c
000001d0: b1ac 3e3d 6337 c3bc 5922 b3bc 56c9 1b3d
000001e0: 5f0c c4bc 7efe dbbc dbab c63c e942 f3bb
000001f0: cb6c 1bbd e74b 97bc a6ca 42bd dba9 a9bb
0.030349996 -0.013732613 0.036143687 0.08178886 0.014506582 0.028152324 0.06807117 0.069534376
0.0062668533 -0.010145005 0.042914785 0.019237623 -0.036951885 0.04600113 0.05203897 -0.003380476
0.011266062 -0.02383363 -0.04565686 -0.013463426 -0.037353452 -0.026849018 -0.042453162 -0.018595805
0.022190677 -0.011877997 0.03150295 -0.034489643 0.033607434 0.0109494515 -0.014891082 0.038335036
0.005044377 0.02061057 -0.038708474 0.034165125 0.0036334635 -0.030407188 0.039569423 0.0077653034
-0.02669238 0.014667266 -0.027550792 0.039093643 -0.0060720006 0.041577503 -0.0019997708 -0.014292925
-0.007439442 -0.012089748 0.011407434 0.0050987843 0.03884645 -0.041232895 -0.014411704 -0.027356474
-0.054446142 0.046721008 0.012882148 -0.051307492 0.02138702 -0.043920774 0.02234232 -0.028715774
-0.017280832 -0.03285623 0.009001413 0.0046588527 -0.026798112 -0.018440267 -0.03911039 0.025615247
0.01991437 0.0107304165 0.0129334545 -0.0016471725 -0.0062196287 -0.046486404 -0.05371715 0.027857868
0.018528374 0.0004248166 0.044321083 -0.010455839 -0.006525054 -0.034179203 0.024511572 0.0030301807
-0.0018866073 0.027414437 -0.020668715 0.025924891 -0.032808 -0.034990005 0.024528947 0.023779659
-0.041057214 -0.011008346 -0.007987913 0.06277795 -0.009279962 -0.00258868 0.0076910486 0.024751486
0.025037156 -0.012757149 0.021755714 -0.06590344 -0.039424933 -0.04026806 0.03247134 0.014361899
-0.019850746 -0.0070285406 0.024386037 0.025539778 0.04655141 -0.023830121 -0.021866964 0.038033806
-0.02393168 -0.02685475 0.024251869 -0.007423748 -0.03794555 -0.01846881 -0.04755654 -0.005177719

output_layer.weight f4 [9, 128]
00000000: 58a8 a63d bfa0 fe3c 8882 ddbc 2167 493d
00000010: 5917 bc3c 8a8c 25bc aa56 f03d 3b61 d63d
00000020: 9293 193e 6a71 1bbc 89d3 2fbd 5eff e93b
00000030: fa4a febc 2f32 e1bd a4a7 3a3e f1ad 3cbd
00000040: 38e6 dfbc 2bbc 1b3c 9275 853d 737e 883d
00000050: da56 fc3d c748 69be 36d1 97bd 690f 0fbd
00000060: faf9 6c3e 4881 10be c784 03be a7e6 033d
00000070: eb5d ebbd ab7a 0e3d e6b3 39be 2046 3c3e
00000080: bdb4 f73c 228b 47be 3b5d 5c3c d9d3 29bc
00000090: 4d07 853e 5b53 4ebe 664d 06be 97ca 0abe
000000a0: 2c25 433e b48a 833e 2f64 18bd a48a 303e
000000b0: d955 303e 7e6c e53d eb93 243e 6306 03be
000000c0: 422d bb3c ccba e3bd 530c 57bd dbcc 3a3e
000000d0: 0636 36bd 94ef 103e 6b15 d23d 7ca9 27be
000000e0: 750f 17bc 109c 78bc 83eb c03d 362c b3bc
000000f0: 67ae 37bd 5413 d7bc 6d65 153e c841 aa3c
00000100: a3b6 81bd 1793 de3c 0780 823d 17bf a9bd
00000110: c933 c3bd c562 c53d ea0e b03d 4b01 033e
00000120: 82b9 823d a4cf 143e 576f 823d 6178 0c3d
00000130: 7e7f d9bd cb17 30bd 8653 57bd 7507 383e
00000140: e354 0f3e 8d53 233e f09b c7bd 3834 683c
00000150: c2eb d53d 5c52 fabd bbde e8bd fb25 ae3c
00000160: 50a4 21bc 599e 10bd 2b5d e0bb 0546 d0bd
00000170: 1261 23be a7e1 af3d cac1 78be 305b 43be
00000180: 6f20 9c3c ba9b 1dbc 8817 193e fe4e 263e
00000190: 9b90 fc3d bc2f c7bd 7800 a63d a5b6 f33d
000001a0: bb85 3fbe b21a be3c 8c34 4ebe 4d82 13bd
000001b0: 37af c03c ae6b 49bd f62c 693d ff95 b23d
000001c0: 79f5 d7bd 09d5 b93c 6070 a63d e5dc cb3d
000001d0: 4dd1 60bd b6ae 02be a7ce 343d c004 343e
000001e0: b978 e9bd f1e2 01bd 647d 95bc 35dc 3fbe
000001f0: 5133 8bbd d222 823e fa4d ccbd c1a0 afbd
00000200: db6e 503d 5a0c e2bd 4ad8 bebb 2075 b63d
00000210: 15e4 223e d004 e5bd 2106 ca3d 9386 273e
00000220: 065a c83d 9f9a 09be 6c92 2bbe 0ab6 10be
00000230: 1be1 e7bc acf8 13be 77a9 3e3e 0594 00be
00000240: 2bdb d6bd 5161 16be 14f4 b43c e621 0ebe
00000250: b11d c4bc 26bd 51be bb4f dd3c 6906 393e
00000260: 504d 5d3e dd27 3dbe e73d 3fbd b68a a1bd
00000270: 1b36 c03c 1068 19be f8cd dabd 787d 2d3e
00000280: 19b8 49bd e34c 1fbe c729 c73d 4ed3 a03d
00000290: d68b 903e c211 05be 2522 b9bd 4bb9 72bd
000002a0: 6627 9b3d b08d 213e 7ea1 aa3d eaca a23d
000002b0: af30 063e 7d88 f6bd ad68 9ebd c1e3 17be
000002c0: c34c 28be c200 c23d 7015 8d3a c347 aa3d
000002d0: 80e9 2cbe 23d1 f93d a5c2 c7bd 3046 963c
000002e0: ed21 153e b96b 41be 5354 ae3d 83b5 cbbc
000002f0: 25e8 d2bc 124a 393d 101f 3a3e df00 1cbe
00000300: 9342 6b3c cc9d 0f3e 2af0 b33d 318e bdbd
00000310: 5e12 c9bd 3988 e8bd 8981 833e 4d53 d3bd
00000320: a9e3 25be a30c 7c3c 08a2 123e e265 5abe
00000330: 657c c83c 0c66 923d c9d2 b6bd 8e99 97bd
00000340: 6e73 473e a99e 073e d55f fa3c 2c55 b5bd
00000350: f8de 2ebe 5801 12be bb3e 67bd 1c74 273d
00000360: a965 5f3e 835f 173e 00c8 a2bd ff9b ce3d
00000370: 9f5d f5bd 29c4 833d 730a cebd df72 2bbc
00000380: b899 2abd 68ce abbd b5ac 203e 94bd 2d3e
00000390: f3cc 513e b79a 2f3e 4a78 163e 9bea 9cbd
000003a0: 9063 b83d 6a74 58be aa21 e4bd dce8 13be
000003b0: 4f75 123e f79b 093e 4a16 dfbd 005c b13d
000003c0: 3a21 3a3d f9d8 4e3d 2226 d53d 32a9 c83d
000003d0: f9a4 9cbc ded9 34be 2bde 3b3e 8aa1 3c3e
000003e0: a24a fe3c 26e2 66be fa6f ca3d 7803 6abe
000003f0: 6cb2 42be df03 d23d 76bd afbd 6031 43be
0.08137578 0.03108251 -0.027039781 0.049170617 0.022960352 -0.010104308 0.1173528 0.10467764
0.149977 -0.009487489 -0.042926345 0.007141038 -0.031041611 -0.109959 0.18228012 -0.04606432
-0.027331457 0.009505312 0.065165654 0.06664743 0.12321253 -0.22781669 -0.07412951 -0.034926806
0.23142233 -0.14111817 -0.1284362 0.03220239 -0.11492523 0.034784954 -0.18135032 0.18386126
0.03023755 -0.19486669 0.013449962 -0.01036545 0.25982133 -0.20148985 -0.13115463 -0.13553844
0.19057149 0.2569176 -0.037204918 0.17240387 0.17220248 0.11202334 0.16072051 -0.12795405
0.022848729 -0.11119613 -0.052501988 0.18242209 -0.044485115 0.14153892 0.102579914 -0.16373247
-0.009219994 -0.015173927 0.0941992 -0.021871667 -0.044844057 -0.026254334 0.14589472 0.02078332
-0.06333663 0.027169747 0.063720755 -0.082884006 -0.095313616 0.096379794 0.08596595 0.12793462
0.06383039 0.14532334 0.06368893 0.03429449 -0.1062002 -0.04299144 -0.05256989 0.17971595
0.13997225 0.15949841 -0.097465396 0.014172606 0.10445358 -0.1222274 -0.113706075 0.021258345
-0.009865835 -0.035307262 -0.006847044 -0.10169605 -0.15954998 0.08587962 -0.24292675 -0.19077754
0.019058434 -0.009619648 0.14950383 0.1624107 0.12332269 -0.097259015 0.08105558 0.11900071
-0.18703358 0.023206089 -0.20137233 -0.036012936 0.023521049 -0.049174957 0.056927644 0.08720016
-0.10544867 0.02268459 0.081269026 0.09954242 -0.054887105 -0.1276196 0.04414239 0.17579937
-0.11399979 -0.03171057 -0.018248267 -0.18736346 -0.06796897 0.2541719 -0.0997581 -0.08575583
0.05088697 -0.11037512 -0.0058241235 0.089090586 0.15907319 -0.111825585 0.0986445 0.1635993
0.097827956 -0.1343789 -0.16755074 -0.14131942 -0.02830558 -0.1445033 0.18619333 -0.12556465
-0.10491022 -0.14685561 0.022089042 -0.13880119 -0.02393994 -0.2048231 0.027015558 0.18068852
0.21611524 -0.18472238 -0.046689894 -0.07887785 0.0234633 -0.14981103 -0.10683817 0.16942394
-0.049247835 -0.15556674 0.09724765 0.07852803 0.28231686 -0.12995055 -0.09039716 -0.05925874
0.07575874 0.15776706 0.083315834 0.07948859 0.13104509 -0.12037752 -0.07734809 -0.14832975
-0.16435532 0.09472801 0.0010763835 0.08314469 -0.16885948 0.12198093 -0.097539224 0.018344015
0.14563723 -0.18888749 0.08512177 -0.024866825 -0.02574546 0.045236655 0.18175912 -0.15234707
0.014359134 0.14025038 0.08786042 -0.092556365 -0.098179564 -0.113541074 0.25684765 -0.10318623
-0.16200127 0.015383872 0.14319623 -0.21327928 0.024473378 0.0714837 -0.08926923 -0.07402335
0.19477627 0.13244118 0.030563274 -0.08854136 -0.17077243 -0.14258325 -0.05645631 0.040882215
0.21816124 0.14782529 -0.07948303 0.10088348 -0.119807474 0.06433899 -0.10060587 -0.010464399
-0.041650504 -0.08388978 0.15690883 0.1696685 0.20488338 0.17148863 0.14694324 -0.07661935
0.09003365 -0.21138158 -0.111392334 -0.14444298 0.14302562 0.13438402 -0.10892923 0.08660126
0.045441844 0.05049989 0.10407664 0.097978964 -0.019121634 -0.17661235 0.18346469 0.18420997
0.031041447 -0.22547206 0.09884639 -0.22852886 -0.19013375 0.102546446 -0.08581059 -0.19061804

output_layer.bias f4 [9]
00000000: d5c7 263d 08b6 103e 1dec dd3d 1d31 c63d
00000010: e2d4 123e 9217 bfbd 6943 823d 0947 3cbe
00000020: 5b8f 6b3e
0.04071792 0.1413194 0.10836051 0.09677336 0.14339021 -0.093306676 0.06360514 -0.18386473
0.23003905
