src/logs/linear_fashionmnist_holdout_[8]_swil3.pt (torch, 408595 bytes, 4 tensors)

input_layer.weight f4 [128, 784]
000000 c6 16 3c 3c 9f 86 f5 bb c9 21 2c bd e0 bf 33 3c
       0.011480039 -0.0074928547 -0.042024408 0.0109710395
000010 1e c7 35 bb c5 f9 4b bd 4b ac af 3b 7c b5 b3 3d
       -0.0027737091 -0.049798746 0.005361115 0.0877485
000020 2f 0a 25 3d c5 f2 86 3d 80 3f e2 3d b2 f1 23 3e
       0.040292915 0.06589273 0.11047268 0.16010168
000030 ab 10 e8 bc 3b 3a 12 bd 8c 82 6a 3c 82 f4 9d bd
       -0.02832826 -0.035700064 0.014313351 -0.07712652
000040 a0 7c 9f 3d 0b 54 ed 3d bd ba d5 3c a5 f0 14 3d
       0.07787442 0.115882955 0.02609002 0.03636231
000050 8c 8f 01 3e 3a 22 8b 3d 1d 16 18 bd 1f dd 23 bb
       0.12652415 0.067936376 -0.037130464 -0.0025003625
000060 f3 fa e7 3a 56 90 63 bd 95 2f 2f bd c1 d2 89 bc
       0.001769869 -0.05555757 -0.042769987 -0.016824128
000070 b6 36 2f bd fd b3 15 3b 98 99 e4 bc fe ab 04 3b
       -0.042776786 0.0022842877 -0.02790527 0.0020244117
000080 34 cc 63 bd 28 db d3 bc 8a a9 63 3c 54 c0 4e bd
       -0.055614665 -0.025861338 0.013895402 -0.050476387
000090 9b cd 6b bc b7 8e 25 bc 72 1d 1e 3d 50 73 f9 3a
       -0.014392282 -0.010104827 0.0386023 0.0019031558
0000a0 71 e5 8b 3c f8 f3 c9 3c 02 31 35 3d e1 ba 62 bd
       0.01707718 0.024652466 0.04423619 -0.055354003
0000b0 c5 ad 63 3d 1a f0 0c 3d e4 f1 18 3d 7c 94 3d bb
       0.05558564 0.034408666 0.03734006 -0.0028927615
0000c0 f9 6b 16 3c 76 c7 45 3d f6 41 eb 3b da 00 57 bd
       0.009181016 0.048285924 0.007179494 -0.052491046
0000d0 6c 6d 54 bd ec 40 17 bd 51 f2 27 3c 42 34 0a bc
       -0.051862165 -0.03692715 0.010250644 -0.008435311
0000e0 cb 77 be 3b 95 9e 21 bd 3a 20 29 3c 03 e0 90 3a
       0.0058126203 -0.039457876 0.010322625 0.0011053089
0000f0 93 75 4c bc 78 67 5f bd 74 c1 b7 bc 9b a2 8a bc
       -0.012479204 -0.054542035 -0.022431113 -0.01692324
000100 be f4 04 bc 6a 79 59 3c e2 fa 2f bc e0 82 df 3c
       -0.008114992 0.013273576 -0.0107409675 0.027284086
000110 3d cc 1e bc 68 04 8e bc 03 bd c2 3c 4e df 94 bd
       -0.009692249 -0.017336085 0.023771768 -0.072691545
000120 06 46 dc 3c e2 4d ab bb cd e9 0e bd 7d 68 68 bd
       0.026888859 -0.00522779 -0.03489094 -0.056740273
000130 d6 1d 06 bc 04 3a 44 3d 88 9c 34 bc 5d 53 0c bd
       -0.008185824 0.04790689 -0.011023648 -0.03425919
000140 ee 8d 36 bc da 0b 2c bc 5a 8f 04 bd 81 8c 16 3b
       -0.011142237 -0.0105008725 -0.032363273 0.002297193
000150 e9 e4 cf bc ff 00 c2 bc 69 28 d4 3b 5a bc ac 3c
       -0.025377708 -0.023682116 0.006474544 0.021085907
000160 73 cd 28 3d f2 fb b9 3c 38 33 89 3d 49 16 93 3c
       0.041211557 0.022703145 0.06699222 0.017954962
000170 a4 83 b3 bc fc af 53 3c e7 4d 89 3d 58 5a 40 3d
       -0.021913357 0.012920376 0.06704312 0.04696116
000180 6a 3b ef 3b a0 d0 5a bd fa 68 d8 bc 70 0c b1 bc
       0.007300784 -0.053421617 -0.026417244 -0.021612376
000190 58 0d 70 3c e7 8a 4c 3d e7 3d db 3c 11 0b 92 bd
       0.014651619 0.049937155 0.026762916 -0.07131017
0001a0 e9 4d 90 bd ff 20 dd 3c cc ce 2b bc 1c 55 a4 bb
       -0.0704611 0.026993273 -0.010486316 -0.0050150286
0001b0 a7 a2 f2 bb 0a 77 40 bd a7 54 c3 3b cb c9 e9 bc
       -0.0074046436 -0.046988524 0.005961019 -0.028538605
0001c0 d6 9c 67 bd 0a 01 a0 bc 6a 20 18 3c ac dd 10 39
       -0.056546055 -0.019531745 0.009285072 0.0001381549
0001d0 b2 3d 43 3c de f8 71 bc 80 af da 3d 0d c3 07 3d
       0.011916565 -0.014768807 0.10678005 0.033145
0001e0 e4 5a 13 38 ed 9d b6 3c 87 f3 36 3d 6d 4e ca bc
       3.513218e-05 0.022292102 0.04466584 -0.0246956
0001f0 be cd 83 bd 54 fd 8e 3b af 93 aa bd ea e4 f1 bc
       -0.064357266 0.004363695 -0.0832895 -0.0295281
000200 ff 0a d0 bc 00 d8 ae 3c 2e 81 9f 3d e9 11 19 bd
       -0.025395868 0.021343231 0.07788311 -0.037370596
000210 05 be ff bc f3 03 38 bb ec 01 4c bc 00 6e 99 3c
       -0.031218538 -0.0028078526 -0.01245163 0.01872921
000220 11 7b 92 bc 20 30 ce bc 36 92 0b bc 5b a1 89 bb
       -0.017880948 -0.025169432 -0.008518746 -0.0042001433
000230 fd c6 53 3c 18 18 23 bd 96 63 7f bc ba 1d bd 3c
       0.0129258605 -0.0398179 -0.015587708 0.023085464
000240 e8 f8 c7 3c ba 44 9b 3d 0a ae 67 3d 34 fe 5b 3d
       0.02441068 0.07581468 0.05656246 0.053709224
000250 96 02 9a 3d bb 36 d9 bb c2 f5 f0 bc ae cd cc bc
       0.075200245 -0.006628839 -0.029414061 -0.02500042
000260 42 10 bd 3a af a0 85 bc 3e 3c 34 3c 0a 28 ba bc
       0.0014424401 -0.016311971 0.011000691 -0.02272417
000270 e4 a4 1d bd cf ba 0c 3d 86 0a a2 3d b4 26 8a 3b
       -0.03848733 0.034357842 0.079121634 0.0042160396
000280 51 af 1f bd 22 72 88 bc ee c3 0a 3c bf dc 18 bd
       -0.038985554 -0.016655985 0.008469565 -0.037319895
000290 4e 36 eb bc 8d bf a1 bd ea c5 1a bd 34 21 73 3c
       -0.028712418 -0.078978635 -0.0377864 0.014839459
0002a0 de 8a 00 bd 90 7b cc bc ad 18 9f bc 18 da 1e bd
       -0.031382434 -0.024961263 -0.019420946 -0.03878221
0002b0 a7 9f 3d bc 25 8b 21 3d e1 51 8c 3d d5 3f 7d 3d
       -0.011573709 0.03943934 0.06851555 0.061828453
0002c0 ec ac 22 3d 60 d5 db 3b cc 60 da 3c f6 fb 05 bd
       0.039715692 0.006708786 0.026657484 -0.03271099
0002d0 ee 13 4c bd 65 46 09 bd 04 a7 ab bc a5 49 28 bd
       -0.049823694 -0.0335144 -0.020953663 -0.041085858
0002e0 0d 5d e4 ba a4 aa 7f 3d 22 07 25 3d 34 56 b8 3c
       -0.0017422751 0.062418595 0.040290006 0.022502042
0002f0 a9 da b7 bd 46 c8 92 bd cf 6d c3 3b 6e 7b 84 3c
       -0.08977253 -0.071671054 0.005964018 0.016172137
000300 a8 55 cc bd d0 ae e3 bc c8 c7 3c 3d b4 42 0c bc
       -0.09977275 -0.027793318 0.046088964 -0.008560825
000310 7e 65 47 bd 8b bb 89 bc 5e bb 42 bc 5b 0e 36 bc
       -0.048680775 -0.01681306 -0.011885492 -0.011111821
000320 e5 f8 ab bc b5 d0 1a 3d 68 e0 fb 3d c6 57 51 3d
       -0.020992706 0.037796695 0.122986615 0.051109098
000330 6f 70 90 3c e3 92 8d 3b d8 63 3f bb 27 b0 a1 bd
       0.017631738 0.004320489 -0.0029203799 -0.078949265
000340 6c c4 b7 bc 54 79 18 bd 74 2d 48 bd 53 43 0d 3d
       -0.022432528 -0.037225083 -0.048871472 0.034488034
000350 c3 7f 25 3d 10 78 56 3c 14 b4 ae 3d 4a 2f e2 3d
       0.040405046 0.013090149 0.08530441 0.11044176
000360 8a 7b cc 3d 32 fa 04 bd 67 bc 2a 3b ed da d7 bc
       0.09984501 -0.032465167 0.0026052238 -0.02634951
000370 89 ad 25 bd e1 21 43 bd 87 29 55 3c 55 b0 be bc
       -0.0404487 -0.04763973 0.013010389 -0.023277441
000380 ae 48 81 bb 28 64 90 3c 84 ab 9a bc e2 95 09 3c
       -0.0039454317 0.017625883 -0.018880613 0.008397551
000390 d0 88 e2 3c 5a 12 58 3d a7 09 80 3d 19 35 79 3d
       0.027653128 0.052751876 0.06251841 0.060841653
0003a0 7d b1 c0 3d 7e 4e c5 3c 35 a3 99 3c fc 31 95 bd
       0.09408853 0.02408528 0.018754581 -0.072849244
0003b0 52 a1 af 3c 97 75 8f bd 6d 02 e1 bd 0e 2e eb bd
       0.021439228 -0.0700485 -0.10986791 -0.114833936
0003c0 2e 38 34 3c 73 5a db 3d 34 4b 0f 3d 05 06 b7 bc
       0.010999722 0.10710611 0.03498383 -0.022341738
0003d0 2c 3e f7 bc 31 db 11 bd 32 51 27 3c bb 7d 3a bd
       -0.030181013 -0.035609428 0.01021223 -0.045530062
0003e0 55 36 2f bd 49 81 41 bd 23 ff 6c bd 69 bc 49 3b
       -0.042776424 -0.047242437 -0.057860505 0.0030782467
0003f0 8f d9 2f 3b ce 14 d7 3c ca cc a2 bc 81 13 dc 3c
       0.0026832556 0.026255038 -0.019873042 0.026864769

input_layer.bias f4 [128]
000000 8e a0 f8 3c c1 fe 60 bc 67 0b 14 3d eb 80 a7 3d
       0.030349996 -0.013732613 0.036143687 0.08178886
000010 04 ad 6d 3c b4 9f e6 3c e6 68 8b 3d 0a 68 8e 3d
       0.014506582 0.028152324 0.06807117 0.069534376
000020 2d 5a cd 3b 3c 37 26 bc 6a c7 2f 3d 38 98 9d 3c
       0.0062668533 -0.010145005 0.042914785 0.019237623
000030 dc 5a 17 bd ae 6b 3c 3d d1 26 55 3d fa 8a 5d bb
       -0.036951885 0.04600113 0.05203897 -0.003380476
000040 4a 95 38 3c bf 3e c3 bc b0 02 3b bd b4 95 5c bc
       0.011266062 -0.02383363 -0.04565686 -0.013463426
000050 ef ff 18 bd 79 f2 db bc 5e e3 2d bd 3b 56 98 bc
       -0.037353452 -0.026849018 -0.042453162 -0.018595805
000060 39 c9 b5 3c ee 9b 42 bc 3d 09 01 3d 03 45 0d bd
       0.022190677 -0.011877997 0.03150295 -0.034489643
000070 f3 a7 09 3d 54 65 33 3c ba f9 73 bc 33 05 1d 3d
       0.033607434 0.0109494515 -0.014891082 0.038335036
000080 4d 4b a5 3b 80 d7 a8 3c c7 8c 1e bd bb f0 0b 3d
       0.005044377 0.02061057 -0.038708474 0.034165125
000090 67 1f 6e 3b 7f 18 f9 bc 8c 13 22 3d 16 74 fe 3b
       0.0036334635 -0.030407188 0.039569423 0.0077653034
0000a0 fa a9 da bc f9 4e 70 3c 33 b2 e1 bc a8 20 20 3d
       -0.02669238 0.014667266 -0.027550792 0.039093643
0000b0 a2 f7 c6 bb 2c 4d 2a 3d 96 0e 03 bb df 2c 6a bc
       -0.0060720006 0.041577503 -0.0019997708 -0.014292925
0000c0 90 c6 f3 bb 14 14 46 bc 3f e6 3a 3c b4 13 a7 3b
       -0.007439442 -0.012089748 0.011407434 0.0050987843
0000d0 75 1d 1f 3d d3 e3 28 bd 11 1f 6c bc af 1a e0 bc
       0.03884645 -0.041232895 -0.014411704 -0.027356474
0000e0 eb 02 5f bd 87 5e 3f 3d a5 0f 53 3c ce 27 52 bd
       -0.054446142 0.046721008 0.012882148 -0.051307492
0000f0 d5 33 af 3c 45 e6 33 bd 3e 07 b7 3c 58 3d eb bc
       0.02138702 -0.043920774 0.02234232 -0.028715774
000100 88 90 8d bc 41 94 06 bd aa 7a 13 3c 4a a9 98 3b
       -0.017280832 -0.03285623 0.009001413 0.0046588527
000110 b7 87 db bc 0b 10 97 bc 37 32 20 bd 11 d7 d1 3c
       -0.026798112 -0.018440267 -0.03911039 0.025615247
000120 76 23 a3 3c a1 ce 2f 3c d7 e6 53 3c f0 e5 d7 ba
       0.01991437 0.0107304165 0.0129334545 -0.0016471725
000130 07 ce cb bb 87 68 3e bd 84 06 5c bd 2f 36 e4 3c
       -0.0062196287 -0.046486404 -0.05371715 0.027857868
000140 d1 c8 97 3c eb b9 de 39 06 8a 35 3d f8 4e 2b bc
       0.018528374 0.0004248166 0.044321083 -0.010455839
000150 1f d0 d5 bb 7e ff 0b bd 7e cc c8 3c ff 95 46 3b
       -0.006525054 -0.034179203 0.024511572 0.0030301807
000160 09 48 f7 ba 3e 94 e0 3c 70 51 a9 bc 70 60 d4 3c
       -0.0018866073 0.027414437 -0.020668715 0.025924891
000170 ae 61 06 bd ae 51 0f bd ee f0 c8 3c 8f cd c2 3c
       -0.032808 -0.034990005 0.024528947 0.023779659
000180 9c 2b 28 bd 5a 5c 34 bc bc df 02 bc ba 91 80 3d
       -0.041057214 -0.011008346 -0.007987913 0.06277795
000190 fb 0a 18 bc d8 a6 29 bb 31 05 fc 3b a1 c3 ca 3c
       -0.009279962 -0.00258868 0.0076910486 0.024751486
0001a0 b9 1a cd 3c 5c 03 51 bc 0a 39 b2 3c 62 f8 86 bd
       0.025037156 -0.012757149 0.021755714 -0.06590344
0001b0 0a 7c 21 bd 1f f0 24 bd ab 00 05 3d 2c 4e 6b 3c
       -0.039424933 -0.04026806 0.03247134 0.014361899
0001c0 08 9e a2 bc ac 4f e6 bb 3a c5 c7 3c cc 38 d1 3c
       -0.019850746 -0.0070285406 0.024386037 0.025539778
0001d0 b1 ac 3e 3d 63 37 c3 bc 59 22 b3 bc 56 c9 1b 3d
       0.04655141 -0.023830121 -0.021866964 0.038033806
0001e0 5f 0c c4 bc 7e fe db bc db ab c6 3c e9 42 f3 bb
       -0.02393168 -0.02685475 0.024251869 -0.007423748
0001f0 cb 6c 1b bd e7 4b 97 bc a6 ca 42 bd db a9 a9 bb
       -0.03794555 -0.01846881 -0.04755654 -0.005177719

output_layer.weight f4 [9, 128]
000000 2f ac a6 3d 68 ae e8 bd 52 ba 58 3d 72 c6 c4 bc
       0.0813831 -0.1136139 0.052912064 -0.024020407
000010 a1 c4 df 3d 5f 75 8e 3d 0c 90 20 3d 2a 64 e2 3d
       0.10926176 0.069559805 0.039199874 0.11054261
000020 80 4b ea 3d fa b7 09 bc 18 66 df bd 64 24 1b be
       0.11440182 -0.00840568 -0.10908145 -0.151506
000030 34 b1 65 3d 1f 99 f9 bd b1 63 0c 3e 55 ff 2f be
       0.056077197 -0.12187409 0.13709904 -0.17187245
000040 15 8e df 3c 1c 40 ee bd a3 56 16 bd dc 7e 58 3c
       0.02728943 -0.11633322 -0.036703717 0.013213839
000050 c9 96 3b 3d 42 c5 01 be 24 9c 20 bd 64 2d 60 3d
       0.045798097 -0.12672904 -0.039211407 0.054730788
000060 34 08 a5 3d 43 18 cc bd 73 99 9c bd a7 d0 97 3d
       0.08058205 -0.09965565 -0.076464556 0.07412844
000070 78 26 1c bd a1 dd 23 bd 34 f4 b2 bd a5 c0 1c 3e
       -0.038122624 -0.040006284 -0.08737984 0.15307863
000080 b5 78 bf bd 88 43 41 be f7 0a 8c 3d 72 01 ae bc
       -0.09349195 -0.18873417 0.06838029 -0.021240924
000090 18 86 1f 3e 97 3e c3 bd ab 93 eb bd 7a ad 7f bd
       0.15578496 -0.095334224 -0.11502775 -0.0624213
0000a0 5b 4a bd 3d 3a 70 f1 3d f7 84 f8 3c 81 89 b5 3d
       0.09242698 0.11788984 0.03033684 0.088641174
0000b0 12 33 48 3d 53 5b e9 ba 69 15 45 3c 84 41 17 be
       0.04887683 -0.0017803706 0.01202903 -0.14771086
0000c0 a5 46 fb bd e2 bd e2 3b f2 eb f5 bb c1 7b 8e 3d
       -0.12269334 0.0069196085 -0.0075049335 0.06957198
0000d0 e3 d5 2d be 9e 3b b3 3d 1e ab 42 bd df 2e d8 bc
       -0.16976123 0.087516055 -0.04752647 -0.026389537
0000e0 54 8c e0 3c 68 3f 1f be 73 d3 c8 3d 18 34 99 bc
       0.027410664 -0.15551531 0.09805956 -0.018701598
0000f0 f9 fd ea bc 43 50 cd 3d 8e 2f 13 3e e2 64 94 bd
       -0.028685557 0.10025074 0.1437361 -0.07245804
000100 f4 8a 16 3d f5 50 93 3d c4 7e b5 3d ed 27 f4 bd
       0.03675361 0.07193176 0.08862069 -0.11921678
000110 d2 ee 4f be 9a 2b 9c 3c 68 a0 d8 3d ba 5d 5f 3c
       -0.20305946 0.01906376 0.1057747 0.013633186
000120 ce f0 55 bd 66 d6 93 3c d1 89 d3 3d 85 45 4b bd
       -0.052231602 0.01804657 0.10329021 -0.049626846
000130 5d 2c cc 38 29 b3 fa 3d cd 44 73 bd 52 d2 64 3c
       9.735741e-05 0.12241203 -0.059391785 0.01396616
000140 25 d3 d0 3d 3c e8 47 3d b9 cb 31 3d b1 de de bc
       0.101965226 0.04880546 0.043407176 -0.027205797
000150 e6 16 7b bd 8e 07 f9 bd a0 14 9f bd ca f6 8c 3d
       -0.061301135 -0.12159644 -0.07767606 0.06883009
000160 27 82 d4 3d b4 2b c7 3d d5 ea d5 3c 77 a6 55 3d
       0.10376387 0.097251326 0.026112953 0.052160706
000170 10 93 ab bd 48 c9 0a 3d e3 05 a2 bd 00 98 8a bd
       -0.08377659 0.033883363 -0.07911279 -0.06767273
000180 25 5e 23 3b 79 50 9e 3c 88 49 26 3e 6c 3d 62 3d
       0.002492794 0.019325482 0.16238987 0.055234358
000190 1c 04 c5 3c 01 5d 5e 3c f9 55 2d 3e 3c f4 d8 bb
       0.024049811 0.013571979 0.16927327 -0.006620912
0001a0 ae 3c 15 3c 44 0c d0 bd dd 36 ec bd 77 06 b9 bd
       0.009108705 -0.101585895 -0.11533902 -0.09034436
0001b0 9a e4 c3 3d fd f7 1d 3d 62 50 27 bd 8b bc ed 3d
       0.09565087 0.03856658 -0.040848143 0.11608227
0001c0 46 4c 81 bc 4a fc b1 3d a8 ff 0d 3e 07 55 03 3e
       -0.01578344 0.086906984 0.13867056 0.12825404
0001d0 33 45 8a bd c3 92 ca bd a3 95 17 3e ea 8f 06 3e
       -0.0675148 -0.09891274 0.14803176 0.13140836
0001e0 2e 61 8d 3c 1f 59 13 be fa 9e 84 3c 25 05 34 be
       0.017258253 -0.14389466 0.016189087 -0.17580087
0001f0 27 f0 59 be d2 26 e9 3d d0 83 11 bd b3 ce 7f bd
       -0.21283017 0.113843575 -0.035526097 -0.062452983
000200 11 9f 9c 3d c5 47 2e be 6c 93 a0 3d 9d 61 cf bb
       0.07647527 -0.17019565 0.078406185 -0.006328775
000210 8e a0 0c 3e b9 2d 47 3d 40 97 26 3d 5f 90 2c 3e
       0.13733122 0.04862759 0.040671587 0.16851948
000220 75 68 f4 3d 41 c1 f8 bd 0b 40 f5 bd 4f c7 37 be
       0.11933986 -0.12146235 -0.11975106 -0.17947124
000230 d5 bd b4 3c d3 99 c0 bd 8d b0 07 3e bb 2d 20 be
       0.022063175 -0.0940434 0.13250943 -0.15642445
000240 6a 61 55 3c 9d 2b 11 be 75 18 29 be e9 f1 ca bd
       0.013023714 -0.14176793 -0.16513236 -0.09909422
000250 e6 1e 4d bd c5 6d ec bd 83 27 cf bc d3 27 04 3e
       -0.050078295 -0.115443744 -0.025287395 0.12905817
000260 46 71 d4 3d 4a 0a 37 be c8 e3 2a 3b d1 f7 b4 bb
       0.10373168 -0.17875019 0.002607571 -0.005522706
000270 29 5f e7 bb c1 5d cb bd 7e b5 27 bd 09 d9 3f 3e
       -0.0070609045 -0.099299915 -0.04094457 0.18735136
000280 1d 57 c3 bd b3 7d 19 be b9 6b 9e 3d 5b b2 27 3d
       -0.095381 -0.14989357 0.0773539 0.040941577
000290 11 5d 8a 3e 43 ca 19 bd a2 47 75 bd 7c c8 f0 bd
       0.2702413 -0.037546407 -0.059882767 -0.11756989
0002a0 6c 78 0d 3c 85 df 73 3d be ac af 3c e8 e0 b9 3c
       0.008634668 0.059539337 0.021444675 0.022690251
0002b0 9e 15 aa bc 83 1b 18 be 43 e4 20 be 61 a9 1e be
       -0.020762261 -0.14854245 -0.15712075 -0.154943
0002c0 43 39 3f be 13 36 bb 3d 84 17 c1 3d 36 74 c7 bd
       -0.18674187 0.09141173 0.094283134 -0.09738962
0002d0 cd 03 32 be 76 f1 bf 3d 06 94 e4 bd 52 fc 8a 3e
       -0.17384262 0.09372227 -0.11161046 0.2714563
0002e0 b7 03 98 3d d1 c1 4c be e6 5c a7 3d 71 a3 73 bd
       0.074225836 -0.1999581 0.08172016 -0.05948204
0002f0 87 6f 8a bd 21 bf 0c 3e 23 5d f7 3d d7 1c 29 be
       -0.067595534 0.13744785 0.12078311 -0.16514908
000300 08 96 59 3d 20 0b f0 3d 7c 18 ad 3d f1 a9 e9 bd
       0.053121597 0.11720872 0.08451936 -0.11409367
000310 ef 5a 18 be ef 8b 9f bd 39 06 3c 3e fb 61 f7 bd
       -0.14878438 -0.07790362 0.18361749 -0.12079235
000320 04 53 09 be 5b 03 ba bd b5 52 24 3e f0 d1 2f be
       -0.13410574 -0.09082671 0.16047175 -0.17169929
000330 96 3e a8 3d ed 40 c9 3d 6d f7 fd bd 40 dd 97 bd
       0.08215062 0.09826837 -0.12400708 -0.07415247
000340 3f ef 2c 3e 1a d9 c2 3d 9a 25 ba 3d 87 ed 50 bd
       0.1688814 0.09514065 0.09089203 -0.051007774
000350 23 91 3c be 6d 59 0a be d0 0a 81 bd f2 1b eb 3d
       -0.1841474 -0.13510676 -0.063008904 0.114799395
000360 19 9a 45 3e f4 09 42 3e f1 ce 83 bb d3 e4 e9 3d
       0.19297065 0.1894911 -0.004022472 0.11420598
000370 75 c1 17 bd 7c 18 71 3d 83 e9 22 bd 52 5c 87 3d
       -0.03704973 0.05886124 -0.039773475 0.066094056
000380 04 31 60 bd 70 07 23 bd 0a b8 0e 3e 73 bb f2 3d
       -0.054734245 -0.039802015 0.13937393 0.11852159
000390 f8 63 d3 3d d7 74 73 3e f0 1e 3a 3e c1 c8 aa bd
       0.10321802 0.2377504 0.18175864 -0.08339072
0003a0 88 43 ff 3d 74 68 6e be 02 18 58 bd 64 9a 26 be
       0.124640524 -0.23282033 -0.05275727 -0.16269833
0003b0 57 6d 14 3e 07 0a cc 3d e4 26 b4 bd eb 0a 8d 3d
       0.14494835 0.0996285 -0.0879648 0.06886848
0003c0 56 a5 a5 3d 18 4d b7 3d 41 86 16 3e 29 e3 f9 3d
       0.08088176 0.08950251 0.14699651 0.122015305
0003d0 ec 6d 9f bd 02 98 ff bd 12 48 78 3e 20 96 27 3e
       -0.07784638 -0.12480165 0.24246243 0.16365862
0003e0 b0 16 86 3d d2 0a 7e be 7b 00 a7 3d e2 12 56 be
       0.06547296 -0.24808815 0.081543885 -0.2090564
0003f0 d2 c0 64 be 95 19 01 bb ad 3c b4 bd f5 df 13 be
       -0.2233918 -0.0019699086 -0.088006355 -0.14440902

output_layer.bias f4 [9]
000000 97 d0 8e bc 14 96 56 3c 23 e3 a2 3d 33 aa 3f bd
       -0.017433448 0.013097305 0.07953479 -0.046793174
000010 59 9e 36 3d b3 37 54 be df d1 a7 bd ad a7 2a be
       0.044584606 -0.20724373 -0.081943266 -0.16665526
000020 b9 49 00 c0
       -2.0044997
