src/weights/cnn-demo_cifar10_holdout_[8, 9].pt (torch, 250183 bytes, 10 tensors)

conv1.weight f4 [6, 3, 5, 5]
000000 34 d6 8a 3d 50 fc fc 3d b1 2c dc 3d 8b 23 20 3e
       0.06779137 0.12352812 0.10750712 0.15638559
000010 9e 77 17 3e 14 20 0e 3e 0d a8 b5 3d f9 46 47 3d
       0.14791724 0.13879424 0.08869944 0.04865167
000020 f6 3a 4d 3e 7c d7 2d 3e 4a 74 3a 3e 46 65 d5 3c
       0.20042023 0.16976732 0.18208423 0.026049268
000030 d7 ec 04 3e f3 fb 42 3e 64 ff 39 3e 1d 09 a5 3d
       0.12980972 0.19041423 0.1816383 0.08058379
000040 04 40 58 bd 3d 5c 8b 3d ce f5 60 3e 6b 10 be bc
       -0.052795425 0.068047024 0.21968767 -0.023201188
000050 d8 28 ac bd 59 30 6e be 9a c6 40 be 46 45 03 bd
       -0.08406228 -0.2326063 -0.1882576 -0.032048486
000060 d3 3a e4 bd bf 94 bf bd f2 fc 6d be 11 62 31 be
       -0.11144032 -0.09354543 -0.23241022 -0.17322566
000070 23 b9 f4 bc 17 ac 81 bd 6b 2c c0 bd 45 e6 88 be
       -0.029873436 -0.06331652 -0.09383472 -0.26738182
000080 b7 ac 54 be 63 61 3c be c1 66 60 3d 45 2f 95 bd
       -0.2076901 -0.18396525 0.054785494 -0.072844066
000090 b8 79 b6 be d6 6a 93 be b2 2d 9a bd b0 1f bc bc
       -0.3563974 -0.28792447 -0.07528247 -0.022964329
0000a0 4c 8c 9b bc b9 74 05 be 1a 3a 26 be 58 31 23 bd
       -0.018987797 -0.13032807 -0.16233101 -0.03984198
0000b0 75 77 a8 3d a3 12 6b 3d 6a 4a 0e be 57 6d f9 bc
       0.082259096 0.05739082 -0.13895574 -0.030447645
0000c0 d3 a2 0c 3d 97 95 d9 bc 4f 12 cb bd cd b6 5a bb
       0.03433497 -0.026560588 -0.099156015 -0.0033373118
0000d0 2a 9f cf bd 93 99 ec 3d a3 6e 36 3e af 30 f4 bd
       -0.1013778 0.115527295 0.17815642 -0.11923348
0000e0 b0 94 a8 bd bd 97 b6 bd d9 bd b2 3d fa 88 a6 3b
       -0.08231485 -0.089156605 0.08727617 0.005082247
0000f0 f6 8d 85 37 46 47 32 bd 0c 33 2f be be ee ff 3d
       1.5920941e-05 -0.043525003 -0.17109317 0.12496708
000100 a5 12 3a 3e c7 bb f0 3d 30 99 2a be 6e d7 ec bd
       0.18171175 0.11754566 -0.16659999 -0.115645275
000110 6b 0a ff 3d 3a c2 7b 3d cc 4d fd 3d da 86 ab 3c
       0.12453159 0.061464526 0.12368354 0.020938326
000120 02 28 0b 3e 0a 09 5e 3e 90 de 14 3e e9 b0 39 bc
       0.1358948 0.21683136 0.14538026 -0.011333683
000130 15 a5 76 bd 37 db c2 bc cc 87 cf 3d bd 97 1e bc
       -0.06021603 -0.02378617 0.10133323 -0.009679732
000140 5b 0c d3 bd 02 fc 94 ba 9d 3a a3 bd e5 92 46 bc
       -0.10305091 -0.0011366608 -0.07970164 -0.012119983
000150 70 dd e7 3d 09 ec 9d bc 66 f6 9c bc 69 c7 6e 3c
       0.11321533 -0.01927759 -0.01916046 0.01457391
000160 4c c0 02 3e 4a 45 e3 3d 08 30 49 3c 38 75 35 bd
       0.12768668 0.110972 0.012279518 -0.04430124
000170 d8 03 7a bd 0d 55 57 3c 2f 6b f4 bb 14 d3 de 3c
       -0.061038822 0.013142836 -0.0074590663 0.02720026
000180 0b 2c 45 3d c7 68 41 bc 1a f9 9a bd af e6 55 bd
       0.048137706 -0.011804766 -0.075670436 -0.05222195
000190 a4 d4 a5 bd af 98 1c 3d 6c bd c8 bd cc cf b4 bc
       -0.080971986 0.038231548 -0.09801754 -0.022071742
0001a0 bd cd 2f bd 7b 67 f3 3c 90 e4 4c bd ea 1c 3e 3e
       -0.042920817 0.02971243 -0.05002266 0.18565717
0001b0 2b 1c f6 3d e2 ac ee bc ab 57 21 3d 62 52 07 3e
       0.12017091 -0.029135171 0.039390247 0.1321502
0001c0 4d f5 34 bd 25 1c 15 3d 6b 95 e1 3d b0 37 c3 3d
       -0.04417925 0.036403794 0.11014827 0.09532106
0001d0 a3 2d aa bb 20 8f b7 3d fe 34 0f bd c5 c9 05 3e
       -0.0051934286 0.08962846 -0.034962647 0.1306525
0001e0 28 00 76 bc eb 35 b1 bd 10 7b df bd 8a 13 57 bd
       -0.015014686 -0.08652862 -0.10912144 -0.05250887
0001f0 64 27 a8 3c 63 b7 37 be bb 70 3a be 37 7c f5 bb
       0.020526595 -0.1794105 -0.18207066 -0.007491614
000200 12 1a d7 3d 71 f2 c6 3d 2b 6e 13 bd cf 54 af 3d
       0.105030194 0.09714211 -0.035993736 0.08561098
000210 20 87 05 3e 96 cb 8d 3e 71 93 35 3e 58 f0 a0 bd
       0.13039827 0.27694386 0.17732026 -0.07858342
000220 7b 86 76 3d fe 10 2b 3e 53 bf c3 3d dc bc db 3d
       0.060186844 0.16705701 0.095579766 0.107293814
000230 86 a7 a8 bc e5 4c 0d 3c 9b d8 46 3d 7c 5c b5 3d
       -0.020587694 0.00862429 0.048546415 0.088555306
000240 7e c7 96 bd 05 46 37 3c b3 02 8a 3d 38 dd 25 3a
       -0.07362269 0.011186128 0.06738796 0.00063272147
000250 c1 45 92 bb c5 30 f2 3d 64 e4 b7 bc 53 4a ca bc
       -0.0044638817 0.11825708 -0.022447772 -0.024693644
000260 40 c0 12 3d 69 16 9d bd 70 bd 1a 3d 66 b4 0b be
       0.035827875 -0.0767029 0.037778318 -0.13643035
000270 cf 28 40 bd 4e ea af bd 69 82 ee bd 47 9c 8f 3d
       -0.046913918 -0.08589612 -0.116459675 0.070122294
000280 52 b3 28 be d5 9f 9c be 8c a1 40 be ed 45 92 bb
       -0.16474655 -0.30590692 -0.18811625 -0.004463902
000290 13 79 59 3c 11 b6 a5 3d ef 06 0b bd b3 cd d1 bd
       0.013273495 0.08091367 -0.03394216 -0.10244312
0002a0 eb ce 8c bc f1 ea 9b bd 84 f5 3a 3e 86 b6 92 3d
       -0.01718851 -0.07613171 0.1825772 0.0716372
0002b0 3a e7 66 3e d9 3c b6 3d 9c 90 03 bb aa 48 1b be
       0.22549143 0.088983245 -0.0020075208 -0.15164438
0002c0 7d 8c 98 bd 2e ae 2a bd 80 18 ab 3d 8c 53 bf 3c
       -0.07448671 -0.041670017 0.083542824 0.023355268
0002d0 98 2a 6a be 12 fd 63 be a4 a3 99 bd 83 6e 73 bd
       -0.2286781 -0.22264507 -0.07501915 -0.059431564
0002e0 09 b6 5f 3d b8 7c 48 be 31 5d 93 be 6d 7a 8f bd
       0.05461696 -0.19578826 -0.28782037 -0.07005773
0002f0 6d 7f 61 3d d6 f7 19 3e 47 37 c0 bd 47 a8 b4 bd
       0.055053163 0.15035948 -0.09385543 -0.08821159
000300 c1 09 57 bd 81 22 71 bd 1c ae 0e bd 81 82 19 3e
       -0.052499536 -0.058870796 -0.034834012 0.1499119
000310 3c 62 d0 3d d7 45 0e 3e f2 7b 18 3e d3 34 78 3d
       0.10174987 0.1389383 0.14891031 0.060597252
000320 55 fc df bd 44 22 15 bc e2 57 fa bb 83 dc 1d 3d
       -0.109368004 -0.009102408 -0.007639871 0.038540374
000330 42 d1 50 bd 05 40 e7 3c 0e 33 19 be b0 77 a1 bd
       -0.050980814 0.02822877 -0.14960882 -0.07884157
000340 99 da 5b 3d 9b d6 b3 3d 71 10 01 3c 8c 74 54 be
       0.053675268 0.08781167 0.007877455 -0.20747584
000350 16 96 11 be ca c8 a5 bd 5a 1f 1a 3e 02 44 07 3e
       -0.1421741 -0.08094938 0.15051022 0.13209537
000360 0d f3 9c 3d 3b c1 a7 3c 0e 1a 11 be 31 ad 92 bb
       0.07663546 0.020477882 -0.14170095 -0.0044762124
000370 6c d5 46 3e 1f aa 84 3e 30 20 f3 3d 13 94 ec 3d
       0.19417351 0.25911042 0.11871374 0.115516804
000380 dc a0 ff 3b 6c df 98 bc 2a f2 32 be f7 a5 aa bd
       0.0078011584 -0.018661223 -0.17475191 -0.083324365
000390 87 71 51 bd 69 eb f6 bb 68 dc 05 3e 62 d6 2f 3e
       -0.05113366 -0.0075353873 0.1307236 0.17171624
0003a0 8b e1 e8 3c 94 e7 b5 3d 13 00 10 bd 93 94 c4 3d
       0.02842786 0.08882061 -0.03515632 0.09598651
0003b0 21 83 65 3e 5b 50 ba 3e 7f da 3f 3d f6 8f 8c 3d
       0.22413303 0.3638943 0.046839233 0.06863396
0003c0 45 9f 0b be ae 0a 46 be fc 7f f0 bd e8 b9 58 be
       -0.13634975 -0.19340011 -0.11743161 -0.21164668
0003d0 c6 1b ae 3c 36 d7 fb bb 08 1c 6f 3c 89 46 04 be
       0.021253478 -0.0076855673 0.0145940855 -0.12917532
0003e0 c2 af 65 bd bb f5 19 3e b7 8d b3 bd b1 15 8f bd
       -0.05607582 0.15035145 -0.08767264 -0.06986559
0003f0 a6 77 47 bd b3 84 93 bd 77 92 0f 3e 4f 5c 63 3d
       -0.04869809 -0.07203045 0.14020716 0.055507954

conv1.bias f4 [6]
000000 47 ec 0f 3c 8d fc 77 bd 95 3f 04 3e 68 dd 8c bd
       0.00878436 -0.060543586 0.1291488 -0.068781674
000010 0b 92 36 3e ca a8 23 3d
       0.17829148 0.03995589

conv2.weight f4 [16, 6, 5, 5]
000000 8b f2 02 be b6 b1 fb bd 4f 19 80 be 61 76 99 be
       -0.12787835 -0.12289755 -0.2501931 -0.29973128
000010 3d 07 95 be 77 82 b3 bd c0 e9 74 be 23 12 51 be
       -0.29107085 -0.087651186 -0.23917294 -0.20417075
000020 06 a4 62 be ba b2 e0 bd f6 a2 3b 3b b3 13 1f bc
       -0.22132882 -0.109715894 0.0028631068 -0.0097092865
000030 d1 45 2f be 00 d7 4b be 60 57 3e bd 22 c1 83 3d
       -0.17116477 -0.19906235 -0.046470046 0.064333215
000040 77 97 87 3c 9e 0e 47 bd 06 41 b0 bd d9 62 77 3d
       0.016551716 -0.048597924 -0.08606152 0.060397003
000050 a0 9b 03 3e 5d 28 a7 bd e9 74 9a bd b4 36 17 bd
       0.12852335 -0.081619956 -0.0754183 -0.036917403
000060 a2 d6 02 3d c6 ba 9d bd d4 fa 25 bd fb 50 e7 bd
       0.03194297 -0.0770164 -0.04052241 -0.11294743
000070 1c 51 65 ba 21 c6 95 3d 44 74 1c be 7f 3b a3 bd
       -0.0008747743 0.07313181 -0.15278727 -0.07970332
000080 48 26 81 3d 33 0f 1d 3c e8 7e 14 3c 14 fb d6 bd
       0.0630613 0.009586143 0.00906346 -0.10497108
000090 66 75 14 3d 6b 65 15 3d 7c 05 c9 3b d4 79 ab bd
       0.036244772 0.036473673 0.006134687 -0.08372846
0000a0 95 d3 9a bd 79 11 f0 bc 0a 89 df 3c fa 1a 77 3d
       -0.07559887 -0.029305207 0.027287025 0.06032846
0000b0 e1 32 11 3d c7 7c ac 3d f8 9b 0f 3c be 21 5f 3c
       0.035448913 0.08422237 0.008765213 0.013618885
0000c0 b2 4a 8f 3d 3b 8a 36 3d 36 96 02 3e dd 3f 66 3d
       0.06996669 0.04456542 0.12752613 0.05621325
0000d0 e8 07 64 3d b7 d0 bd bd eb 79 02 be 57 98 17 3e
       0.055671602 -0.09268325 -0.1274182 0.14804207
0000e0 e0 b3 33 3d 5b 93 cd bd 8d a0 0f be 78 a7 12 be
       0.043872714 -0.100378715 -0.14026089 -0.14321697
0000f0 c1 5a 07 3e 02 74 d3 3d b9 7a 74 bd 42 80 11 bc
       0.13218214 0.10324861 -0.05968735 -0.008880677
000100 58 2f 25 be 8f 8d 7e bd 92 24 cc 3d c1 f3 2f 3e
       -0.16131341 -0.06214672 0.09967913 0.17182828
000110 74 3f 3a 3d ac 4b 92 bd 41 52 78 3c 34 73 5f bd
       0.04547067 -0.071433395 0.01515633 -0.054553226
000120 46 77 a4 3d 06 42 0c 3e 50 c0 cf 3d cd 05 bc 3d
       0.08030562 0.13697061 0.101441026 0.09180794
000130 43 fc 14 be 5d 97 bc bd 4b cf 08 3a c0 59 28 3d
       -0.14549355 -0.09208558 0.00052188773 0.041101217
000140 8e 1a 31 bd b5 a4 15 bc 82 be 32 be b5 b7 f6 bd
       -0.043238215 -0.0091335075 -0.17455485 -0.12046758
000150 dc 43 64 3c 9c 38 08 be 30 dc f0 3d 86 83 83 3d
       0.013932195 -0.13302845 0.117607474 0.064215705
000160 da 9a 72 3d 6d 1d 15 3e c7 96 fe 3b 62 b4 9f 3c
       0.05922971 0.14562006 0.007769439 0.019495193
000170 eb 95 ef 3d c6 7f 07 3e 88 83 22 3e 7c cc c7 3d
       0.116985165 0.13232335 0.15870488 0.09755799
000180 52 d7 3c 3e 38 0d 37 3d c4 2a ec bc 69 bd 58 3e
       0.18441513 0.04469034 -0.028828986 0.21166004
000190 fb 8b b3 3d 51 35 c2 3d b4 a3 14 3e 3f d8 8e 3d
       0.087669335 0.094828255 0.14515573 0.069748394
0001a0 17 78 09 3e 1d 1c 91 3d 74 9e 33 3d 27 d2 d5 bc
       0.13424717 0.0708544 0.043852285 -0.026101185
0001b0 95 23 b1 3c 85 91 70 bd 09 f6 8d 3d 33 3b 25 3d
       0.021623412 -0.05873253 0.06931693 0.04033966
0001c0 90 96 a1 3b 25 37 38 be b7 97 2f be 5f 61 23 bd
       0.0049312785 -0.17989786 -0.17147718 -0.039887782
0001d0 e7 ab f5 bc e3 e6 e4 bd 3e f9 bf bd 81 13 17 be
       -0.029989196 -0.11176851 -0.09373711 -0.14753534
0001e0 1c 22 0b 3e 09 37 1e bd db 2f 8c 3c 27 4f 03 be
       0.1358723 -0.038626704 0.017112663 -0.12823163
0001f0 24 ef 29 be 50 7c 4f bd c4 61 9a 3b df 23 9f bc
       -0.16595131 -0.050655663 0.0047113616 -0.019426284
000200 0c c5 03 bc ec be 07 3d c7 df f3 3c cc c9 08 3d
       -0.008042585 0.03314106 0.029769791 0.033395573
000210 94 bc 70 3d b6 6e b0 3d c0 95 ad 3d a2 d6 2b bd
       0.058773592 0.086148664 0.08475828 -0.041952737
000220 54 31 0e 3d 79 fd a8 3d 42 f1 2a 3e 0e 73 f7 3d
       0.03471501 0.08251471 0.16693595 0.12082492
000230 6b 01 ad bd 83 eb d1 bc 0b 65 fc 3d 64 d0 de 3d
       -0.08447536 -0.025624996 0.1232396 0.10879591
000240 b0 8c 1b 3e 34 4a c6 bc c0 22 48 be cf f9 bb bd
       0.15190387 -0.024205305 -0.19544506 -0.091785066
000250 ba b0 1e bd 8f 88 ad 3d b3 be d0 3d 1d d2 3e 3e
       -0.03874276 0.08473312 0.10192623 0.1863484
000260 00 a2 cd 3d 22 3f 0c 3e 29 71 1f 3e c7 0b 92 3d
       0.10040665 0.13695958 0.15570511 0.071311526
000270 9e 2c 02 bd 60 d8 13 bd 8d a5 fd bc 5b 3e c3 bd
       -0.03178083 -0.036095023 -0.03096273 -0.09533378
000280 bd ac 83 3c e7 01 86 be 79 6e 8b be e5 20 62 bd
       0.016073579 -0.26173326 -0.2723272 -0.055207152
000290 01 44 bb bd da e1 c9 bd 95 6b b4 be a5 3b 2a be
       -0.0914383 -0.09857531 -0.3523833 -0.16624315
0002a0 b1 b7 bb 3b fa 0c ab bd 61 bd 5e be 7d b7 96 be
       0.005728685 -0.083520845 -0.2175193 -0.29436865
0002b0 76 9d 5a be 44 17 19 bd 16 4e ad bd e6 62 44 3c
       -0.21349129 -0.037375703 -0.08462159 0.01198647
0002c0 ab 09 15 bd 49 cd 4f 3c ea 9e a2 bd ca 8f 0f bd
       -0.036386173 0.012683221 -0.07940467 -0.035049237
0002d0 1b 2c 10 bd 83 f0 d7 3c c0 6e 90 3d ac 8c fc 3d
       -0.035198312 0.026359802 0.07052374 0.123315185
0002e0 c8 2a a5 3c 46 24 a8 3d 79 7f d6 3d 4f a7 2b bd
       0.020162001 0.082100436 0.10473532 -0.041907605
0002f0 de a2 41 bc 32 31 a3 bd 65 fb a6 3d 97 b8 8a bb
       -0.011818616 -0.07968368 0.081534185 -0.0042334306
000300 32 9d 2d 3d 43 88 f3 3c 9d 6f ab 3c 47 c8 8f bc
       0.04238624 0.02972806 0.020927245 -0.017551554
000310 75 13 45 3d ea 9e 4d ba b2 80 f7 bc 99 53 93 3d
       0.04811426 -0.00078438094 -0.030212734 0.07193679
000320 5a 35 7e 3c 08 ce 0d 3e e9 0c d5 3d 29 12 89 3d
       0.01551565 0.13848126 0.10402853 0.06692917
000330 bc 48 a2 3c 6f fd 9e 3d 4b 03 b5 3d 47 7c 67 bd
       0.019810073 0.07763182 0.08838519 -0.056515004
000340 49 e3 0a 3d bb 66 98 3d b1 f4 14 3d c0 71 82 bd
       0.033908162 0.07441469 0.03636617 -0.06369352
000350 80 37 6b bd bf 6c 87 bc 87 cd 9e bd 92 9c 48 bd
       -0.057425976 -0.016531346 -0.07754045 -0.048977442
000360 a2 64 56 bd ff 00 89 bd 08 3d 5c bd f7 7a e3 bd
       -0.052342065 -0.06689643 -0.05376914 -0.11107438
000370 31 41 b0 bc 55 30 9d 3c b9 0c 0f 3d 51 eb d2 3c
       -0.02151546 0.019188086 0.034924243 0.025746973
000380 1c e2 27 bd e5 b1 a6 3e 76 f5 3c 3e 6a df 32 3e
       -0.04098712 0.32557598 0.18453011 0.17468038
000390 f5 22 21 bd ef 4a 45 bd a6 37 d3 3d 64 27 ad 3d
       -0.03933998 -0.048167165 0.103133485 0.08454779
0003a0 a7 87 00 3e f0 5f fb bc 38 34 6f 3c cf af 06 3e
       0.12551747 -0.030685395 0.014599852 0.13153003
0003b0 e4 1e c8 3d 5b 35 22 3e 50 e2 37 3c 4d e3 d0 bc
       0.09771517 0.15840666 0.011223391 -0.02549901
0003c0 6b f4 0f 3e 7b 4d be 3c 3b 13 88 3d 1a 54 10 3e
       0.14058082 0.023230305 0.06644293 0.14094582
0003d0 ce aa 19 3e ec 4d ac bd 81 1b e8 bb 57 4e 37 bd
       0.15006563 -0.084133 -0.007083357 -0.044752445
0003e0 1d 1f c9 bd 0c f9 03 bc b5 28 02 be c2 71 dd bd
       -0.098203875 -0.008054983 -0.12710841 -0.10812713
0003f0 7a d6 be bd 22 f8 c8 bd e0 ee 4e bd f1 c2 26 be
       -0.09318252 -0.098129526 -0.050520778 -0.16285302

conv2.bias f4 [16]
000000 1c 14 d4 3d 07 01 bc bd 6e df fd 3e a6 3d 83 3e
       0.10355398 -0.091798835 0.49584526 0.25632972
000010 74 fe 7f be 44 d4 45 3e a5 6b 78 3e af c0 52 3e
       -0.2499941 0.19319254 0.24259813 0.20581315
000020 04 9e 14 3e fe 93 46 3c ef 45 dc bd 92 fc 21 3e
       0.14513403 0.012120245 -0.10755526 0.15819004
000030 c3 b9 5a be 3b 45 96 3e f5 00 6b 3c 05 1a 26 be
       -0.21359925 0.29349694 0.01434349 -0.16220863

fc1.weight f4 [120, 400]
000000 56 9a d8 bd 77 ce 98 bc 1d aa 9f bd 6e 47 0d 3d
       -0.10576312 -0.018653138 -0.077961184 0.03449195
000010 0a c9 af 3d 73 ef ee 3c 1d 2f 89 bd 62 1a fd 3d
       0.08583267 0.029166913 -0.06698439 0.12358548
000020 fb ee 1c 3e e3 53 ed 3c 87 ef a7 3c 60 15 2b be
       0.15325539 0.028970664 0.020499958 -0.16707373
000030 3d 78 2c be 10 02 19 be 12 b8 7e bd 32 ef 99 3d
       -0.16842742 -0.14942193 -0.062187262 0.07516326
000040 4c 54 dc 3a b0 29 0d be 30 be ce bd c2 b4 ca bd
       0.001680979 -0.13785434 -0.10094869 -0.09897758
000050 7e cb 37 3d ce 2b 83 3c f2 a4 7c bd fd 6b d9 bd
       0.0448718 0.016012099 -0.06168074 -0.106163
000060 1d 7e 2c be 03 6c 48 3e 92 87 11 3e b7 d9 88 3d
       -0.16844983 0.19572453 0.14211872 0.06682151
000070 4a ca 3d 3d ec f0 42 3d b4 39 1e 3e 9e a6 57 bd
       0.046335496 0.047593042 0.154517 -0.052649133
000080 b1 c4 a3 bd 27 79 08 be b2 1b 84 bd b8 86 86 3d
       -0.079965 -0.13327466 -0.06450595 0.06568664
000090 f8 3a 8f 3d 21 4a a7 bd 55 56 36 bd 69 2f 70 bb
       0.06993669 -0.08168436 -0.044515926 -0.0036649352
0000a0 28 22 24 be e2 f9 44 bb fb 2d b2 bc a9 9e 9d 3c
       -0.16028655 -0.0030056168 -0.02175044 0.019240694
0000b0 bc 80 8d bc 0b 0c b5 bd 23 28 bc bc c5 75 63 3c
       -0.0172733 -0.08840188 -0.022968357 0.013883059
0000c0 7b 20 96 3d 32 43 61 3d 3e 9e 8e bd 6c 4b 8e bd
       0.07330414 0.054995723 -0.06963776 -0.06947979
0000d0 a7 b4 ac bc 0c 10 7b 3c 7d 1f b8 3d 87 d4 25 be
       -0.021082236 0.01532365 0.08990381 -0.16194354
0000e0 ac 75 ae bd 86 7c 11 39 55 dd 0d be 3b e8 25 be
       -0.08518538 0.00013874666 -0.13853963 -0.1620187
0000f0 3f 54 8f 3c 96 fc 34 be 88 ba cc bd c0 c2 cf bc
       0.017496226 -0.17674479 -0.099965155 -0.025361419
000100 d9 e5 48 bd d1 86 a6 3d fd 48 f4 bd c2 d6 f3 bd
       -0.049047325 0.08131183 -0.11927984 -0.11906196
000110 67 f4 29 3e cc d5 10 3d 2b d0 e1 3b 7d e6 10 be
       0.16597138 0.035360143 0.0068912706 -0.14150424
000120 37 01 57 be 39 e9 c0 bd 98 34 99 3c fd a1 32 be
       -0.20996557 -0.09419484 0.018701836 -0.17444606
000130 ec f8 49 3d 09 b2 ab bd 0f 76 aa bc 61 72 ff bd
       0.049309656 -0.08383567 -0.020808248 -0.12472988
000140 99 0a 1e bd 74 5a 4d bc 9d 6b f3 3b bf 63 89 bd
       -0.038584325 -0.012533773 0.0074286 -0.06708478
000150 10 e5 f5 bd 6a 38 63 bd 3d 12 87 bd a9 4f 8b be
       -0.12006581 -0.055473723 -0.065952756 -0.27209213
000160 83 0b 64 be 0d 4d 30 be 67 84 20 be e5 15 c5 bd
       -0.22270016 -0.17216893 -0.15675507 -0.09623317
000170 e0 4b 61 be 2d b2 95 bd 78 cb 92 bd 00 2e 08 be
       -0.220016 -0.07309375 -0.07167715 -0.13298798
000180 cf a2 31 be 8e 6c ec bd f9 f2 3a be be 5d 2a be
       -0.17347263 -0.11544143 -0.18256749 -0.16637322
000190 e7 a9 22 3d 75 7a a0 3d bd df 19 bc 73 1f ff bc
       0.039712813 0.07835857 -0.009391722 -0.031142926
0001a0 50 14 6a ba 8c 9c bf bd b8 40 21 bc 41 82 cc 3d
       -0.00089294184 -0.09356031 -0.00984209 0.099857815
0001b0 a5 61 34 ba 91 0c 3f bd 99 f6 cf bd dd a3 9d 3a
       -0.0006881005 -0.046642844 -0.10154457 0.0012026984
0001c0 1e 73 e9 bc e2 b8 48 3d d8 d3 15 bd 94 49 ef 3b
       -0.028497275 0.049004443 -0.036578983 0.0073024724
0001d0 09 aa cf 3b cb 0c 6f 3c 9d 60 da 3d 21 13 8d 3d
       0.0063374084 0.014590452 0.10662959 0.06888414
0001e0 5b 53 3a 3b 8b 41 e5 3d c9 b3 14 3e 1e 07 20 3e
       0.0028431031 0.11194142 0.14521708 0.15627715
0001f0 0f b0 4f 3e 22 71 7b bc ab cb db 3d 4d fc 56 3d
       0.20282005 -0.015346797 0.10732206 0.052486707
000200 7f 36 8d 3d 10 c9 93 3c 40 de c7 bc 93 b8 94 bd
       0.0689516 0.01804021 -0.02439797 -0.07261767
000210 fe 65 94 3d 7e e8 a6 bc 4b 9a 1d bd 13 ec db 3b
       0.07246016 -0.020374533 -0.038477223 0.006711492
000220 74 92 b4 3d 57 54 47 3d 4e 94 82 bd d3 3e ba 3d
       0.08816996 0.048664417 -0.06375943 0.09094014
000230 90 3f 0a 3e ff f8 cd 3d 34 45 cb 3c 72 ae 06 bc
       0.1350081 0.10057258 0.024813272 -0.008220302
000240 1a 43 82 3c 32 81 2f 3e 1a eb 08 3e 65 ec 3d 3e
       0.015901137 0.17139128 0.13370934 0.18547209
000250 a9 dc 3d 3e b4 be f4 3d ad 55 69 bd 72 7a ec bd
       0.18541206 0.11950436 -0.056966472 -0.11546792
000260 59 1e 2c 3d be 46 a1 3c 6b ed 57 be 37 4e 00 3e
       0.04202113 0.019687053 -0.21086662 0.12529837
000270 2d e5 88 3d b1 f0 78 3d e2 d8 f6 bc 25 41 70 be
       0.06684337 0.060776416 -0.030132715 -0.2346235
000280 2d 52 73 bc e0 0b 66 3c d1 c0 8d 3d 0a 35 ae 3b
       -0.014851135 0.014040917 0.069215424 0.0053163813
000290 ea ff f5 bd 99 35 6a 3c d4 ab cc 3a a2 0d d9 bc
       -0.12011702 0.014295005 0.0015615174 -0.026495758
0002a0 20 c0 14 bd 1b 95 19 be 83 1a 12 bd bd ff 93 bd
       -0.036316037 -0.14998285 -0.035669815 -0.072265126
0002b0 7d 40 1c bd 9e 84 f4 bd 76 49 f0 bd 64 ca da bd
       -0.03814744 -0.11939357 -0.117327616 -0.10683134
0002c0 f4 17 64 3e 8e 1e be 3d 2e a5 de 3d 47 f1 9a 3a
       0.22274762 0.092831716 0.10871349 0.0011821174
0002d0 8c 2b a8 bd f1 1b 5d 3d 09 88 4c bd 0c ca ee bd
       -0.08211431 0.053981725 -0.04993442 -0.11659631
0002e0 50 d4 f0 3d 25 76 ff bd 04 cd 5f 3d bc a3 ba 3d
       0.117592454 -0.12473706 0.054638878 0.09113261
0002f0 ac f3 a3 bd 4e 2a 2f 3e de 2b 13 be b3 2b 0f be
       -0.08005461 0.17105982 -0.14372203 -0.13981514
000300 48 3f 87 3c 9a ef f5 bc 0a c6 98 3d 39 f6 ce 3d
       0.016509667 -0.030021477 0.07459648 0.10105557
000310 09 1d b1 bc a2 47 80 3d 93 3e ed 3d ee a9 8b 3d
       -0.02162029 0.06263663 0.11584201 0.06819521
000320 ea e1 23 3c dd 23 45 3d 2d 67 8f 3d 95 01 f9 3d
       0.010002593 0.048129905 0.07002101 0.12158505
000330 84 c8 b3 3d 29 90 3d bd 35 df 13 be cc ba 21 bd
       0.0877848 -0.04628006 -0.14440615 -0.039484784
000340 b1 85 28 3c b4 7d cd 3c 44 9c 6d bd f0 14 8c bd
       0.010285781 0.025084354 -0.058010355 -0.06839931
000350 73 39 da bd 5c 4b 84 3b f7 8f 99 3d 5c bc b2 bd
       -0.10655489 0.004037304 0.07498162 -0.08727333
000360 5c 9d 8f bc 86 25 5a 3c 77 4e 1b 3d 4b 73 d9 3d
       -0.01753109 0.01331461 0.037916627 0.106176935
000370 2b 6c 25 bd 6b b4 2f 3d f2 ff 7e 3d b3 d4 19 3d
       -0.04038636 0.04289667 0.062255807 0.03755636
000380 9a 1a 0b 3d 7a aa e4 bb 05 ec 4c 3d 14 7b b2 3d
       0.033960916 -0.00697833 0.050029773 0.087148815
000390 fb 0a a4 ba ea 22 ee 3b 3b 35 cf bd 0e ab ac 3d
       -0.001251548 0.0072673457 -0.10117575 0.084310636
0003a0 25 cd 75 3d ae ae ed 3c d0 88 03 be 1d c2 37 3c
       0.060010094 0.029013958 -0.12845159 0.011215714
0003b0 fe d9 bf 3c 8e 63 3b bd 30 9e 28 3d 97 1b 7c 3b
       0.023419376 -0.04574924 0.041166484 0.0038468593
0003c0 54 ad 01 3e 2d 50 d2 bc a6 d6 58 bd 5e 50 a5 bb
       0.12663776 -0.025672996 -0.05293908 -0.005044981
0003d0 7c 41 aa 3d d4 80 27 3d e3 e1 d3 3d 8d a8 45 bd
       0.083132714 0.040894344 0.10345819 -0.048256446
0003e0 fc 2a a6 3d 1a 30 47 3d e8 c1 4f 3c 9b 11 25 bc
       0.08113667 0.048629858 0.012680508 -0.010074998
0003f0 8c 1e 0f 3d 66 4d 19 bd 41 16 f7 3d 61 f3 ee 3b
       0.03494124 -0.03742733 0.120647915 0.0072921966

fc1.bias f4 [120]
000000 f7 de b8 bc 61 e0 6a bd 05 b4 8e 3d 19 d5 82 3e
       -0.022567255 -0.05734289 0.0696793 0.25553206
000010 0f b6 02 3d 10 01 c1 3d 79 60 70 3c c1 c6 81 bd
       0.031911906 0.09424031 0.014671438 -0.063367374
000020 df 04 62 3e 4e 6a 75 3d 0e 5f 33 3e 67 42 b5 3d
       0.2207217 0.059915833 0.17516729 0.08850556
000030 78 0a 6d 3d 30 27 5f bd 70 b6 0b 3e de 39 a2 3e
       0.057871312 -0.05448073 0.13643813 0.31684774
000040 fd 7b a5 bd f1 78 a0 3e 27 11 be 3d bc 72 d8 bd
       -0.080802895 0.3134227 0.09280615 -0.10568759
000050 bd 2e 58 3d 1e 30 ba 3c a6 97 30 be 4a 7f 77 3a
       0.052778948 0.022728022 -0.1724535 0.000944127
000060 b4 f3 ae bd ed 3f 87 3c 58 d0 21 bc 5e 0b d9 bc
       -0.085425764 0.016509974 -0.009876333 -0.026494678
000070 0d fa 37 bd bb dc 52 3e f4 ee b5 bc be dc 96 bc
       -0.0449162 0.20592014 -0.022208668 -0.018415805
000080 01 0c 25 bd 9e fc 74 3e 38 2f f7 bc bc 69 de 3d
       -0.04029465 0.23924491 -0.030173883 0.10860011
000090 c0 52 93 3d 19 ce da bc dd 08 23 bd 5b 66 81 bd
       0.07193518 -0.026709603 -0.039803375 -0.06318351
0000a0 43 0e ce 3d 6d 85 9f bd c5 2f ba bc 55 ec db 3d
       0.10061314 -0.07789121 -0.022727856 0.10738436
0000b0 21 f6 fa ba 7a e9 91 3e 44 85 7b bd 38 4e 9b 3e
       -0.0019146838 0.2849844 -0.06140639 0.30333114
0000c0 03 f1 25 be 0a dd 68 bd ea 84 b6 3c 72 d7 49 bc
       -0.1620522 -0.056851424 0.022280175 -0.012319433
0000d0 c9 0b 1c be 7f 15 ac bd 50 4e 17 be 5b 5b 1e bd
       -0.1523887 -0.084025376 -0.14775968 -0.038661342
0000e0 d0 e6 b2 3d 69 96 38 bd 6e 3e 91 3e 23 c3 8a bb
       0.0873543 -0.045065317 0.28367943 -0.004234688
0000f0 dd 52 70 bc 4f 85 a0 3d 92 6f d2 3c 05 b9 1a be
       -0.014668194 0.078379266 0.025687966 -0.15109642
000100 2f f7 44 bc 51 36 f7 3d 1a 29 44 3e c2 7d 8e bd
       -0.012021824 0.12070907 0.19156304 -0.0695758
000110 2a 9a a2 3d ac b9 e3 3e 1f a0 81 3e 82 33 ed bc
       0.07939561 0.44477594 0.25317475 -0.028955225
000120 98 05 10 be c6 42 43 3e 4f e6 4f bd 23 a9 3b bd
       -0.14064634 0.19068441 -0.05075675 -0.0458156
000130 0f fa 68 bb 92 7a 9f 3e 92 22 56 bd 33 7a 9f 3e
       -0.0035549437 0.311482 -0.052279063 0.31147918
000140 8c c3 bc 3e a5 75 ea bd 86 17 e4 3d 3c 4f ff 3d
       0.3686794 -0.1144822 0.11137299 0.12466285
000150 a2 c0 86 3c 3f 3d 11 3e be e3 d7 3d 10 54 57 bb
       0.016449276 0.1418352 0.10541485 -0.0032856502
000160 5d c4 5e 3d 66 b0 03 3e 9b 67 f2 3c 70 41 9a 3d
       0.054386485 0.1286026 0.029590419 0.075320125
000170 c0 b7 e0 3c 3f d9 53 3e 68 39 de bc 9f 68 23 bd
       0.027431369 0.20688342 -0.027126983 -0.039894696
000180 6a 14 5a bd 57 8c 04 3c 7f 17 f3 bd 47 06 88 bd
       -0.053242125 0.0080901 -0.11869716 -0.06641822
000190 a8 8e 9c bd c9 48 b8 3b d3 82 e7 bd 40 a6 e0 3d
       -0.07644397 0.005623911 -0.113042496 0.1096921
0001a0 9d 7f 16 bc 2c 2b c1 be f3 e0 23 3e 05 af 7d 3e
       -0.009185699 -0.3772825 0.1600378 0.24773796
0001b0 b2 4f fb 3d ee 3b 62 3e 46 78 8d 3d 4b e1 64 3e
       0.1227106 0.22093174 0.06907706 0.22351567
0001c0 79 fc bb 3b 04 47 29 3e 7b e5 25 be 7c 7c 4b 3e
       0.005736884 0.16530997 -0.16200821 0.19871706
0001d0 41 60 3f bc ec 2b bd bc 46 73 f2 3d 2a d9 a3 3c
       -0.011680664 -0.023092233 0.11838393 0.020001013

fc2.weight f4 [84, 120]
000000 f5 fd d2 bd 11 46 20 3d 5d 71 8e be 59 84 89 3d
       -0.10302345 0.03912932 -0.27820864 0.067146964
000010 50 2b 87 bd cc a6 e4 3c 11 5d 19 bd e3 b0 8b bc
       -0.06600058 0.027911566 -0.03744227 -0.01705212
000020 a5 bb 33 bd 3a 63 ae 3d 05 16 0b 3e cc db 94 bd
       -0.043880124 0.0851502 0.13582619 -0.072684854
000030 9a a7 94 3e 56 62 02 3d b1 4a 4e be 4a 00 a3 bd
       0.2903412 0.03183206 -0.2014568 -0.079590395
000040 10 22 2a 3b 55 67 f0 3d 95 f2 cb 3e a8 55 e8 3b
       0.0025960244 0.11738459 0.39833513 0.007090289
000050 b0 d7 25 be 39 0c 10 3d aa 68 32 bd 63 cb 82 3c
       -0.1619556 0.035167906 -0.043556847 0.015966123
000060 ea e7 36 3e c9 2b 00 bd c1 ae cb bc 71 29 2a 3e
       0.17861906 -0.031291757 -0.024863603 0.16617371
000070 6a 90 70 bd 46 03 00 bd 8c 83 dd 3d c4 6d 3d 3d
       -0.058731474 -0.03125312 0.10816106 0.04624726
000080 23 ac 28 bd a3 91 49 bb de ab 61 3d aa 38 6d 3c
       -0.041179787 -0.0030756972 0.055095546 0.014478842
000090 1e c6 c0 bd 7f af 72 3d e0 1f 46 3d 77 e0 99 bd
       -0.09412788 0.059249397 0.048370242 -0.075135164
0000a0 2c 15 04 be 9a ff b0 be 64 4d 11 bd 34 b2 36 3c
       -0.12898701 -0.3457001 -0.035474196 0.011150885
0000b0 3a 6a 75 3d bf 07 ac 3d 32 66 10 bd e3 37 8d 3d
       0.05991576 0.08399915 -0.03525371 0.06895425
0000c0 c3 94 44 be a5 c2 36 bd ed 8b 9e 3d 28 aa 43 3d
       -0.19197373 -0.04461922 0.077415325 0.047769696
0000d0 1d 31 1b be 29 8c 03 3d 7c 02 94 be e0 b2 1e 3e
       -0.15155454 0.03211609 -0.28908145 0.15497923
0000e0 e8 54 71 bd 58 d4 3e bd 8b 3a 73 bd 2f 15 8a 3d
       -0.058918864 -0.046589226 -0.059382003 0.06742322
0000f0 b1 0b 3b be 58 86 22 bd e3 bc 50 3d d8 09 4a bd
       -0.18266179 -0.0396789 0.050961386 -0.049325794
000100 59 15 4d bc cd 7a 49 bd 1d 52 c6 3d 3f 15 1a bd
       -0.012517297 -0.049189378 0.096836306 -0.037617918
000110 6f 17 89 3e bf c6 65 3d ca 48 4f 3e ef aa b9 be
       0.2677569 0.056097742 0.2024261 -0.36263224
000120 ce c0 f1 bc 95 82 51 bd 4a 3b e3 3a 0d 15 03 bd
       -0.029510882 -0.051149923 0.0017336395 -0.032002497
000130 9b 57 e0 bd 93 62 75 3e 24 0b 5f 3e a6 2d 65 3e
       -0.109542094 0.23963384 0.21781594 0.22380695
000140 c7 e3 71 bd 70 21 a2 bd 49 2a f3 3d db 68 ab 3d
       -0.059055116 -0.07916534 0.118733 0.08369609
000150 34 3d 03 3d 86 29 77 3d 1e 8a b5 3e 58 90 3e bd
       0.03204079 0.060342334 0.35456938 -0.046524376
000160 44 de 02 3e 45 e1 a3 3d 55 87 0d 3e 27 28 01 3e
       0.127801 0.08001951 0.13821156 0.12612973
000170 13 57 6a 3d 26 43 41 3e eb 7e 38 be b2 88 3e be
       0.057211947 0.18873271 -0.18017165 -0.18606833
000180 df 3f b3 bc cd 05 f7 3c 93 25 83 3d 89 ec 64 3d
       -0.021881042 0.030154133 0.06403651 0.05588964
000190 97 7a 41 bd 8d 1f 7d 3d 45 cd d1 bd f8 67 10 3d
       -0.04723605 0.061797667 -0.1024423 0.035255402
0001a0 cf 7b 76 bd d4 c1 fc 3c c0 53 a6 3d 86 c9 bc 3d
       -0.060176667 0.030854143 0.08121443 0.09218125
0001b0 54 03 1a bd a6 d8 c3 3d 99 7c 37 be 51 74 9e 3d
       -0.03760083 0.09562807 -0.17918624 0.07737029
0001c0 0e 48 6d bd dd 19 23 be 71 ca d4 bd dd a4 d1 bc
       -0.057930045 -0.15927835 -0.10390175 -0.025591308
0001d0 1b 4d f1 3d f9 98 e9 bc 59 d7 f5 3c 1f c6 8a bc
       0.11782285 -0.028515326 0.030009912 -0.016940175
0001e0 b9 3c a4 3d 65 09 a0 bd f4 83 14 3e b6 45 a8 bc
       0.080193944 -0.07814292 0.14503461 -0.020541053
0001f0 31 1e 29 3d d6 ae 01 be c6 9a 83 bd 6f fc 14 3e
       0.04128856 -0.12664351 -0.06426005 0.14549421
000200 fe 1c d4 3c 24 5a 39 3d 24 c1 54 bd 18 75 21 be
       0.02589273 0.04525198 -0.051942006 -0.15767324
000210 b2 45 f9 3d b9 a5 50 3c 92 64 2b bd 3b a9 3c bd
       0.121714965 0.012734824 -0.04184396 -0.04605983
000220 4c f9 a7 bd 71 e8 02 be 54 ec 68 3e 3e 4e c1 bb
       -0.082018465 -0.12783982 0.22746402 -0.00589922
000230 d5 cf 80 bd 5e eb 1f bc ed 68 c1 bc a6 e1 8f 3d
       -0.06289641 -0.009760706 -0.023609603 0.07025461
000240 df f6 35 bd f6 1f 30 be 98 fa eb bc dc 28 f5 bd
       -0.044424888 -0.17199692 -0.028806016 -0.11970684
000250 45 e6 0a 3c 99 be 13 3d eb 48 85 bc e9 60 00 be
       0.008477752 0.03607044 -0.016270122 -0.12536968
000260 55 95 98 3c c9 f2 41 3d cd 78 2f bd 67 49 27 bb
       0.018625895 0.04735068 -0.042839814 -0.002552593
000270 98 08 77 3c 11 7e 79 bc f3 80 c8 bc 6f 66 3e 3e
       0.0150777325 -0.0152278105 -0.02447555 0.18593763
000280 07 8d 88 3c 70 fe 13 3d 8f 8b a8 bd 5e 44 12 be
       0.01666881 0.036131322 -0.08229744 -0.14283893
000290 3c d3 a2 3d 6d bf 04 3e 1f b4 eb bc 53 17 f3 bd
       0.07950446 0.12963648 -0.028772412 -0.11869683
0002a0 e9 3c 8a bc c0 95 2a 3d 7c df 9f 3d 8d 57 93 3d
       -0.016874747 0.04164672 0.07806298 0.07194433
0002b0 8f 2c f2 3d 55 cf 22 3e 07 c3 88 3d 38 4f 27 3e
       0.11824905 0.15899403 0.066778235 0.16338813
0002c0 ef bb 20 bd 9c 10 39 bb 75 63 4d be ae 90 41 3d
       -0.039241727 -0.002823866 -0.20057471 0.047257118
0002d0 50 36 c5 bd 50 69 93 3d d9 85 2b 3d ab ef e8 3d
       -0.096295 0.07197821 0.041875694 0.11373838
0002e0 05 d9 49 bd c6 46 07 3d 48 6b 59 be 85 28 5f 3d
       -0.04927923 0.03302648 -0.21232331 0.054482
0002f0 b0 f8 5c bd c4 f0 62 bc 90 24 00 bd 62 f9 19 be
       -0.053948104 -0.013851348 -0.03128487 -0.15036538
000300 d2 dd 0d 3d 8c 8c 16 be ed 90 79 bd 44 7d 08 3c
       0.034635372 -0.14702052 -0.060929228 0.008330647
000310 62 3e 8b bd ae cb 52 bd 59 be 04 3e ba 3c b1 bc
       -0.06799008 -0.051463775 0.12963237 -0.021635402
000320 c5 3b bf bd 76 4e d2 3d a1 85 dc 3d 72 89 71 be
       -0.09337572 0.102688715 0.10767675 -0.23587587
000330 03 38 9b bd 9f 4e 11 3e f0 a2 84 3e 36 50 98 3d
       -0.07579043 0.14190148 0.2590556 0.07437174
000340 9a ce 01 3c aa 26 6d 3b 11 80 0b 3e 4b ac 85 3d
       0.007922793 0.0036186376 0.13623072 0.06527003
000350 3c 70 bc 3d 20 e9 e9 bd 80 bb a7 3d 4c 23 33 3c
       0.092010945 -0.11421418 0.0819006 0.010933708
000360 4a 82 91 bc d6 de 08 bc 3d 76 a3 bd c5 db 9f bd
       -0.017762322 -0.0083539095 -0.079815365 -0.078055896
000370 23 b9 67 3d 4b 2c 18 3c ed bf 87 3b e0 2a 0e bc
       0.056573045 0.009287904 0.0041427524 -0.008677214
000380 c9 3b 4f 3c 34 e6 ab 3c a3 b8 15 bd 5d 04 0f be
       0.012648531 0.020983793 -0.036553036 -0.13966508
000390 49 df 54 3c 1c ff db 3c 56 fc 42 be 38 d7 80 3c
       0.012992688 0.026855044 -0.19041571 0.015727624
0003a0 2e d8 94 bd fd 3f 07 be 89 3d 2b 3e bd 1c 0e 3e
       -0.072677955 -0.13208003 0.16722693 0.1387815
0003b0 04 5a c9 3d 43 52 16 bd 21 c3 8a bd 9e be cd 3c
       0.09831622 -0.036699545 -0.06775499 0.025115307
0003c0 6e ea 14 bd d1 c5 c4 3d 45 77 8e 3e 17 79 1a be
       -0.036356382 0.09608043 0.2782537 -0.15085255
0003d0 ea d2 f1 3c de df 5e 3e 40 8b a9 bc 19 d4 a7 bd
       0.029519517 0.21765086 -0.020696282 -0.08194751
0003e0 32 d4 52 bd df 1b cc 3d 2c 98 96 3b 62 5c a5 3c
       -0.051471896 0.099662535 0.004595777 0.020185653
0003f0 aa 78 05 3d 81 b0 86 3d 14 e3 0c 3d 81 69 92 be
       0.032585777 0.06576634 0.034396246 -0.28596118

fc2.bias f4 [84]
000000 8f 4a 7b 3e c0 2c 16 be 00 9f af bd c6 8a 5c 3e
       0.2454016 -0.14665508 -0.08575249 0.21537313
000010 ef 71 dc 3d dc 07 9c bd c6 5c f8 3d bc 6c 3d 3d
       0.107639186 -0.076186866 0.1212707 0.046246275
000020 56 0d 8c 3d 45 c3 63 3e 3e 06 d1 3d 99 2e 51 3e
       0.06838481 0.22242458 0.10206269 0.20427932
000030 fc 77 be 3e 50 52 13 3d 18 fe ae 3e 40 25 c7 bc
       0.37200916 0.03596717 0.34178233 -0.024309754
000040 83 65 19 3e 3a 26 79 3e c1 e9 37 3e 4d d7 04 be
       0.1498013 0.24330989 0.17960264 -0.12972756
000050 f8 41 94 bd 09 75 24 bd c5 bb 4b 3e 10 fa 2a 3e
       -0.07239145 -0.040150676 0.19895847 0.16696954
000060 f9 33 9b 3d 41 18 20 3e 6a ec 94 bd c2 64 c6 3e
       0.07578272 0.15634252 -0.07271655 0.38748747
000070 d5 71 71 3d 0d ef d2 bb 15 ba 9d bd 3d 9b 0a be
       0.05894645 -0.0064371885 -0.07701508 -0.13535781
000080 0b 11 d0 bc ad cd bf 3d a1 30 a8 3d 3e 04 58 bd
       -0.025398752 0.093654014 0.082124 -0.05273842
000090 53 53 1f 3e 0d 02 71 3e 30 fe e8 bc 0e de 03 3d
       0.1555913 0.23535939 -0.028441519 0.03219419
0000a0 14 af 77 3e bb 51 b6 3d b5 16 bf 3b 34 52 30 3e
       0.24187881 0.089023076 0.0058315643 0.17218858
0000b0 68 18 9e 3e 8e 7a 6c 3d b7 5d dc bd 29 12 09 be
       0.30877995 0.057734065 -0.10760062 -0.13385834
0000c0 fc 1b 5d bc 04 77 1c 3e 6f bf 40 3d d9 a2 c4 bc
       -0.0134954415 0.15279776 0.047057565 -0.024003433
0000d0 c8 c4 01 3e 24 e4 15 3d e4 3c ee 3d 06 64 fc 3c
       0.12672722 0.036594525 0.11632708 0.030809414
0000e0 a9 b5 ab 3e 1f 12 a0 3d 9d 24 4b 3e 64 9c 8d be
       0.33537033 0.07815956 0.19838186 -0.2765838
0000f0 ce b6 be 3e 1e aa c6 3d a0 99 91 3e 34 ce 8f bd
       0.37248844 0.09700416 0.2843752 -0.07021752
000100 6f 33 a9 bd d5 53 89 3e 75 f8 dd 3d 82 4d 70 bd
       -0.08261763 0.2682177 0.10838405 -0.058667667
000110 11 99 2a bd 90 b3 2f 3d 9a fb b3 bd a1 41 4e be
       -0.04164988 0.042895854 -0.087882236 -0.20142223
000120 6f 59 1e bd 87 d1 b0 3e 94 82 a9 3e e9 81 2a 3d
       -0.03865951 0.34534857 0.33107436 0.0416278
000130 d9 8a 28 3e 43 e4 b1 3e e1 32 53 3e 99 9f 86 be
       0.16459216 0.34744462 0.20624878 -0.26293638
000140 5d e0 be 3e b4 b1 99 3d c1 f6 3d be 1b 4d b8 bd
       0.3728055 0.07504597 -0.1855116 -0.08999082

fc3.weight f4 [8, 84]
000000 fb f8 66 3e 2b 36 7e 3d 50 5d 4f 3e 28 f1 42 3d
       0.22555916 0.062063377 0.2025044 0.047593266
000010 a4 2d 22 3e de 2a 12 3e 3b 73 e5 3d 74 df 0e be
       0.15837723 0.14274165 0.11203619 -0.13952428
000020 3c b0 22 3d fc 89 06 3e b8 02 e8 bd f1 3c db bd
       0.03971885 0.13138574 -0.113286436 -0.10704983
000030 ac 34 19 3e a8 2a 60 3a 23 77 d9 be 35 60 fd 3d
       0.14961499 0.0008551278 -0.42473707 0.12371866
000040 2d fd e2 bd c6 c2 1b be 16 ce f1 3d 77 ba 92 3e
       -0.11083446 -0.15211019 0.11806886 0.28657886
000050 4f 38 e9 bc ab 9b b6 bd bf 8c 1b 3e c1 36 74 be
       -0.028469233 -0.0891641 0.15190409 -0.23849012
000060 c0 52 24 3e ac 49 01 bd 78 59 51 be 88 a3 af bd
       0.16047192 -0.0315644 -0.20444286 -0.08576113
000070 25 41 12 3e 5a 1d 8c be 53 eb 05 3d 01 97 03 3e
       0.14282663 -0.27366143 0.032695126 0.12850572
000080 8b 73 5e be f4 f0 9e 3d 0d c9 25 3e 1b fd 0f 3e
       -0.21723764 0.07760802 0.16189976 0.14061396
000090 f9 0a 6f be b0 49 b8 be e0 42 34 bd 9d 5c 36 be
       -0.2334403 -0.3599372 -0.04400909 -0.17808767
0000a0 86 85 21 3e a5 d7 10 be 0b 59 31 bd ba 1e ac be
       0.15773591 -0.14144762 -0.04329781 -0.33617193
0000b0 45 a2 6a 3e 16 9a ac 3d 2a c3 9c 3d 6a 39 ab bd
       0.22913463 0.08427827 0.07654412 -0.0836056
0000c0 bc 3b bf bd 48 3a 8f 3d 21 ea 43 be 8a 6d 5f bd
       -0.09337565 0.06993538 -0.19132282 -0.054547824
0000d0 83 5f 2b 3e 5d cf 37 3d a8 9f ab be 15 e4 8a 3d
       0.16735654 0.04487549 -0.33520246 0.067817844
0000e0 83 3d 57 be 50 da 9b 3c 6f a6 85 be 03 39 bd 3d
       -0.21019559 0.019024998 -0.2610354 0.0923939
0000f0 05 2c 45 3e e0 64 36 bd d9 a1 7a be 8e 9a 27 be
       0.19255073 -0.044529796 -0.24475802 -0.16367552
000100 e6 df ac bd 2e fa 03 be cc 37 96 be 1c e5 0c 3d
       -0.08441143 -0.12888405 -0.29339445 0.034398183
000110 c3 7c 4c be 16 05 4d 3e cc 31 07 be 49 b3 d2 3d
       -0.19969468 0.20021471 -0.1320259 0.10288102
000120 6a cf 74 3c c6 21 4b be a3 6a 41 3e e1 cd 14 3e
       0.0149420295 -0.19837102 0.18888335 0.14531662
000130 60 f5 23 3e 4e 80 05 bf 99 46 2e bd 14 86 d2 3d
       0.16011572 -0.521489 -0.042547796 0.102794796
000140 5b ec af be bd 7a b5 be 2a 8c 1e bd 10 1b 01 3c
       -0.34360012 -0.35445204 -0.03870789 0.007879987
000150 0d e3 7c bd 4a 07 b9 3d c2 f6 71 be 53 c3 42 3d
       -0.06173997 0.090345934 -0.23629287 0.047549557
000160 5d b6 7f be 9f 73 8b 3d 1e 6c 2b 3e ce 8c 4a 3e
       -0.2497191 0.06809162 0.16740462 0.19780275
000170 fc fb 29 3e 06 62 02 bf c2 b8 a0 3d ad c3 1a 3e
       0.1660003 -0.5093082 0.0784774 0.15113707
000180 27 e6 da be 3d 1a e7 bd f4 df c4 be 8b 1b 2a 3d
       -0.42753717 -0.112843014 -0.38452113 0.041530173
000190 6a 4f d5 3d 51 74 20 be bb ac 0b 3d 80 d3 47 be
       0.10415538 -0.15669371 0.034100275 -0.19514275
0001a0 35 2f a3 bd c6 2a 12 be 98 90 10 3e ac a9 75 be
       -0.079679884 -0.1427413 0.14117658 -0.23990506
0001b0 17 8d 9b be 52 fd 92 be bc 8d 42 3e df 15 de be
       -0.3038108 -0.28708893 0.1899938 -0.4337606
0001c0 f9 e0 15 be 97 f8 4d 3e f3 70 b2 3d 87 bb 9a 3b
       -0.14636602 0.20114361 0.087129496 0.004722062
0001d0 94 22 54 be 87 5a 00 bf aa fa 14 3e 80 f0 44 3e
       -0.20716316 -0.50138134 0.14548746 0.19232368
0001e0 01 92 db be 7c 1c 82 be 22 b9 29 3c 5a be 82 be
       -0.4288483 -0.25412357 0.0103590805 -0.25535852
0001f0 75 10 dd 3c df fa 8a be 5f 58 62 3e fe 5d 7b bd
       0.026985386 -0.27144524 0.22104023 -0.061368935
000200 8c e6 a9 be a7 88 2f be df bd 40 3e 6a 7a 04 3c
       -0.33183706 -0.17141972 0.1882243 0.008085826
000210 61 4b 12 3e 3d 73 ab bd 42 a8 50 be 69 ad b3 3d
       0.14286567 -0.08371589 -0.20376685 0.0877331
000220 76 b6 67 3d de 4f fb 3d bd 1a 34 3e a2 03 bb 3d
       0.056570493 0.12271093 0.17588325 0.09131552
000230 0a aa 85 be 44 8b 6e 3d ed e2 00 3e ed e6 1c 3e
       -0.26106292 0.058238283 0.12586565 0.15322466
000240 22 0f 9d be 9b 93 2c be d0 bc 83 be fe 3f 4f 3e
       -0.30675608 -0.16853182 -0.2572999 0.20239255
000250 9d 62 09 be 28 48 b1 be 33 e1 ed bc c2 a2 52 3e
       -0.13416524 -0.34625363 -0.029038047 0.205699
000260 f8 a5 36 3e 52 21 63 bc cb 49 fa bd 4b 89 35 3e
       0.1783675 -0.013862925 -0.12221106 0.17728154
000270 08 07 ff bd 19 56 dc be 43 f3 b1 bd 16 c7 02 3e
       -0.12452513 -0.43034437 -0.086889766 0.12771258
000280 6a 8d 2d 3e 18 58 0f 3e 92 c7 85 be 8b 5f 77 3d
       0.16948476 0.13998449 -0.26128823 0.06039385
000290 7c e0 85 be bb aa 4a be b5 b1 36 3e ff bf 7d 3d
       -0.2614783 -0.19791691 0.17841227 0.06195068
0002a0 7f a8 cc be 39 05 c3 bc b5 27 25 3e 09 5d 18 be
       -0.39972302 -0.023806201 0.16128428 -0.1487924
0002b0 4a 22 09 3e ec 34 f4 3d 3f b8 a6 bd 0e 70 9e be
       0.13391986 0.119241565 -0.08140611 -0.30944866
0002c0 bf 46 86 bd 81 90 38 3e 79 28 4a 3e 58 4f 67 bd
       -0.065564625 0.18023874 0.19742002 -0.056472152
0002d0 02 e5 5b 3e 7f ef db 3d 5b 32 c4 3a 39 b9 d1 3d
       0.21474078 0.1073904 0.001496862 0.102404065
0002e0 ba 26 8f be ae 83 93 bd 35 cc 10 be e3 41 2c be
       -0.27959234 -0.0720285 -0.14140399 -0.16822009
0002f0 fb d1 37 3c ad cb 3d be 43 4c 54 bd de ba 53 3d
       0.011219497 -0.18534727 -0.05183054 0.051691882
000300 49 4c 40 be 23 87 ab 3a eb c5 9d 3d cb f5 b8 bd
       -0.187791 0.0013086539 0.077037655 -0.09031256
000310 1e 1c 5e bc 6d 5d 85 bb a5 85 c6 bb 82 69 54 3e
       -0.013556508 -0.004069975 -0.006058412 0.20743373
000320 9a 83 70 3d ed a3 47 be c5 0a a1 bd 4a 12 46 be
       0.058719255 -0.19496126 -0.07863382 -0.19342914
000330 65 20 27 3e 0e d5 8a 3d 3a 40 08 3e af 64 aa 3d
       0.16320951 0.06778918 0.1330575 0.08319985
000340 3f 54 4f 3d 99 46 00 3e 59 a7 e4 3d 1e db 38 bd
       0.050617453 0.12526931 0.111647315 -0.04513084
000350 be 4b 9b bd 23 e9 45 3e 3a 6c 28 bd 52 1d 02 be
       -0.07582806 0.19327216 -0.041118838 -0.12706497
000360 06 bc 48 be eb 49 ac be 3c 7f 34 3e 0b 6b 9f 3e
       -0.19602975 -0.33650145 0.17626661 0.31136355
000370 c1 fb a3 3d 22 98 1b be f8 a9 03 3e 53 30 35 3e
       0.080070026 -0.15194753 0.12857807 0.17694215
000380 7b 8f b5 bd 00 17 55 be c5 80 92 bc b6 b3 62 3e
       -0.08865257 -0.20809555 -0.017883668 0.22138867
000390 78 8d e5 3d 96 88 1a 3c de 84 ac 3c 34 86 5e bd
       0.11208624 0.009431979 0.02105945 -0.054327205
0003a0 94 95 7e 3c c4 f1 ea 3d 26 21 7e 3e a3 eb 52 bd
       0.015538592 0.114718944 0.24817333 -0.051494252
0003b0 4b 7f 24 bd 87 01 82 bd 5a db dc bd 24 67 f1 bc
       -0.04016046 -0.063479476 -0.107840255 -0.029468127
0003c0 e6 32 11 be 1c 1a 25 3e f9 80 8e be d6 1a 8b bb
       -0.14179572 0.16123241 -0.27832773 -0.0042451425
0003d0 3f f1 c0 3c 1b 74 fc bd a1 f8 07 3e 68 ca f9 3d
       0.023552535 -0.12326833 0.13278438 0.12196809
0003e0 f3 78 1a be 69 5d 7a be 76 1f 22 3e 26 46 04 be
       -0.15085201 -0.24449696 0.15832314 -0.12917385
0003f0 e5 79 26 be 2c e1 dc bc e1 94 04 be 7f d7 27 3e
       -0.16257437 -0.026962839 -0.12947418 0.16390799

fc3.bias f4 [8]
000000 7c 2f 42 bd 92 a9 8b be e9 b0 47 bd cf 2e 9d 3d
       -0.047408566 -0.2727781 -0.0487527 0.07674944
000010 03 9a 2a 3e ff 9a 3b be c2 9d dc 3d 3c e8 8d 3d
       0.16660313 -0.18320845 0.107722774 0.06929061
