src/weights/cnn-demo_cifar10_holdout_[8, 9].pt (torch, 250247 bytes, 10 tensors)

conv1.weight f4 [6, 3, 5, 5]
0	0x3c2d439c	0.010575201
1	0x3e7a88a9	0.24466194
2	0xbe397adc	-0.18113273
3	0xbe334409	-0.17506422
4	0x3e1812d5	0.14850934
5	0xbe316993	-0.1732543
6	0x3c833d43	0.016020423
7	0xbdf7f5f6	-0.1210746
8	0x3d85cbc3	0.06533005
9	0x3ce0639f	0.027391253
10	0xbd93db1d	-0.07219527
11	0xbe313b8a	-0.17307869
12	0x3cf44b19	0.029820966
13	0x3e049f6e	0.12951443
14	0xbe30ff52	-0.17284897
15	0x3d5b11ba	0.053483702
16	0x3e0e131f	0.13874482
17	0x3d3b58c6	0.045738958
18	0xbd9926a1	-0.07478071
19	0xbd927489	-0.071511336
20	0xbe2be791	-0.16787554
21	0xbc39b87d	-0.011335489
22	0xbd843704	-0.06455806
23	0x3db25715	0.08708016
24	0x3d05cabe	0.032664053
25	0xbdca6a5d	-0.098835684
26	0x3e86bb56	0.263148
27	0xbe69b4ff	-0.22822951
28	0xbd7603cc	-0.060062215
29	0x3d1454d3	0.036213707
30	0x3cb6a141	0.022293689
31	0x3dc88dc4	0.09792665
32	0xbcd48ed7	-0.025947018
33	0x3e4c1015	0.1992801
34	0xbcc540cd	-0.024078751
35	0x3df8146f	0.121132724
36	0xbe10352d	-0.14082785
37	0x3e492823	0.19644217
38	0x3e5a4b9a	0.21317902
39	0xbe0bf31f	-0.13666962
40	0x3e4f4c8b	0.20244043
41	0x3e3ad7f6	0.18246445
42	0xbc954754	-0.018222488
43	0xbe1030bd	-0.14081092
44	0xbd1d0041	-0.03833032
45	0xbae3e5a5	-0.0017387165
46	0x3deb0d65	0.11477164
47	0xbda40a57	-0.08009785
48	0x3d7f96f7	0.06239983
49	0x3dcb19e9	0.09917051
50	0xbd20d79e	-0.03926813
51	0x3dfeac02	0.12435152
52	0xbe46180a	-0.19345108
53	0xbd2a6828	-0.041603237
54	0x3e0484de	0.1294131
55	0xbddc7db7	-0.10766166
56	0x3d5fd102	0.054642685
57	0xbe0543e5	-0.13014181
58	0x3e172d6c	0.14763421
59	0x3dda1791	0.10649026
60	0xbd11f7af	-0.0356366
61	0xbe382e19	-0.17986335
62	0xbc84c5b6	-0.016207557
63	0x3e608667	0.2192627
64	0x3b6ed10e	0.0036440524
65	0x3c48b9a6	0.012251293
66	0xbc3179f2	-0.010832297
67	0x3c1d8f3c	0.009616669
68	0xbd83058f	-0.063975446
69	0xbd67a09e	-0.05654966
70	0xbde8b278	-0.11362165
71	0xbcf1b373	-0.029504513
72	0xbde122d9	-0.10992975
73	0xbc458b7b	-0.0120571805
74	0xbd374498	-0.04474315
75	0x3da41cc0	0.08013296
76	0xbc307dd0	-0.010772184
77	0xbe336906	-0.17520532
78	0xbde265a4	-0.11054543
79	0x3e0c2fa2	0.13690045
80	0x3d4c33f8	0.04985425
81	0xbe445f76	-0.1917704
82	0xbdae2a7b	-0.08504196
83	0xbe74dc04	-0.23912054
84	0x3cb435de	0.021998342
85	0xbd3e8d05	-0.046521205
86	0xbe544007	-0.2072755
87	0xbe83ac95	-0.25717607
88	0xbdf00905	-0.1172047
89	0xbdf34c9d	-0.11879847
90	0xbdcf6165	-0.101259984
91	0xbe0e287a	-0.13882628
92	0xbe1770ec	-0.1478917
93	0xbe20687f	-0.15664862
94	0xbd357b5b	-0.044307094
95	0x3b6c3906	0.003604473
96	0x3d4dd786	0.050254367
97	0x3e236f3f	0.15960406
98	0x3dbb94a1	0.09159208
99	0x3d3202c6	0.043459676
100	0x3d9428b9	0.0723433
101	0x3d90dcf6	0.07073395
102	0xbdb01b0d	-0.085989095
103	0x3d029361	0.031878833
104	0x3d05995c	0.032616958
105	0x3cf9f600	0.03051281
106	0xbda54766	-0.08070259
107	0x3d61ff9b	0.055175405
108	0xbe0bc583	-0.13649563
109	0x3bcd64df	0.0062681283
110	0xbd1f2426	-0.038852833
111	0x3ccd3663	0.025050348
112	0x3c000f0e	0.007816089
113	0x3cef287e	0.029194113
114	0xbd188df1	-0.03724474
115	0x3d8a603e	0.06756638
116	0x3d5543e2	0.05206669
117	0xbd51cd41	-0.051221136
118	0x3db53517	0.08848017
119	0xbd71b96d	-0.059014726
120	0x3d61161f	0.054952737
121	0x3dbed1d3	0.093173645
122	0x3d8a1d17	0.0674383
123	0x3cb00484	0.021486528
124	0x3bd4fc50	0.0064998046
125	0xbc1a1a05	-0.009405618
126	0xbd4f14a6	-0.0505568
127	0x3e27e204	0.16394812
128	0x3e109dfe	0.14122769
129	0x3d951058	0.07278508
130	0x3def3fba	0.11682077
131	0x3df297c9	0.11845357
132	0x3e1d1596	0.15340266
133	0x3dce801a	0.10083027
134	0x3d96248e	0.07331191
135	0x3ce9062c	0.028445326
136	0x3e1d96bf	0.15389536
137	0x3e29c00f	0.16577171
138	0x3d6966bb	0.056982737
139	0x3df3341b	0.11875173
140	0x3c00ad0f	0.00785376
141	0x3d840b84	0.06447509
142	0x3e0b52b9	0.13605775
143	0x3dc2ff85	0.09521393
144	0xbd7bedf7	-0.061506238
145	0xbd890512	-0.0669042
146	0xbe003dbf	-0.12523554
147	0xbbe722e3	-0.0070537194
148	0x3d74fc84	0.05981113
149	0xbcc824ef	-0.024431674
150	0x3e1f58c0	0.15561199
151	0x3d82aaf8	0.06380266
152	0x3d94226d	0.07233129
153	0x3d4cedca	0.05003146
154	0xbdb4267d	-0.087964036
155	0x3e5ef2e2	0.2177234
156	0x3e4a0343	0.19727807
157	0x3e196b4f	0.14982341
158	0x3e5808a1	0.21097042
159	0xbc3d3802	-0.011548998
160	0xbdd449d7	-0.10365646
161	0x3dd47f9f	0.10375904
162	0x3e6a5ce4	0.22886997
163	0x3e1d5b6c	0.15366906
164	0x3e262c6f	0.16227888
165	0xbe5fd32e	-0.21857902
166	0x3b1cec4d	0.0023944557
167	0xbdeecc30	-0.116600394
168	0xbe5d8095	-0.21631081
169	0xbd778745	-0.060431737
170	0x3c94e30f	0.018174676
171	0xbe0a9fce	-0.13537523
172	0x3d80aff8	0.062835634
173	0xbe33a1ad	-0.17542143
174	0xbc8efa06	-0.017453205
175	0x3d5a8e66	0.053358458
176	0x3d0a073a	0.033698298
177	0x3d923ff6	0.07141106
178	0xbe1b8d72	-0.15190676
179	0xbe20e64c	-0.15712851
180	0xbc9b188c	-0.018932603
181	0xbd61030f	-0.054934558
182	0x3e081b4b	0.13291661
183	0xbd9b217d	-0.07574747
184	0xbd9ee795	-0.077590145
185	0xbe3b4bfe	-0.18290707
186	0xbc64e3ff	-0.013970374
187	0xbd918265	-0.07104949
188	0x3d866f23	0.065641664
189	0x3dd5c212	0.104374066
190	0xbd9f6ddf	-0.07784628
191	0xbe27ad7a	-0.1637477
192	0xbe1d3689	-0.15352835
193	0xbe574043	-0.21020608
194	0xbdb26008	-0.08709723
195	0xbe0386a7	-0.12844335
196	0xbe0587ab	-0.13040034
197	0x3cf29e27	0.029616429
198	0x3d530d54	0.051526383
199	0x3d009015	0.031387407
200	0xbca96e74	-0.020682551
201	0x3e2deda2	0.16985181
202	0x3db8fd93	0.090327404
203	0x3c6472b5	0.013943364
204	0xbd669046	-0.056289934
205	0xbd4cb3e9	-0.049976263
206	0x3c11957a	0.008885736
207	0x3e1a41e2	0.15064195
208	0x3e265a78	0.16245449
209	0x3c5a81cd	0.013336611
210	0xbe00c485	-0.12574966
211	0xbbc8a603	-0.0061233058
212	0x3e14d1bb	0.14533131
213	0x3e3839ce	0.179908
214	0x3de9ab4f	0.11409628
215	0xbe030f8f	-0.12798904
216	0xbe1f1abf	-0.15537547
217	0xbd82e222	-0.06390788
218	0xbd8e88b9	-0.069596715
219	0xbdcc9425	-0.09989194
220	0xbd986684	-0.07441428
221	0xbddbace7	-0.10726338
222	0x3ce4d461	0.027933301
223	0xbbc7dd6d	-0.006099394
224	0x3d8535a0	0.06504369
225	0x3ce18051	0.027527006
226	0x3e48861b	0.19582407
227	0x3e66c716	0.22536883
228	0xbc83a5c7	-0.01607026
229	0xbd5f6aa5	-0.054545064
230	0x3e0aeef8	0.13567722
231	0x3d1733bc	0.036914572
232	0xbe60dc3e	-0.21959016
233	0xbe6f82d1	-0.23389746
234	0xbe077c6c	-0.13231057
235	0xbd18fbfc	-0.037349686
236	0xbe4513f0	-0.19245887
237	0xbe89ffe7	-0.2695305
238	0xbe145da6	-0.14488849
239	0x3d4a6403	0.049411785
240	0x3a2a420c	0.0006494827
241	0xbdd106a4	-0.10206345
242	0x3e742233	0.23841171
243	0x3de6de5c	0.112728804
244	0x3db57d28	0.08861762
245	0xbd5325e3	-0.051549803
246	0x3cdb6cdd	0.026785308
247	0x3e6ab47b	0.2292041
248	0x3dce0649	0.100597925
249	0x3dee2600	0.11628342
250	0xbe235720	-0.15951204
251	0xbcaee5c4	-0.021349795
252	0x3e27214c	0.16321295
253	0x3cdc75eb	0.026911696
254	0xbe06d910	-0.1316874
255	0x3db7557a	0.0895185

conv1.bias f4 [6]
0	0x3c35c51c	0.011094358
1	0x3e67be9d	0.22631307
2	0xbe137e9c	-0.14403766
3	0x3dc223c8	0.09479481
4	0x3c9a9747	0.018870963
5	0x3d678ad1	0.05652887

conv2.weight f4 [16, 6, 5, 5]
0	0x3dfefb6b	0.12450298
1	0x3e4e2a83	0.20133404
2	0x3eaa4794	0.33257735
3	0x3e24dc3c	0.16099638
4	0x3e85ad3b	0.26108727
5	0x3de8d9ae	0.11369644
6	0x3e4affe6	0.1982418
7	0x3dae6095	0.08514515
8	0x3debe938	0.11519092
9	0x3dfafb4a	0.12254961
10	0x3cd568fb	0.026051035
11	0x3dece4ed	0.11567102
12	0x3ceaa4a5	0.028642962
13	0xbaebcbfc	-0.0017989869
14	0xbd63ba61	-0.055597667
15	0xbdcc8b60	-0.09987521
16	0xbe4c041d	-0.19923444
17	0xbdbf85e4	-0.093517095
18	0xbdc9f546	-0.09861235
19	0xbc16fffb	-0.009216304
20	0xbebc371f	-0.36760804
21	0xbed232b5	-0.4105431
22	0xbe80f6a1	-0.25188163
23	0xbe8103c2	-0.2519818
24	0xbde633d3	-0.112403534
25	0x3d1f3a14	0.038873747
26	0x3d82d77e	0.06388758
27	0xbd69c684	-0.057074085
28	0xbd825869	-0.06364519
29	0x3cb3dcff	0.021955965
30	0xbc9c60ae	-0.01908907
31	0xbd26a551	-0.040685
32	0x3d8eb8a6	0.06968813
33	0xbe05ef8d	-0.13079663
34	0xbda02f9a	-0.07821579
35	0x3da4fa5b	0.08055564
36	0x3d01fd7e	0.03173589
37	0x3b407f8c	0.00293729
38	0xbd54e725	-0.05197825
39	0x3d4e9644	0.050436273
40	0x3d1d7072	0.038437314
41	0xbd158d69	-0.036511812
42	0x3d29b182	0.04142905
43	0xbd8868ab	-0.06660589
44	0xbd35663e	-0.04428696
45	0x3e0f83ba	0.14015093
46	0x3db5a4ac	0.08869299
47	0x3d05ea5b	0.032694202
48	0x3e150f7b	0.14556687
49	0x3e0ef0c5	0.13959034
50	0x3e2e5753	0.17025499
51	0x3e0ea9a6	0.13931903
52	0xbd01131c	-0.031512365
53	0xbd7b3ae4	-0.06133546
54	0xbd0f533d	-0.03499149
55	0xbbc150c6	-0.0058995215
56	0xbda58935	-0.08082811
57	0xbd1c7cc9	-0.038204942
58	0x3da4fc2b	0.0805591
59	0x3cddbef1	0.027068587
60	0x3d948646	0.07252173
61	0x3bcf9f64	0.0063361395
62	0x3dd4117e	0.10354899
63	0x3df18f1d	0.11794875
64	0xbd3ae82a	-0.045631565
65	0x3d4309af	0.047616657
66	0x3dad96f4	0.08476058
67	0x3de404b1	0.11133707
68	0x3d4e97d9	0.050437782
69	0xbbc70d6c	-0.006074598
70	0x3da34fd9	0.07974214
71	0x3d877fed	0.06616197
72	0x3e03942f	0.12849496
73	0x3d0f5123	0.034989487
74	0xbd6fccaf	-0.05854481
75	0x3e219a56	0.1578153
76	0x3d508e78	0.05091712
77	0xbdbc1144	-0.09182981
78	0x3d2f0ad8	0.04273495
79	0xbc60bd50	-0.013717011
80	0x3def34e9	0.11680014
81	0x3d96268f	0.07331573
82	0x3d613455	0.05498155
83	0xbbef2895	-0.007298539
84	0xbdac05b2	-0.08399524
85	0x3e1be973	0.15225773
86	0x3d4cee8a	0.050032176
87	0x3da21973	0.0791501
88	0x3e3e14a5	0.18562563
89	0x3c71beac	0.014754932
90	0x3dde8ed5	0.10867087
91	0x3d043550	0.032277405
92	0x3e1896b3	0.14901237
93	0xbd4d081e	-0.05005657
94	0x3d3fd6c1	0.046835665
95	0xbd028072	-0.031860776
96	0x3c80948e	0.015695836
97	0x3d2d92a7	0.042376187
98	0x3dc72ba3	0.0972512
99	0xbc853022	-0.016258303
100	0x3deb097e	0.1147642
101	0x3db4ab9a	0.08821793
102	0x3e1f3352	0.15546921
103	0x3d1db4bb	0.038502436
104	0x3d2f567f	0.0428071
105	0xbae94c91	-0.0017799308
106	0x3db9c86b	0.0907143
107	0x3e31c2b0	0.17359424
108	0x3d48cb42	0.049021967
109	0x3caaef73	0.020866131
110	0x3d576199	0.05258331
111	0x3dc614b8	0.096719205
112	0xb9840fa7	-0.00025188664
113	0xbdbc64e3	-0.0919893
114	0xbda7395e	-0.08165239
115	0xbd084f9a	-0.03327904
116	0xbdd312f4	-0.103063494
117	0xbe3995c6	-0.1812354
118	0xbe3de569	-0.18544544
119	0xbd7dc4ce	-0.061955266
120	0xbdc25f07	-0.09490781
121	0xbe4cc10a	-0.19995514
122	0xbe6bd4f7	-0.23030458
123	0xbdd87cbb	-0.105706654
124	0xbe177c89	-0.147936
125	0xbe07b0d2	-0.13251045
126	0xbd2fb166	-0.04289379
127	0xbb9279f1	-0.004470103
128	0xbd87672e	-0.06611477
129	0xbe1b61fc	-0.15174097
130	0x3d41e38e	0.047336154
131	0xbd7dcd3d	-0.06196331
132	0xbdf13ced	-0.11779199
133	0xbd0ddbb5	-0.034633357
134	0xbd226179	-0.03964374
135	0x3d257bbc	0.040401205
136	0x3d580b99	0.052745435
137	0xbcad26fb	-0.021136751
138	0x3d9fab0e	0.07796298
139	0xbdb1a1d7	-0.086734466
140	0xbe37d629	-0.1795279
141	0x3cbff496	0.023432057
142	0x3dae2aba	0.08504243
143	0xbb36b53a	-0.0027879016
144	0x3a981bcd	0.0011604965
145	0xbe1bf6be	-0.15230843
146	0xbcd5ab70	-0.026082724
147	0xbdb03fa0	-0.086058855
148	0xbdad71a4	-0.08468941
149	0xbde2d11b	-0.1107504
150	0xbe32c674	-0.17458516
151	0xbdccb137	-0.099947385
152	0xbe7501c4	-0.23926455
153	0xbe7875be	-0.24263665
154	0xbd5fc2a8	-0.054628998
155	0xbcf8007d	-0.03027367
156	0xbda8c9f2	-0.08241643
157	0xbe1a458f	-0.15065597
158	0xbe4e3ae7	-0.20139657
159	0x3c30bddd	0.010787454
160	0xbdf774e8	-0.12082845
161	0xbb8fd744	-0.0043896753
162	0xbdb69fd1	-0.08917201
163	0xbe369056	-0.17828497
164	0xbd5ddf29	-0.0541679
165	0xbe265b0c	-0.16245669
166	0xbc1738fc	-0.009229895
167	0xbda7b92a	-0.08189614
168	0xbd908442	-0.07056476
169	0xbd9823d4	-0.07428709
170	0x3c3b7c8d	0.011443269
171	0x3dfc4533	0.12317886
172	0x3cef0eb9	0.029181825
173	0x3cf391c2	0.029732589
174	0x3d5c6e47	0.053816106
175	0xbd9fdd79	-0.078059144
176	0x3c6fdc5b	0.014639939
177	0xbc093fb1	-0.008377002
178	0xbd0ba605	-0.034093875
179	0x3d2286e5	0.039679427
180	0xbdce3391	-0.10068429
181	0xbd3c66a4	-0.045996323
182	0xbdc90580	-0.09815502
183	0xbd9e0f96	-0.077178165
184	0x3d06ea92	0.032938547
185	0xbd2ce785	-0.04221298
186	0x3d8d0c5c	0.06887123
187	0xbddd1793	-0.10795512
188	0xbc808f92	-0.01569346
189	0xbcaabf72	-0.020843241
190	0xbd0d0142	-0.034425028
191	0x3c9495f4	0.01813791
192	0xbdc2e7af	-0.095168464
193	0xbd128568	-0.035771757
194	0xbc0d2d82	-0.008616807
195	0xbd7a8c43	-0.06116892
196	0x3cc00d8c	0.02344396
197	0xbd96b29c	-0.07358286
198	0x3e2f9474	0.17146474
199	0x3da6f90a	0.08152969
200	0x3d48f059	0.04905734
201	0x3c491dd4	0.012275178
202	0x3e031c07	0.1280366
203	0x3cb630bb	0.022240033
204	0x3dadc00d	0.084838964
205	0x3da1bd7b	0.07897469
206	0x3c092bd5	0.008372267
207	0x3d7de44c	0.0619853
208	0xbca812e0	-0.020516813
209	0xbd21cdef	-0.039503034
210	0x3d590e0b	0.052991908
211	0xbd324b97	-0.04352912
212	0xbcda8693	-0.026675498
213	0xbd05d418	-0.03267297
214	0x3c8ac7a9	0.016940909
215	0x3e3724d8	0.17885149
216	0xbc82293e	-0.015888806
217	0xbb295272	-0.0025836495
218	0xbd95686c	-0.072953075
219	0xbca2b082	-0.019859556
220	0xbe2a469a	-0.16628495
221	0xbdebacec	-0.115075916
222	0xbde6f8c8	-0.1127792
223	0xbe49b05c	-0.19696182
224	0xbe85762e	-0.26066726
225	0x3a4b797c	0.0007761938
226	0x3d2cd00c	0.042190596
227	0x3c13bc2c	0.009017032
228	0xbe29cf28	-0.1658293
229	0x3ce7128f	0.028207092
230	0x3cbab7b5	0.022792676
231	0x3d433aa3	0.047663342
232	0xbce4cee6	-0.027930688
233	0xbe0d5c43	-0.13804726
234	0x3ca195ad	0.019724691
235	0xbce2e308	-0.027696148
236	0x3d101707	0.03517821
237	0xbd3cc060	-0.0460819
238	0xbd192fe0	-0.037399173
239	0xbcc73751	-0.02431837
240	0x3d25e773	0.04050393
241	0xbd704da4	-0.058667794
242	0x3c1f1995	0.009710689
243	0xbd302841	-0.04300714
244	0xbd5d189c	-0.053978547
245	0x3d0da007	0.034576442
246	0xbcf0225f	-0.029313264
247	0x3d6372f5	0.055529553
248	0x3d91818d	0.07104788
249	0x3bd4ed76	0.006498034
250	0x3de478ab	0.11155828
251	0xbd55ac79	-0.052166436
252	0x3dc61b83	0.09673216
253	0x3dcaacbc	0.09896228
254	0x3dad4498	0.08460349
255	0x3e2d523a	0.16925898

conv2.bias f4 [16]
0	0xbb666ba8	-0.0035159383
1	0xbdeae0d6	-0.11468665
2	0xbea4c7bf	-0.32183644
3	0x3e0f90bd	0.14020057
4	0x3e7146e4	0.23562199
5	0x3e38cc54	0.18046695
6	0x3e5502a8	0.20801795
7	0xbdaa9fd7	-0.08331268
8	0x3d7bf3d1	0.06151182
9	0xbc9202ce	-0.017823603
10	0x3dee9c4d	0.11650906
11	0xbdfe145c	-0.12406227
12	0xbd096464	-0.033543006
13	0x3e84c9cd	0.25935212
14	0xbcfb47c4	-0.030673869
15	0x3e935714	0.28777373

fc1.weight f4 [120, 400]
0	0x3ddd76ef	0.108137004
1	0x3d25b6e7	0.040457632
2	0xbd032573	-0.032018136
3	0x3c8efada	0.0174536
4	0x3d8125a8	0.063060105
5	0x3e0f03b2	0.13966253
6	0x3c387306	0.0112578925
7	0xbd125db2	-0.035733886
8	0xbca3e105	-0.020004759
9	0x3d56e70f	0.05246645
10	0x3d84e091	0.06488145
11	0xbdc05fd5	-0.093932785
12	0xbe27549f	-0.16340874
13	0xbe2b76af	-0.16744493
14	0x3d984ca4	0.07436493
15	0x3d106c2c	0.03525941
16	0x3c7897ed	0.015172941
17	0xbd05f4be	-0.032704107
18	0xbd75eefe	-0.060042374
19	0x3d242ad4	0.040079907
20	0xbc26c383	-0.01017845
21	0xbd62aa60	-0.055338264
22	0x3d0686b1	0.032843295
23	0x3d1fdd9d	0.039029706
24	0x3e0bf395	0.13667138
25	0x3d417e68	0.04723969
26	0x3d408001	0.046997074
27	0x3e2738db	0.16330282
28	0x3d320bbe	0.04346823
29	0xbc1204ee	-0.008912308
30	0xbc3da906	-0.011575943
31	0x3d6e6f0b	0.058211368
32	0x3db927e6	0.09040813
33	0x3d8177c6	0.06321673
34	0x3da9aa85	0.08284477
35	0x3da20bba	0.07912393
36	0x3e1694c3	0.14705186
37	0x3d8861fa	0.066593125
38	0xbcb41118	-0.021980807
39	0x3d2af364	0.04173602
40	0xbe01f523	-0.12691168
41	0x3dbc8c9a	0.09206505
42	0x3cd64d37	0.026159866
43	0x3dcd140c	0.10013589
44	0xbc3069a1	-0.010767371
45	0xbe14d927	-0.14535962
46	0x3c22d67a	0.0099388305
47	0x3dc48e52	0.09597458
48	0x3dc81eb0	0.09771478
49	0x3d7109fe	0.05884742
50	0x3dd59a75	0.10429851
51	0x3dcb1eca	0.09917982
52	0x3d9d9868	0.07695085
53	0x3d59d992	0.053186007
54	0x3e051e13	0.12999754
55	0x3d913b36	0.07091372
56	0x3ce36b28	0.027761057
57	0xbd81efb9	-0.063445516
58	0xbd07a4df	-0.033116218
59	0x3c090eb5	0.008365323
60	0x3d816b86	0.063193366
61	0x3d52136c	0.051288053
62	0x39b61947	0.00034732578
63	0x3d03c10c	0.032166526
64	0xbd08a213	-0.03335769
65	0xbba9cb3d	-0.0051816986
66	0x3a886d1a	0.0010408491
67	0x3d396cd9	0.04526982
68	0x3ba159e8	0.0049240477
69	0x3baa53be	0.005197971
70	0xbe08dea8	-0.13366187
71	0xbe0c2563	-0.13686137
72	0xbdd87511	-0.10569204
73	0x3c92b996	0.01791076
74	0xbd4f78c7	-0.05065229
75	0x3dc98ad9	0.09840936
76	0x3c22bcef	0.009932741
77	0xbcff88f5	-0.031193236
78	0xbde017ca	-0.109420374
79	0xbe37cb09	-0.17948546
80	0x3d7bf7dd	0.061515678
81	0x3d929a8b	0.07158383
82	0x3c9265fc	0.017870896
83	0xbd1f3175	-0.038865525
84	0xbc668c23	-0.014071497
85	0xbd97ac49	-0.07405908
86	0x3d09e4c5	0.033665437
87	0x3ccbcc73	0.024877762
88	0xbcfb477c	-0.030673735
89	0xbc9be607	-0.019030584
90	0x3d32c734	0.043647006
91	0xbda256fe	-0.07926749
92	0x3c8ae7a1	0.016956152
93	0x3d8d41d6	0.06897323
94	0x3e0babe6	0.13639793
95	0xbe6fe9a9	-0.23428978
96	0xbda50af2	-0.08058728
97	0xbdfde622	-0.1239741
98	0x3cefd7f3	0.029277777
99	0x3d718e98	0.05897388
100	0x3d94d2f0	0.07266796
101	0xbd2d8220	-0.042360425
102	0xbe1324f6	-0.14369568
103	0x3cf91aea	0.030408341
104	0x3d822131	0.06353987
105	0x3de87eb7	0.11352294
106	0xbd3c0b5b	-0.045909267
107	0xbdadcd8c	-0.084864706
108	0xbdfdcd03	-0.123926185
109	0xbc73be55	-0.014876922
110	0x3aa9afe0	0.0012946092
111	0xbcf417f7	-0.029796584
112	0xbd42543d	-0.047443617
113	0x3d5a07cd	0.053230096
114	0x3cdda04d	0.027053976
115	0x3db0ae43	0.08626988
116	0x3d050dea	0.032483973
117	0x3d59d37c	0.053180203
118	0x3cf4b3fe	0.029870983
119	0xbce36aac	-0.027760826
120	0x3e5af369	0.21381916
121	0x3dd138cd	0.10215912
122	0xbb44468e	-0.002994928
123	0xbd90c9de	-0.07069753
124	0xbd66b3e1	-0.05632389
125	0x3e36e5df	0.17861126
126	0x3dc1c29d	0.09460948
127	0x3dbdecba	0.09273668
128	0x3e0a5f20	0.1351285
129	0x3e363803	0.17794804
130	0x3e124264	0.14283139
131	0x3c9707be	0.018436309
132	0x3a92762c	0.0011174134
133	0x3c80e6f6	0.01573513
134	0x3d54960d	0.051900912
135	0x3c1b793e	0.009489356
136	0xbd830e3b	-0.063991986
137	0xbca0da1d	-0.019635255
138	0xbdfecf39	-0.12441868
139	0xbe0a1448	-0.13484299
140	0x3d1d1abb	0.03835557
141	0xbda7861f	-0.081798784
142	0xbd3b7944	-0.045769945
143	0xbde2cca5	-0.11074189
144	0xbd8733cd	-0.06601677
145	0xbcfdfa86	-0.031003248
146	0xbcbd9085	-0.023140201
147	0x3d81b18b	0.06332692
148	0x3d224ae7	0.039622214
149	0xbd893326	-0.06699209
150	0xbe0d6a34	-0.13810045
151	0xbc8650b5	-0.016395906
152	0xbd4aec1c	-0.049541578
153	0xbdedcaef	-0.11610972
154	0xbd648366	-0.055789374
155	0x3d5f21d0	0.054475605
156	0x3d176263	0.036959063
157	0xbc3f9051	-0.011692123
158	0x3c042b80	0.008067012
159	0x3d10e95a	0.03537879
160	0x3ca82c28	0.020528868
161	0x3d8abe7d	0.06774614
162	0xbd37c5eb	-0.044866484
163	0x3afaac04	0.0019124751
164	0xbd83b4d6	-0.06430976
165	0x3d543eb1	0.0518176
166	0xbd740660	-0.059576392
167	0xbc459285	-0.012058859
168	0xbcd3a5a3	-0.025835818
169	0xbd76e7fe	-0.06027984
170	0x3cafcde9	0.02146049
171	0xbd4b4a29	-0.04963127
172	0xbd9aaa78	-0.075520456
173	0x3c895383	0.016763454
174	0xbd9d243f	-0.07672929
175	0x3cb9aff8	0.022666916
176	0x3d3667eb	0.044532698
177	0x39e700ae	0.0004406026
178	0xbc3d9005	-0.011569981
179	0xbc40a562	-0.01175818
180	0x3c8420da	0.016128946
181	0x3bed2c71	0.007237964
182	0x3d5cecbd	0.05393671
183	0x3ba5c637	0.0050590294
184	0x3d1e2640	0.038610697
185	0x3d0f5892	0.034996577
186	0xba64fb41	-0.00087349495
187	0xbd266e4f	-0.040632542
188	0x3c1f8105	0.0097353505
189	0xbcd043dc	-0.025422983
190	0x3b7d9988	0.0038696248
191	0xbdcad93f	-0.09904718
192	0xbd49df3f	-0.04928517
193	0xbd787966	-0.06066265
194	0xbdd9dbc5	-0.10637621
195	0xbdf3996b	-0.118944965
196	0xbe56b3fd	-0.20967098
197	0xbb91fc49	-0.0044551236
198	0xbd4ec35c	-0.050479278
199	0x3cb24ef6	0.021766167
200	0x3aab1a23	0.0013054054
201	0x3d6f7097	0.058456983
202	0x3e039f7c	0.12853807
203	0x3e6dba50	0.23215604
204	0xbb2ca05d	-0.00263407
205	0x3dcbf3a7	0.09958582
206	0xbc53d09b	-0.012928153
207	0x3bc67484	0.00605637
208	0x3d0b5fcf	0.034026917
209	0x3c596100	0.0132677555
210	0x3d2043a4	0.039127007
211	0x3d81b484	0.06333259
212	0xbd6848ae	-0.056709938
213	0xbd0744d7	-0.033024635
214	0x3cc8e789	0.024524467
215	0x3d89dac4	0.06731179
216	0x3d72e046	0.059295915
217	0xbcc2d7d6	-0.02378456
218	0xbd8de158	-0.069277465
219	0xbe00c74a	-0.12576023
220	0xbc8b9876	-0.017040472
221	0x3d996414	0.074897915
222	0xbe05d972	-0.1307123
223	0xbe08ce11	-0.13359858
224	0xbea46a42	-0.32112318
225	0x3d9c4629	0.076305695
226	0xbdf83ecf	-0.12121355
227	0xbd5caedc	-0.053877696
228	0xbd23a77d	-0.03995465
229	0x3d77da9e	0.060511224
230	0x3d2baca1	0.04191268
231	0x3d6892b8	0.056780547
232	0xbce02bcf	-0.02736464
233	0xbd07edf2	-0.033185907
234	0x3e0e90d8	0.13922441
235	0x3d851eff	0.06500053
236	0xbd782f04	-0.060591713
237	0x3bb78c10	0.0056014135
238	0x3daf8d97	0.08571928
239	0x3dd369b8	0.103228986
240	0xbb911ce5	-0.0044284933
241	0x3cac7c09	0.021055238
242	0x3c85c418	0.016328856
243	0xbc8e85de	-0.017397817
244	0x3dda7878	0.10667509
245	0xbe0092c0	-0.1255598
246	0xbd5c2aee	-0.05375188
247	0xbd04aff5	-0.03239437
248	0x3dd30090	0.10302842
249	0x3dbe6392	0.09296335
250	0x39e1a5d9	0.0004303891
251	0xbd8f2695	-0.06989781
252	0xbe1552aa	-0.14582315
253	0x3d286263	0.041109454
254	0x3e68a05c	0.22717422
255	0xbd8a9d6a	-0.067683056

fc1.bias f4 [120]
0	0xbda1f780	-0.07908535
1	0x3dab9f51	0.083799966
2	0xbd0419c6	-0.032251142
3	0xbe0140fb	-0.12622444
4	0x3cdfd32e	0.027322378
5	0xbc9b4957	-0.01895587
6	0xbca43c12	-0.020048175
7	0x3d0dbef8	0.03460595
8	0xbd08d08b	-0.033402007
9	0xba621fc2	-0.0008625948
10	0x3c0f7e84	0.008758191
11	0x3e08e6e0	0.13369322
12	0x3e7a26ad	0.24428816
13	0xbd0d7189	-0.034532104
14	0xbd64d102	-0.055863388
15	0xbccb2edb	-0.024802616
16	0x3e8cb889	0.2748454
17	0xbdb04702	-0.08607294
18	0xbd251d11	-0.040310923
19	0x3c85e0d2	0.016342554
20	0xbd0d5db2	-0.034513183
21	0xbd0c158e	-0.034200244
22	0x3e4b7003	0.19866948
23	0x3ea34638	0.3188951
24	0x3dad7fcb	0.0847164
25	0xbcd20ff5	-0.025642375
26	0x3e388fe1	0.18023635
27	0xbd7e04d6	-0.06201633
28	0x3df76540	0.12079859
29	0xbcb785d5	-0.022402683
30	0xbc7f4300	-0.015579939
31	0x3e347252	0.17621735
32	0xbcd0b8a0	-0.025478661
33	0x3edee58f	0.43534514
34	0xbcfdb2dd	-0.030969078
35	0x3c64fd8e	0.013976468
36	0x3e772700	0.24135971
37	0x3ea8b3f8	0.32949805
38	0x3eb9b389	0.36269787
39	0xbdb678c3	-0.08909752
40	0xbd190600	-0.037359238
41	0x3e3fa31a	0.18714562
42	0x3e4a70e8	0.19769633
43	0xbd41107b	-0.047134858
44	0xbbcd79dd	-0.0062706308
45	0xbe45a7bf	-0.19302271
46	0xbd870cc0	-0.06594229
47	0xbd6bb9aa	-0.05755011
48	0xbd74b737	-0.05974504
49	0xbc826bf2	-0.015920613
50	0x3e11cfca	0.14239421
51	0x3e74bd10	0.23900247
52	0x3e994d66	0.29941863
53	0xbdbccc26	-0.09218626
54	0x3e7ceb86	0.2469922
55	0x3d01a199	0.031648252
56	0x3c2fad1d	0.010722426
57	0xbdc394c3	-0.095498584
58	0xbca8bdeb	-0.020598372
59	0x3d37c5f8	0.044866532
60	0xbd5ab71b	-0.05339728
61	0xbd382eda	-0.044966556
62	0xbc8e897d	-0.017399544
63	0x3df9d821	0.121994264
64	0x3e0c7793	0.13717489
65	0x3cb60e7b	0.022223702
66	0x3d92d933	0.07170334
67	0xbd9780f8	-0.07397646
68	0x3ebe7817	0.37200996
69	0x3d72e709	0.059302364
70	0x3e98ce8f	0.29845092
71	0xbd3ce6e9	-0.04611865
72	0x3db740c1	0.08947898
73	0x3d3180e5	0.043335814
74	0x3dc094cf	0.09403383
75	0xbd2ae14c	-0.041718766
76	0xbd3f1073	-0.046646547
77	0x3e61648a	0.22011009
78	0xbcec1104	-0.028816707
79	0x3e3de70a	0.18545166
80	0x3d75f783	0.0600505
81	0x3e2b03c2	0.16700652
82	0x3eb3ff3a	0.3515566
83	0xbe7b99d6	-0.24570403
84	0xbda85929	-0.08220131
85	0xbc49a064	-0.0123063065
86	0xbbdd5603	-0.006754638
87	0x3cc7463c	0.024325483
88	0x3e5f482a	0.21804872
89	0x3a638650	0.0008679377
90	0xbd835603	-0.0641289
91	0xbdb180ea	-0.086671665
92	0xbda6e096	-0.08148305
93	0xbc733a38	-0.014845423
94	0xbd5d2a43	-0.053995382
95	0x3dfa90c0	0.1223464
96	0xbd1b0715	-0.03784855
97	0xbe5dd624	-0.2166372
98	0xbd9b2504	-0.075754195
99	0xbd8112c7	-0.063024096
100	0x3e58ae5a	0.2116026
101	0x3dce9b55	0.10088221
102	0x3d843a3a	0.06456418
103	0xbc38c78b	-0.0112780435
104	0xbd063425	-0.032764573
105	0x3d7cbb8f	0.061702307
106	0xbcc13faa	-0.023589928
107	0xbde42367	-0.11139565
108	0xbd367de1	-0.04455364
109	0x3c8c577e	0.017131563
110	0xbdcb63ed	-0.09931169
111	0xbe290f91	-0.16509844
112	0x3eb8a438	0.3606279
113	0x3e3e6c50	0.18596005
114	0xbcc909e7	-0.024540855
115	0xbe262080	-0.16223335
116	0x3db577e9	0.08860762
117	0xbc417b3b	-0.011809166
118	0xbc6af807	-0.014341361
119	0xbd1b82eb	-0.03796665

fc2.weight f4 [84, 120]
0	0xbdc34985	-0.09535507
1	0x3bb895bd	0.0056330846
2	0x3d61ad24	0.05509676
3	0xbd120b0e	-0.035655074
4	0x3a2d024b	0.0006599768
5	0x3e71b8ca	0.23605648
6	0xbafd7390	-0.0019336808
7	0x3d38b6b0	0.0450961
8	0xbc2dc70a	-0.010606537
9	0x3cdccc36	0.026952844
10	0xbc9860da	-0.01860087
11	0xbdb20cbc	-0.08693835
12	0xbe363714	-0.17794448
13	0xbcb48f28	-0.022040918
14	0x3bc2a3c4	0.0059399325
15	0x3d98644d	0.07441006
16	0x3db3acea	0.08773215
17	0xbe142332	-0.14466551
18	0xbcf59b84	-0.029981382
19	0xbcd465fa	-0.025927532
20	0xbd0670e8	-0.03282252
21	0x3d513fc4	0.051086202
22	0x3d8944ae	0.06702553
23	0x3e3b3eca	0.18285671
24	0x3e098d68	0.13432848
25	0x3c540562	0.0129407365
26	0x3ddd1bc7	0.10796314
27	0x3b9e70db	0.0048352308
28	0xbdc4d2a4	-0.09610489
29	0x3d1dd5b8	0.038533896
30	0x3d949702	0.07255365
31	0x3db06037	0.086121015
32	0xbcf2a2e4	-0.029618688
33	0xba5e4a63	-0.00084797124
34	0xbc9f252a	-0.0194269
35	0xbda9b42b	-0.082863174
36	0x3b40f874	0.0029444965
37	0x3d137241	0.035997633
38	0xbdad216c	-0.0845364
39	0xbdae972a	-0.08524926
40	0xbc25c945	-0.010118787
41	0x3dedff32	0.1162094
42	0xbe39d373	-0.18147068
43	0x3dda2ebe	0.106534466
44	0x3db4e729	0.08833153
45	0xbd874b75	-0.06606189
46	0x3bf602af	0.007507644
47	0xbd67185a	-0.056419708
48	0x3d85a242	0.06525089
49	0xbd2e9905	-0.0426264
50	0x3de387ca	0.11109884
51	0x3de5f043	0.11227467
52	0xbdf81afa	-0.1211452
53	0x3c8a6770	0.016895026
54	0x3cd90fc8	0.026496783
55	0x3ce00f24	0.02735097
56	0xbc82d792	-0.015971933
57	0x3e15c011	0.14624049
58	0x3e82d35e	0.25551885
59	0x3cb16a87	0.021657242
60	0x3d8c5e63	0.0685394
61	0xbe27b9ca	-0.16379467
62	0xbdb80d37	-0.089868955
63	0xbca7816f	-0.020447461
64	0x3db8659e	0.09003757
65	0xbd06b3e7	-0.032886412
66	0x3e2577db	0.16159002
67	0x3b082888	0.0020776112
68	0x3e62e871	0.22158982
69	0xbc06189d	-0.008184579
70	0xbbfd038a	-0.007721369
71	0x3d60a60e	0.054845862
72	0x3dc7607a	0.09735198
73	0x3d6bb69c	0.057547197
74	0x3ca00d5e	0.019537624
75	0xbdaf7242	-0.08566715
76	0xbd86c133	-0.065798186
77	0x3dfd28ef	0.12361323
78	0x3c7a2892	0.015268462
79	0x3e89d7f9	0.26922587
80	0x3d34a344	0.044101015
81	0xbdef7d3a	-0.11693807
82	0x3da05c02	0.07830049
83	0x3c7caf06	0.015422588
84	0xbd56e806	-0.05246737
85	0xbda21e60	-0.0791595
86	0xbd8357e8	-0.06413251
87	0xbc347704	-0.011014704
88	0x3e0e7aa1	0.13913967
89	0xbd220d8d	-0.039563704
90	0xbd0ade3d	-0.03390335
91	0xbe0803c7	-0.13282691
92	0xbe3426a7	-0.1759287
93	0xbd0695ea	-0.032857813
94	0x3cdf8375	0.027284363
95	0x3eaa968c	0.33317983
96	0xbcafbcc0	-0.021452308
97	0x3d9f266f	0.077710025
98	0x3d48959f	0.048970815
99	0x3c8d17cd	0.017223263
100	0x3e719c65	0.23594816
101	0x3eb59f5b	0.3547314
102	0x3de8c372	0.11365403
103	0x3d811b1c	0.06303999
104	0x3d9015d2	0.07035412
105	0x3dde58a1	0.10856748
106	0x3da23538	0.07920307
107	0x3d9eb5ae	0.077494964
108	0x3d7929f7	0.060831036
109	0x3da468b8	0.08027786
110	0xbe1e052f	-0.15431665
111	0x3e0c13c8	0.13679421
112	0x3e51abfe	0.20475766
113	0xbd988b16	-0.074484035
114	0xbd77592b	-0.06038777
115	0x3e003911	0.12521769
116	0x3bb2b0f0	0.0054532215
117	0x3c4ca963	0.012491557
118	0xbd4aabc3	-0.04948021
119	0xbd1a8b31	-0.0377304
120	0xbe131b42	-0.14365867
121	0xbc1ac18e	-0.009445561
122	0xbbcb98d1	-0.0062132855
123	0x3cdc0717	0.02685885
124	0xbe16e946	-0.14737424
125	0x3e6a78f1	0.22897698
126	0x3d70536a	0.0586733
127	0x3cda8126	0.02667291
128	0x3c90f2b5	0.017693857
129	0x3c9bd1ae	0.019020882
130	0xbdb721ae	-0.08941971
131	0x3db627eb	0.088943325
132	0x3d82e2b4	0.063908964
133	0x3cf4cf3a	0.02988397
134	0x3e102d61	0.1407981
135	0x3d3127ad	0.04325073
136	0x3d975285	0.07388786
137	0x3e0ce5fb	0.13759606
138	0x3d0fa1bb	0.035066348
139	0xbd82dbec	-0.06389603
140	0x3d25d21b	0.040483575
141	0xbd81232d	-0.063055374
142	0x3bfd2d71	0.0077263643
143	0xbe194065	-0.14965971
144	0xbdc4b061	-0.09603954
145	0x3b9c0761	0.004761622
146	0xbd916850	-0.07099974
147	0xbd1677b3	-0.036735248
148	0x3d8d01e7	0.068851285
149	0x3d9fbd9b	0.07799836
150	0x3d9001d2	0.07031597
151	0xbd51265e	-0.05106198
152	0xbd48090f	-0.048836764
153	0xbd877310	-0.06613743
154	0x3c2b8cd0	0.010470584
155	0x3e1aafc1	0.15106107
156	0xbcc2441c	-0.023714118
157	0x3c338998	0.010958098
158	0xbe9bd8db	-0.30438885
159	0x3e072429	0.13197388
160	0x3bdee8d6	0.0068026586
161	0x3cf7842a	0.030214388
162	0x3dcffaab	0.10155233
163	0x3d4be15e	0.049775474
164	0xbd3e7857	-0.046501484
165	0xbda83e9f	-0.08215069
166	0x3e8ca3e6	0.27468795
167	0xbcc496ee	-0.02399775
168	0x3d143813	0.03618629
169	0xbdcff5c4	-0.10154298
170	0xbe0c45af	-0.13698457
171	0x3d45fab0	0.048334777
172	0x3e5fcaa3	0.21854644
173	0xbc9f09d0	-0.019413859
174	0xbd95b8a2	-0.073106065
175	0xbd85e004	-0.06536868
176	0xbd0541f4	-0.0325336
177	0xbdcdaff5	-0.10043327
178	0xbd841ab4	-0.06450406
179	0x3e188762	0.14895394
180	0xbd2347df	-0.039863463
181	0x3e20a16b	0.15686576
182	0xbd6cfc1f	-0.05785763
183	0xbd14a7b1	-0.036292735
184	0x3e3b0b7c	0.182661
185	0xbc28e23e	-0.010307847
186	0xbc51d4d0	-0.012807086
187	0x3d435abb	0.04769395
188	0xbe1d09f4	-0.15335828
189	0xbc7aaec6	-0.015300458
190	0x3d8ea64a	0.06965311
191	0x3d75385b	0.059868198
192	0xbced2850	-0.028949887
193	0x3dda70b5	0.106660284
194	0x3e03fd76	0.12889656
195	0x3d34e9db	0.044168334
196	0x3d3fea70	0.046854436
197	0xbd048893	-0.03235681
198	0xbd8ef624	-0.06980541
199	0x3c6339f4	0.013868798
200	0xbde1e4b7	-0.11029952
201	0x3de417d2	0.11137356
202	0x3d700385	0.058597106
203	0x3d797036	0.06089803
204	0xbd878c09	-0.066185065
205	0x3c39268b	0.011300693
206	0xba15aa3e	-0.0005709267
207	0xbd816975	-0.063189425
208	0x3d818bc5	0.06325487
209	0xbcd52b3e	-0.026021596
210	0xbd0fd04e	-0.035110764
211	0x3c042879	0.00806629
212	0x3cc88704	0.024478443
213	0xbd3f7031	-0.046737853
214	0x3c6a78f1	0.014311061
215	0xbd18ac2e	-0.03727358
216	0xbd97379c	-0.073836535
217	0x3d61058f	0.05493694
218	0x3d1aa082	0.03775073
219	0xbd3e6dc1	-0.04649139
220	0xbe5a0239	-0.2128991
221	0x3c60cff5	0.013721456
222	0x3b21c7db	0.0024685774
223	0x3da1bd55	0.0789744
224	0xbc977e0e	-0.018492725
225	0x3d2b9d04	0.04189779
226	0xbd82fea6	-0.063962266
227	0x3e479724	0.1949125
228	0xbc9183d8	-0.017763063
229	0x3aabd3e0	0.0013109408
230	0x3e8a5200	0.27015686
231	0xbcb473fa	-0.022027958
232	0x3c347f1e	0.011016635
233	0xbd8daf3b	-0.06918188
234	0xbe703983	-0.23459439
235	0x3d540f26	0.05177226
236	0xbd77e705	-0.06052305
237	0x3cfb9f2b	0.030715546
238	0x3dc98a9d	0.098408915
239	0xbde98c80	-0.114037514
240	0xbda7f11b	-0.08200284
241	0xbde24b42	-0.110495105
242	0x3d9ac690	0.07557404
243	0xbddf010d	-0.10888872
244	0x3cf4bc76	0.029875021
245	0xbc5f36bc	-0.01362389
246	0xbd9a3e07	-0.07531362
247	0xbd09fcf2	-0.033688493
248	0x3d95af7e	0.07308863
249	0x3db325e0	0.087474585
250	0xbd9d9101	-0.07693673
251	0xbc2c7777	-0.0105265295
252	0x3c76ab3f	0.015055477
253	0x3be4684a	0.00697044
254	0x3d38d432	0.04512424
255	0x3d56d7de	0.05245196

fc2.bias f4 [84]
0	0x3e3fbb36	0.18723759
1	0xbe1c56b8	-0.15267456
2	0xbb6316c2	-0.0034651016
3	0x3db50940	0.08839655
4	0x3e8259b0	0.2545905
5	0x3d6fa6d0	0.058508694
6	0xbd6b2862	-0.05741156
7	0xbce9e816	-0.02855305
8	0x3dc91f7c	0.09820458
9	0xbd9e43cd	-0.07727776
10	0x3c97eb75	0.018544892
11	0x3cc018ee	0.023449387
12	0x3e930403	0.28713998
13	0xbd4fc1d0	-0.050721943
14	0xbdd92f4e	-0.10604726
15	0x3d517900	0.051140785
16	0xbdd347ca	-0.10316427
17	0x3e8a6b93	0.27035198
18	0xbc14ec36	-0.00908952
19	0xba8c0376	-0.0010682184
20	0xbd95e144	-0.07318357
21	0x3d57254c	0.052525803
22	0xbdb460f5	-0.088075556
23	0xbbf7a914	-0.0075579975
24	0x3eb5383a	0.3539446
25	0x3d6d9930	0.05800742
26	0x3e6b433c	0.22974867
27	0xbc5e6d54	-0.013575871
28	0x3e015b7f	0.12632559
29	0x3e5c800a	0.21533218
30	0x3e23e656	0.16005835
31	0x3d8969ca	0.06709631
32	0x3e2db58d	0.16963787
33	0x3eacba68	0.33735967
34	0xbd4af103	-0.049546253
35	0x3e369321	0.17829563
36	0x3d02ae19	0.031904314
37	0x3cb753d9	0.022378849
38	0x3e8ad76d	0.27117482
39	0x3e6ae549	0.22939028
40	0x3e29724d	0.16547509
41	0x3dd8081a	0.1054842
42	0x3ec4f14b	0.38465342
43	0x3e465c43	0.19371133
44	0xbda33db1	-0.07970751
45	0x3dd0349f	0.10166287
46	0xbd9c2b21	-0.07625414
47	0x3e6b73f6	0.22993454
48	0xbd8f0ca5	-0.06984834
49	0x3d09ab5d	0.03361069
50	0x3e86be5d	0.2631711
51	0x3ea430dc	0.32068527
52	0xbd8711b2	-0.06595172
53	0xbd62ba43	-0.055353414
54	0xbe0a3826	-0.13497981
55	0x3e65ae55	0.22429784
56	0x3e257809	0.16159071
57	0x3ed5036d	0.41604176
58	0x3d48093a	0.048836924
59	0x3d0fe44b	0.035129827
60	0xbd624776	-0.05524393
61	0x3a8cf7d6	0.0010755013
62	0x3d0616ff	0.032736775
63	0x3d845151	0.064608224
64	0xbe118071	-0.14209153
65	0x3df48b32	0.11940612
66	0x3df0c782	0.11756803
67	0x3ec935ea	0.39298946
68	0x3ebf5410	0.37368822
69	0xbc51ff0b	-0.012817155
70	0x3d9acf90	0.07559121
71	0x3d794f31	0.06086654
72	0xbd59d527	-0.053181794
73	0x3e853ec7	0.26024458
74	0x3df4668a	0.1193362
75	0x3e5a8724	0.21340615
76	0xbd26c29f	-0.04071295
77	0xbd08c77c	-0.033393368
78	0xbd80c537	-0.06287616
79	0xb9703224	-0.00022906862
80	0xbd7ffa09	-0.06249431
81	0x3ea4b772	0.32171208
82	0x3df672b2	0.12033595
83	0x3ec0d4c8	0.3766234

fc3.weight f4 [8, 84]
0	0x3e3a31cf	0.18183063
1	0xbcd99ebf	-0.026564954
2	0xbbb20d22	-0.0054336945
3	0x3e05901c	0.13043255
4	0xbeb70bb0	-0.35751104
5	0x3e93fc52	0.28903443
6	0xbd603497	-0.054737654
7	0x3db6a06a	0.08917315
8	0xbe541cf1	-0.20714165
9	0xbe14ec1c	-0.14543194
10	0x3d8091e2	0.06277825
11	0xbd09d4af	-0.033650097
12	0xbe8a2e87	-0.26988623
13	0xbc525fd9	-0.012840235
14	0xbdce8957	-0.10084789
15	0xbaea633c	-0.0017882357
16	0xbdf42f1b	-0.11923047
17	0x3cdac35a	0.026704479
18	0x3e6fa3c3	0.23402314
19	0x3d423a86	0.047419094
20	0xbd5b9140	-0.053605318
21	0x3e0399df	0.12851666
22	0xbc84fc02	-0.016233448
23	0xbde3ad36	-0.11117022
24	0xbe54eba7	-0.20793019
25	0x3e1d54ad	0.15364332
26	0xbea42acc	-0.320639
27	0x3de90824	0.11378506
28	0xbde44881	-0.111466415
29	0xbeb5da07	-0.35517904
30	0x3d3d16a4	0.04616417
31	0xbd8f1931	-0.06987227
32	0x3e225f1f	0.15856598
33	0xbc166c32	-0.009181069
34	0x3da80e5d	0.082058646
35	0x3d15df03	0.036589634
36	0x3d7f6b3e	0.062358133
37	0x3d43e21a	0.04782305
38	0x3e0e9f52	0.13927963
39	0xbe881136	-0.2657563
40	0x3e3a88fe	0.18216321
41	0x3e07dd8b	0.13268106
42	0xbee4affa	-0.4466551
43	0xbe47863b	-0.19484799
44	0x3dd21708	0.10258299
45	0xbc8d40fa	-0.017242897
46	0xbe77e102	-0.24206927
47	0xbd2c0007	-0.041992214
48	0x3e59e3fa	0.21278372
49	0x3e412b6c	0.1886422
50	0x3dd9f99c	0.10643312
51	0x3e23e93b	0.16006939
52	0xbd94d93d	-0.072679974
53	0xbd25914b	-0.040421765
54	0x3ac9be30	0.0015391763
55	0xbd932400	-0.07184601
56	0xbd8d4e77	-0.068997316
57	0xbd8b2afa	-0.067953065
58	0xbe142462	-0.14467004
59	0xbe082eaf	-0.13299058
60	0xbe1b0ff0	-0.15142798
61	0xbdcb6f96	-0.09933393
62	0x3e4799c6	0.19492254
63	0xbe6ed863	-0.23324732
64	0x3da0afa1	0.078459986
65	0x3dd86bc2	0.10567428
66	0x3dc5a80d	0.09651194
67	0x3e01293f	0.1261339
68	0xbeab94b3	-0.33511886
69	0xbd86f3c2	-0.06589462
70	0x3e329252	0.1743863
71	0xbe0be585	-0.13661774
72	0xbe8ae152	-0.2712503
73	0xbe5793a0	-0.21052408
74	0x3c04c104	0.008102659
75	0x3b8d0585	0.0043036365
76	0xbd0e954a	-0.034810342
77	0xbc92d266	-0.017922591
78	0xbe80980f	-0.25116012
79	0xbcb48610	-0.022036582
80	0xbe4e546c	-0.20149392
81	0xbecab334	-0.39589846
82	0xbe71cde6	-0.236137
83	0x3e2757ec	0.16342133
84	0x3c3becfb	0.011470075
85	0x3debf46e	0.11521231
86	0x3bd0a752	0.0063676024
87	0x3e24ea98	0.16105115
88	0xbe8a7915	-0.27045503
89	0xbdb46cea	-0.08809836
90	0x3d3faf1f	0.046797868
91	0x3dadf979	0.08494849
92	0xbe8dd195	-0.2769896
93	0x3d5395ae	0.051656418
94	0x3dd201d9	0.10254259
95	0xbd160a52	-0.036630936
96	0x3d8b0c24	0.06789425
97	0x3e993de5	0.29930034
98	0xbcc3f1a1	-0.023918929
99	0xbd783b92	-0.060603686
100	0xbd22d21c	-0.039751157
101	0xbe299374	-0.16560155
102	0xbe9527af	-0.2913184
103	0x3d4e406c	0.050354406
104	0xbd1ee7e8	-0.03879538
105	0xbe5d16f0	-0.21590781
106	0xbde6aceb	-0.1126345
107	0x3e8326f9	0.2561567
108	0xbeb79150	-0.35853052
109	0x3e104e8b	0.14092462
110	0x3cb2f69d	0.02184611
111	0xbe2a2ac9	-0.16617884
112	0xbdd08898	-0.10182303
113	0xbdd277ef	-0.10276782
114	0x3e394caf	0.18095659
115	0xbe0591bd	-0.13043876
116	0xbe2bd5e0	-0.16780806
117	0xbe1fe2fe	-0.15613934
118	0x3e268962	0.16263345
119	0x3ddd2552	0.10798134
120	0x3d47ef1a	0.04881201
121	0x3e7360cd	0.23767395
122	0xbe36bcfd	-0.17845531
123	0xbda9e782	-0.0829611
124	0x3db35bcc	0.08757743
125	0xbe7923a8	-0.24330008
126	0xbe44471f	-0.19167756
127	0xbeb640e4	-0.35596383
128	0x3d00c4bb	0.031437617
129	0xbe0cf2cd	-0.13764496
130	0x3d9f69f8	0.07783884
131	0xbdf42bc3	-0.119224094
132	0xbdce2ce8	-0.10067159
133	0xbe58571a	-0.21126977
134	0xbeb462b8	-0.35231566
135	0xbe4aee3e	-0.19817445
136	0x3ca120be	0.019668933
137	0x3ccff322	0.02538449
138	0xbcb2cea4	-0.02182705
139	0xbee0e199	-0.43922117
140	0x3e10cdee	0.14141056
141	0xbe81ca81	-0.2534981
142	0x3e7dfff5	0.24804671
143	0xbe25bb85	-0.16184814
144	0x3d1a1b56	0.037623726
145	0xbdf17453	-0.11789765
146	0x3d821376	0.06351368
147	0x3e01ba43	0.1266871
148	0x3e4f94be	0.20271584
149	0x3df2bfbc	0.11852977
150	0x3ca11b44	0.019666322
151	0xbededaae	-0.43526214
152	0xbeb55efd	-0.35424033
153	0x3d9780de	0.07397626
154	0x3ccc768f	0.024958877
155	0xbacd4974	-0.001566215
156	0x3dfe3f94	0.1241447
157	0xbc8e9ced	-0.017408812
158	0xbe6ef003	-0.23333745
159	0xbe54c835	-0.20779498
160	0xbd51553a	-0.05110667
161	0xbdebd689	-0.11515529
162	0x3cb97355	0.022638002
163	0x3c2e0d3b	0.010623272
164	0xbdc2b061	-0.09506298
165	0xbe89d57b	-0.26920685
166	0xbe66f731	-0.22555234
167	0xbe567ab3	-0.20945244
168	0x3e35d811	0.17758204
169	0xbd72665b	-0.059179645
170	0x3d0844ae	0.033268623
171	0x3c810620	0.015749991
172	0x3def6cda	0.11690684
173	0xbc9f8de1	-0.019476833
174	0x3d82e26c	0.06390843
175	0xbdaba068	-0.083802044
176	0x3e599e0e	0.212517
177	0xbe363aa2	-0.17795804
178	0xbe7208c0	-0.2363615
179	0x3d601369	0.05470601
180	0xbd979064	-0.07400587
181	0x3e141395	0.14460595
182	0x3e5309bc	0.20609182
183	0xbdaf1b50	-0.08550131
184	0x3d76b1ba	0.060228087
185	0xbd73f1ba	-0.0595567
186	0x3df85fc5	0.121276416
187	0x3dbdaf70	0.09261978
188	0x3dc2a636	0.095043585
189	0xbc0cadfd	-0.008586404
190	0xbdf69143	-0.12039425
191	0xbe5881d0	-0.2114327
192	0xbdeda1bf	-0.11603116
193	0xbc24b39e	-0.01005259
194	0xbd0f89cc	-0.035043523
195	0x3de1cb1e	0.1102507
196	0x3dbfe2c6	0.093694255
197	0x3da329d1	0.0796696
198	0xbe4c40ae	-0.19946548
199	0xbc32b1a4	-0.010906611
200	0xbe1efcfa	-0.1552619
201	0x3e3df38a	0.18549934
202	0xbc146bd3	-0.00905891
203	0x3c1c9a26	0.009558236
204	0x3e269acc	0.16269988
205	0xbe39cd4e	-0.18144724
206	0xbe0cbc30	-0.13743663
207	0xbcd8d5ea	-0.02646919
208	0xbdfbdf2a	-0.122984245
209	0x3e765300	0.240551
210	0x3d50298a	0.050820865
211	0xbe1db306	-0.15400323
212	0xbe0323e5	-0.12806661
213	0x3db95d59	0.09051008
214	0x3e502ed8	0.2033037
215	0x3d9ad4d9	0.07560129
216	0xbe913142	-0.28357893
217	0x3dd0656d	0.101755954
218	0xbe3eee62	-0.18645623
219	0x3da66ad1	0.08125842
220	0x3e7b8c36	0.24565205
221	0x3e83766d	0.2567629
222	0xbd21988b	-0.039452117
223	0xbd3c8796	-0.046027742
224	0xbe92cea2	-0.28673273
225	0xbe0fa4fb	-0.14027779
226	0x3e8bb2dd	0.272849
227	0xbe52101b	-0.20513956
228	0xbdb74da3	-0.08950355
229	0x3e9d3307	0.30702993
230	0x3cc8bb38	0.024503335
231	0x3d193412	0.037403174
232	0xbdfc8f7c	-0.12332055
233	0xbb93d561	-0.0045115207
234	0x3e957f37	0.2919862
235	0xbcea2599	-0.028582381
236	0x3e333c86	0.17503557
237	0x3d9a529d	0.075352885
238	0xbd77cf58	-0.060500473
239	0xbdeee7a4	-0.11665276
240	0xbe263886	-0.162325
241	0x3e334c56	0.17509589
242	0xbe481942	-0.19540885
243	0xbe63272c	-0.22182912
244	0xbdb9b185	-0.09067062
245	0xbdb325c7	-0.0874744
246	0xbde79fe3	-0.11309793
247	0xbeb3545a	-0.35025293
248	0x3e44b427	0.19209348
249	0xbe856f50	-0.26061487
250	0x3d9993a9	0.07498867
251	0x3de3ba49	0.111195154
252	0x3bb106be	0.005402415
253	0xbe6431d5	-0.22284634
254	0x3d72834a	0.05920724
255	0xbe5b539c	-0.21418613

fc3.bias f4 [8]
0	0xbe0c0fdd	-0.13677926
1	0xbe4ac176	-0.19800362
2	0xbd66a6ca	-0.056311406
3	0x3e40eab6	0.18839535
4	0x3e576ab6	0.210368
5	0x3d43be4a	0.047788896
6	0xbc8adf15	-0.016952077
7	0x3bc50598	0.0060126297
