src/weights/cnn_cifar10_gswil0.pt (torch, 343067 bytes, 38 tensors)

conv_block1.Conv1.weight f4 [16, 3, 3, 3]
000000 6d 4f 82 bc 61 b4 61 3d b1 34 a8 bc 3e 9a 74 bd
       -0.015907014 0.055103663 -0.020532938 -0.05971741
000010 40 9b 5d be 0d 55 48 3e bc 79 50 3e 33 1e cf bd
       -0.21641254 0.19563694 0.20358938 -0.10113182
000020 2f 99 d8 bd 74 36 87 3e 22 38 48 3e 84 28 e1 bd
       -0.105760925 0.26408732 0.19552663 -0.10994056
000030 ef 02 7c bd 32 62 8b be ab 9c 33 3d 35 0e 14 be
       -0.061526235 -0.27223355 0.043850582 -0.14458545
000040 75 b5 4c be 0f db 2e ba 90 74 2e bd 08 60 24 3e
       -0.19991095 -0.00066702155 -0.04259163 0.16052258
000050 c5 54 10 be b7 c2 03 3e 3a c7 a6 3d 61 7f 35 3e
       -0.14094837 0.12867247 0.08143468 0.17724372
000060 0a 7a aa bd 7d df bb bd 0b 05 75 3c 1d 85 d6 3d
       -0.08324058 -0.091734864 0.014954816 0.10474608
000070 3c 3d 81 be 28 c7 33 3e 1f b5 38 be e8 4b b8 bd
       -0.2524203 0.17556441 -0.18037842 -0.08998853
000080 7a 85 35 3e f0 74 0d 3d 60 c9 ff 3d b3 29 e9 bd
       0.17726699 0.03453535 0.12489581 -0.113849066
000090 b7 0a 37 bd f0 1e 51 bd 38 9d c5 3d d3 e7 f8 bb
       -0.044687953 -0.051054895 0.09649128 -0.007595995
0000a0 29 ac fd bd 30 77 41 3e b7 1a a5 3d d9 ba 0e 3e
       -0.123863526 0.18893123 0.08061736 0.13938464
0000b0 d6 17 30 3d 9e 4f c5 bd 07 24 4e be 6a 56 0b 3e
       0.04299148 -0.096343264 -0.20130931 0.13607183
0000c0 9c cf 1a be 43 27 0d be d3 ab 8b 3c d9 bf d2 bd
       -0.15118259 -0.13784508 0.017049706 -0.10290498
0000d0 e3 f4 c4 3c ff 42 0d 3e b8 7d 18 bd 7d 10 ce bc
       0.024042552 0.13795088 -0.03722927 -0.025154347
0000e0 0f 28 86 3d 4c 19 c5 3c 49 00 c6 3d 04 dc 54 be
       0.06550609 0.024059914 0.09668023 -0.20787054
0000f0 5c c2 a6 3c 82 79 48 bd 87 2c 14 3e 10 ac c5 3d
       0.02035635 -0.048944004 0.14470111 0.09651959
000100 d0 03 fa bd d8 a8 4b 3e e0 8d a4 be d1 c8 2b be
       -0.122077584 0.19888628 -0.32139492 -0.16775824
000110 7a 53 f6 3d 20 69 06 bd 8a fe 95 3d 88 36 d8 3d
       0.12027641 -0.0328151 0.0732394 0.10557276
000120 f9 78 e3 3a da 4e 62 3e 38 aa 57 bc 58 c4 62 be
       0.0017354778 0.22100392 -0.013163142 -0.22145212
000130 75 51 cc 3d 83 90 3c be 30 1f 38 3b 35 25 43 3e
       0.09976474 -0.18414502 0.002809476 0.19057162
000140 25 b1 8d bd 19 a5 c7 bd 28 5e b6 3d 6d a3 03 be
       -0.06918553 -0.09748287 0.08904678 -0.1285531
000150 c7 f7 93 3d f2 e6 9a bb 13 e7 33 3e f8 4c a7 bd
       0.07224994 -0.004727238 0.17568617 -0.081689775
000160 07 8a 4a 3d ff 91 32 be 79 4d 71 be 84 ac 58 3d
       0.04944804 -0.17438506 -0.2356471 0.0528989
000170 a2 89 05 be 07 c3 e9 bc 09 87 e9 bd 1a 14 35 3e
       -0.13040784 -0.02853538 -0.11402709 0.1768345
000180 e2 bd 97 bc 04 2f d1 bb b8 fc d5 bc dc 11 12 be
       -0.01852316 -0.0063837785 -0.026121482 -0.14264625
000190 14 8f d9 3d 52 eb 16 3e e2 69 8f 3e cf b1 6e 3d
       0.10622993 0.14738205 0.2801047 0.05827504
0001a0 2e fb c5 3d 85 ee d5 3d 11 14 80 bd c5 aa 34 3e
       0.09667049 0.104458846 -0.06253827 0.17643268
0001b0 3c cd 03 3e 7b 4f 53 3e 43 26 9b 3d 75 bc a2 bd
       0.1287126 0.20635788 0.07575657 -0.079461016
0001c0 76 f8 40 3d fd c6 09 be 30 ea 04 3e fc 3a 2c bd
       0.04711195 -0.13454814 0.1297996 -0.04204844
0001d0 ad 87 ef bd 12 e0 df 3d 68 1f 20 3e 7a 66 24 bd
       -0.116958 0.1093141 0.1563698 -0.04013679
0001e0 ec 9a bc bd a9 c7 91 bd 97 a6 24 be 08 24 92 bd
       -0.092092365 -0.0711816 -0.16079174 -0.07135779
0001f0 f6 a3 e3 3d 32 60 0d bd d4 50 0e 3e b5 5b 10 3e
       0.111152574 -0.034515567 0.13898021 0.14097483
000200 87 2e fc bd c6 35 0c 3e 6c ac 72 be 7a 2b e8 bc
       -0.12313562 0.13692388 -0.23698586 -0.028341044
000210 e6 cc 06 3d 6d e0 3a be b5 76 83 3d b9 1d cf 3d
       0.03291025 -0.18249674 0.06419126 0.10113091
000220 e7 45 75 bd c1 f7 1c bd 72 34 63 bc f8 75 da 3b
       -0.059881117 -0.038322214 -0.013867484 0.006666895
000230 8a 32 33 bd 7d c5 70 3e c2 80 8f be ec 04 25 3e
       -0.04374937 0.23512836 -0.28027922 0.16115159
000240 ea 06 54 bd f7 54 3d 3e 61 20 0d be 82 45 94 3d
       -0.051764406 0.18489443 -0.13781883 0.0723982
000250 cc 3c 9b 3d 64 96 d3 3d e9 83 85 bc 16 80 93 be
       0.075799555 0.10331419 -0.016298251 -0.2880866
000260 ff e3 a3 bc 56 e9 fa 3d 97 1e 80 3d a3 41 2e 3d
       -0.020006178 0.122515365 0.062558345 0.042543065
000270 48 4e ea bd ef 9c d9 bd c3 7c b0 bb 34 31 66 3d
       -0.11440712 -0.10625636 -0.0053859665 0.056199268
000280 27 9e 07 be a1 90 e5 3d b7 07 2f bb 50 ea 56 3e
       -0.13243924 0.112092264 -0.002670748 0.2098782
000290 65 08 98 3d de 3f 8e bd 7e 21 22 3e 22 04 60 3d
       0.07423476 -0.069457754 0.15833089 0.05469144
0002a0 39 75 9b 3d 13 af 02 3e bc c7 70 be a6 31 32 bc
       0.07590718 0.12762098 -0.23513693 -0.010876095
0002b0 a9 35 54 be 2d 91 73 3d 21 22 75 bd 31 b3 f6 3d
       -0.20723595 0.059464622 -0.059847 0.12045897
0002c0 2b a1 49 be 24 7d 8e 3d 79 8c 50 be 79 10 b7 bd
       -0.19690387 0.069574624 -0.20366086 -0.08938689
0002d0 69 02 c7 3c 77 ad 76 bd fa ee 44 be 8c b9 f1 3d
       0.024293141 -0.060224023 -0.19231787 0.118029684
0002e0 f4 2d 20 3e 44 51 3f 3d 38 ce a9 bd d9 fb 35 3e
       0.1564253 0.04670836 -0.08291286 0.17771854
0002f0 10 74 77 bd c2 48 65 be 42 00 b1 3d 9b 09 22 be
       -0.06041342 -0.22391036 0.08642627 -0.15823977
000300 85 20 bb 3b b1 2e 96 bc a9 b0 88 3d 65 cb 80 bc
       0.0057106637 -0.018332811 0.0667432 -0.015721986
000310 a2 f7 f0 3d 68 4f 03 3e 6a 80 3a 3e ce 90 60 3e
       0.11765982 0.1282326 0.18213049 0.21930239
000320 c7 1a 6e be a5 32 d1 3c a6 28 ba 3d 35 d5 6e be
       -0.23252402 0.025536845 0.09089784 -0.2332352
000330 c6 2d 04 3c 00 c6 a0 3d c4 51 84 bd d0 5a 38 3d
       0.008067554 0.078502655 -0.06460908 0.04500848
000340 ee cb 0a bd 18 4b bf 3d 1c e3 88 3d 37 45 d3 3d
       -0.03388589 0.09340495 0.06683943 0.10315936
000350 bf 04 6b be e9 cf 30 3d 10 b0 ce 3b 9c 4d 08 be
       -0.22951029 0.04316703 0.0063076094 -0.13310856
000360 4e f7 27 3e c0 19 fb 3d b8 fe 33 be 47 14 26 bd
       0.16402933 0.12260771 -0.17577636 -0.04054668
000370 69 05 a0 3c c8 43 49 3e a9 96 b6 3c 05 2e b6 bc
       0.01953383 0.19654763 0.022288637 -0.02223874
000380 c4 36 09 3e c6 ec d3 3d ab c9 79 bd 87 98 c9 3d
       0.13399798 0.10347895 -0.06098334 0.098435454
000390 41 b4 69 be 98 cd 2c be a3 c5 34 3e 8f 2b 32 be
       -0.22822668 -0.16875303 0.17653517 -0.17399429
0003a0 72 d3 f4 ba 01 78 95 bd a0 fe 30 3e 42 65 71 bd
       -0.0018678738 -0.072982796 0.17284632 -0.058934458
0003b0 8b 32 af 3d 2e ad 11 be 47 85 4d be 3c 4a 58 bc
       0.08554562 -0.14226219 -0.20070373 -0.013201293
0003c0 52 3e f5 3d 52 c4 48 bd ab 55 b7 bd 82 b6 72 be
       0.11974777 -0.04901535 -0.08951887 -0.23702434
0003d0 43 3a a7 bd c3 51 dc 3d 48 7e 80 3c b3 bb 6a 3c
       -0.081654094 0.10757782 0.015685216 0.014326978
0003e0 83 57 73 3e e8 7c e6 3d 78 01 4a 3d 05 7a 02 be
       0.23763852 0.11254293 0.049317807 -0.1274186
0003f0 a8 06 5a 3e 5b bb 0e be 37 3d d5 bb d9 07 c2 bd
       0.21291602 -0.13938658 -0.0065075415 -0.09474153

conv_block1.Conv1.bias f4 [16]
000000 29 24 fa bc 5c 95 d4 3d 79 0b 32 3e 68 e3 0f be
       -0.03053482 0.103800505 0.17387189 -0.14051592
000010 46 79 2a 3e 79 14 f1 3d 0e 0f c6 3b 84 fe 41 3e
       0.16647825 0.11771483 0.006044275 0.18944746
000020 19 18 cc bd b1 7a 0d 3e c5 08 dc bd 36 39 6e bd
       -0.09965534 0.13816334 -0.1074386 -0.05816003
000030 4d 64 17 3e 02 60 16 3d 65 3c 4c be fb f6 2a be
       0.14784355 0.036712654 -0.19944914 -0.16695778

conv_block1.BN1.weight f4 [16]
000000 3c 63 58 3f 5f d8 8a 3f 73 57 76 3f 34 12 2c 3f
       0.8452642 1.0847281 0.96227187 0.67215276
000010 1a 9b 8c 3f 7d 31 a3 3f 78 ed 6d 3f 30 44 9d 3f
       1.0984833 1.2749478 0.92940474 1.2286434
000020 16 fb 69 3f f8 8d ae 3f d7 93 6d 3f 4c cd 46 3f
       0.9139875 1.3637075 0.9280371 0.7765701
000030 a6 24 99 3f db 92 6b 3f 05 6d 45 3f 09 4e 41 3f
       1.1964309 0.9202096 0.77119476 0.755097

conv_block1.BN1.bias f4 [16]
000000 86 bf 76 3d 66 59 0c 3e a8 ef 0f 3d ff 08 eb 3d
       0.060241245 0.13705978 0.035140663 0.11476325
000010 d3 17 a9 3d 11 9f 46 3d 37 b9 44 3e 82 57 f5 3d
       0.08256497 0.04849154 0.19211279 0.119795814
000020 1b 3e cc 3d 40 5c 02 bc fb bf 0d 3e f8 41 a6 3d
       0.09972783 -0.007956564 0.13842766 0.08118051
000030 c6 81 60 3e 77 0a 68 3e 1e c9 c4 3d ef d1 62 bc
       0.21924505 0.22660242 0.096086726 -0.013843997

conv_block1.BN1.running_mean f4 [16]
000000 78 cc 65 3d 2c 51 52 3e 84 dc 3a 3e 29 b4 1b 3d
       0.0561032 0.20538777 0.18248183 0.03801361
000010 ee f8 5c 3e 81 fa 0c 3e d3 cf 69 3d 78 67 61 3e
       0.21579334 0.13767435 0.057082962 0.22012126
000020 f8 e7 3f 3d d6 86 18 3e fb ae 4f 3d 44 62 aa 3d
       0.046852082 0.14895186 0.050703984 0.08319524
000030 4d 40 3a 3e 3e 53 fc 3d ac 87 22 3d 9a ae 3f 3d
       0.18188591 0.12320565 0.039680168 0.046797372

conv_block1.BN1.running_var f4 [16]
000000 20 86 58 3c d8 05 48 3d dc dc b6 3c 79 a4 d9 3b
       0.013215572 0.048833698 0.02232211 0.006641921
000010 24 6e 2c 3d 97 bc 92 3c 81 1b 25 3c ea f6 fc 3c
       0.042097226 0.017912192 0.010077358 0.030879457
000020 bf 60 14 3c c5 86 65 3c 6a 14 6d 3c da 06 57 3c
       0.009056269 0.014009182 0.014470199 0.013124192
000030 b5 e9 d2 3c 86 5d 31 3d 29 5b 18 3c 7b ee 38 3c
       0.025746206 0.04330208 0.009299078 0.011287327

conv_block1.Conv2.weight f4 [16, 16, 3, 3]
000000 45 1f 0f 3d a0 c7 98 bd eb 10 c5 bb 8f 3b 94 3c
       0.03494193 -0.074599504 -0.0060139797 0.018094806
000010 bb d9 88 bd cf 16 d4 bd 06 7d ed bd 22 db e7 bd
       -0.06682154 -0.10355913 -0.11596112 -0.11321093
000020 49 24 9b 3d e4 87 e8 bd 23 1c 41 3b 3c 5f f0 bd
       0.0757528 -0.11354044 0.0029466234 -0.117369145
000030 3a 03 c9 3d fb 02 ac 3d 39 2e c3 bd 79 0f 1c 3e
       0.098150685 0.08399006 -0.09530301 0.15240277
000040 6e 52 db bc 2b 3a c1 bd b1 78 f2 bc 40 17 09 bd
       -0.026772704 -0.09434923 -0.029598566 -0.03346944
000050 d5 ab c4 bd 4a a0 6c 3d 7c 2c 2e 3e 48 eb b5 3d
       -0.09603087 0.05777005 0.17009157 0.08882767
000060 97 a1 26 be 67 fd fb bd e6 5d 86 bd ad 22 88 3c
       -0.16272579 -0.12304192 -0.065608785 0.016618097
000070 62 df ad 3d bb a8 d0 3d 0a 2a 7c bc 83 43 37 bd
       0.084898725 0.10188433 -0.015390882 -0.04474212
000080 c8 52 83 bd 8f 8d 37 bd 74 4e 9d 3d 2f d0 70 3d
       -0.06412274 -0.044812735 0.07680979 0.05879229
000090 83 3e d9 3c 63 64 b0 3d a9 98 f0 3c 0f ce c0 3d
       0.026519066 0.08612897 0.029369669 0.094143026
0000a0 c6 4b 98 3d 37 71 b2 3d e5 08 32 be d8 4f 8b bd
       0.07436328 0.08713 -0.17386205 -0.06802338
0000b0 9e 7f 11 be 68 f9 06 3e f9 d3 af bc d4 22 8f 3d
       -0.14208838 0.13181078 -0.021463381 0.06989065
0000c0 3b cd 03 3e cd e5 32 be 48 99 44 3d 35 25 0b bd
       0.12871258 -0.17470475 0.047997743 -0.03397103
0000d0 7e fa 53 be fb d9 16 bd a8 7e bf 3d 98 dd aa bc
       -0.20701024 -0.036828976 0.0935033 -0.020857617
0000e0 eb 83 12 bd 1b 3a e7 bd 8e 23 9e 3d 38 96 e4 3c
       -0.035770338 -0.112903796 0.07721625 0.027903661
0000f0 77 27 9a 3d 0b c5 c3 3d 6f 53 10 bd 1c 6d 50 bc
       0.075270586 0.09559067 -0.03523582 -0.012721326
000100 e4 c0 8d bd 77 20 51 3c d8 71 31 bd a1 4b 33 3d
       -0.069215566 0.012764088 -0.04332146 0.043773297
000110 18 cb f9 3d f3 66 1a be 18 7e 85 bc ab c6 47 bd
       0.1219694 -0.15078335 -0.016295478 -0.04877345
000120 0c 47 2b 3d 87 57 60 3d e7 07 ad bd 6d b4 30 3c
       0.041815802 0.054770973 -0.08448773 0.010785204
000130 9f 53 92 3d ba c5 cc 3c af ea ee bd 88 44 15 be
       0.07144856 0.024996627 -0.11665856 -0.14576924
000140 a6 15 f0 bd 8e b6 e1 3c 96 04 11 bd 64 cf 59 bb
       -0.11722879 0.02755287 -0.035404764 -0.0033235187
000150 38 f7 6b bc 37 63 c5 3c f9 0e 2c bd 9f 25 a7 3d
       -0.014402203 0.02409516 -0.042006467 0.081614725
000160 0f a0 3e 3a d6 17 29 bd 58 83 07 3a 33 37 a7 bd
       0.00072717754 -0.041282497 0.0005169413 -0.08164825
000170 14 bf 07 bd 7a 7f 0d 3b 94 c7 9d bd cb 44 7a bd
       -0.03314121 0.0021590875 -0.07704082 -0.061100762
000180 46 c0 7f be fe 69 3f be 89 97 b2 bd aa 8d 6b bc
       -0.2497569 -0.18692777 -0.08720309 -0.014377037
000190 fb fc b2 3c 44 f3 10 bd 3f f2 92 bd b8 76 10 3d
       0.021849146 -0.035388246 -0.07175111 0.03526947
0001a0 e9 e6 94 3d be 05 af bb c2 5c b0 3c 61 44 8d 3d
       0.07270605 -0.0053412607 0.021528605 0.06897808
0001b0 d2 9a 26 3e 52 58 47 bc 70 3f 00 3e 04 ee de bc
       0.16269997 -0.012167053 0.125242 -0.027213104
0001c0 de 8f c0 3d 4f 36 c1 3c 3d 28 b9 bd 8d 72 61 bc
       0.094024405 0.023585467 -0.09040878 -0.013760221
0001d0 d9 42 26 be 1d 70 9d bd 77 62 c9 bc 53 d0 b5 bd
       -0.16236438 -0.076873995 -0.024583085 -0.08877625
0001e0 5a db b5 bd 3a c1 98 bd 14 d1 2e 3d d3 67 32 be
       -0.088797286 -0.0745873 0.04267986 -0.17422418
0001f0 36 7f 10 3d 23 f6 f5 3c 85 54 04 3d 9f 52 44 bd
       0.035277568 0.030024594 0.032307167 -0.047930356
000200 96 38 6f 3c 38 80 62 bc ef 3c 5c 3c 0f a6 fd bc
       0.0146008935 -0.013824515 0.013442262 -0.030962972
000210 fc 17 63 bd a0 3f 0c be 60 6d 81 3c 95 ce 86 3c
       -0.055442795 -0.13696146 0.015799224 0.016455928
000220 62 5e 7f 3c 9f 60 b8 3d fc 53 d6 bd cd 3c 10 bd
       0.015586467 0.09002804 -0.104652375 -0.035214234
000230 44 02 db 3d 6b 81 47 3d 55 d0 28 3d 97 37 a9 bd
       0.106937915 0.048707407 0.041214306 -0.08262556
000240 d8 b3 fe bd f1 be b6 bd 08 2c 8a 3d 0c 5e 1f be
       -0.12436646 -0.08923138 0.067466795 -0.1556322
000250 ed 16 3e be 1a d6 fc bc b7 58 03 be 63 07 ed 3c
       -0.18563433 -0.03086381 -0.12826811 0.028934186
000260 0a 47 9a 3a 47 8a b3 3d 5c 64 41 3e bd 3f ee 3d
       0.0011770439 0.08766609 0.1888594 0.11633251
000270 15 79 cb 3d 91 7d 4d 3c 31 5e bf bc c0 42 bd bd
       0.09935204 0.012542144 -0.023360344 -0.09241247
000280 17 3f 09 be 66 70 0a be 7c c4 66 3d 4c 39 c2 bc
       -0.13402973 -0.13519439 0.056339726 -0.023708962
000290 42 04 6a bc e1 0f a2 3b 9e 86 b8 39 39 cd 3d bd
       -0.014283242 0.0049457406 0.00035195512 -0.046338294
0002a0 c8 e5 c3 bd 1e 49 78 bd 42 2c ea bd ea 81 46 3d
       -0.09565312 -0.060616605 -0.11434223 0.04846374
0002b0 d6 0f 8f 3d 98 6f 3a 3d 02 d1 30 bd 25 fd 70 3d
       0.06985442 0.04551658 -0.043168075 0.058835167
0002c0 d5 66 9d 3a 83 88 8c 3d 3a 49 ba 3d 13 f9 a7 3d
       0.0012008796 0.06861975 0.09095998 0.08201804
0002d0 26 03 74 3d e3 30 ce 3a 8c 58 76 bd 1d 01 ce 3c
       0.059573315 0.0015731122 -0.06014304 0.025147015
0002e0 85 f6 12 be 9f d0 eb 3c 5b 08 b2 bc c3 33 21 3d
       -0.14351852 0.028786002 -0.0217325 0.039356004
0002f0 f9 5a 17 3c 43 cb 87 bd 26 42 31 bd e8 ef 7c bc
       0.009237998 -0.06630566 -0.043275975 -0.0154380575
000300 f7 f3 69 bd 39 f4 74 bd 80 34 b7 bc 5e e1 97 bd
       -0.05711743 -0.05980322 -0.022363901 -0.07416032
000310 c7 23 7d bd 12 85 01 3e 05 c7 ef 3c b4 d1 cf bd
       -0.061801698 0.12648419 0.029269705 -0.101474196
000320 c8 75 e9 bb 0f fa 09 3d d4 0b 10 bd 47 5b f9 3d
       -0.0071246363 0.03368574 -0.03516753 0.12175613
000330 c9 e3 97 bd e5 1f c0 3d 63 a2 0f 3e f8 6b ab 3d
       -0.074164934 0.093810834 0.1402679 0.08370203
000340 b6 50 12 be fb ca 15 be ab f5 81 3c c4 30 5b bd
       -0.14288601 -0.14628212 0.015864214 -0.053513303
000350 14 da 8f 3d 30 aa c1 bd 0a 99 bc 3d 7f 4e 19 3e
       0.07024017 -0.09456289 0.092088774 0.1497135
000360 1a f1 86 3b 88 da 15 3a 00 ea 28 bd fa 4f d6 bd
       0.004118097 0.00057164626 -0.041238785 -0.10464473
000370 bf 39 1f be 29 e5 82 bd 17 db 1c bd 2e 16 88 bd
       -0.15549372 -0.06391365 -0.038294878 -0.066448554
000380 23 f6 3b bd 9a f1 42 bd 15 bc 52 3d 30 a6 85 3d
       -0.04588903 -0.04759369 0.0514489 0.065258384
000390 2b 41 84 3d 2d 96 e6 bd 97 9e 45 3d 56 82 b9 bd
       0.06457742 -0.112591125 0.048246946 -0.09058063
0003a0 1e 4a e8 3d 19 de e5 bc 4f d1 a9 bd 40 f2 30 bc
       0.11342262 -0.028060006 -0.082918756 -0.010799944
0003b0 ca c5 bc 3c a3 cb 0d be 81 b1 19 be 6a 02 41 be
       0.023043532 -0.13847212 -0.15009119 -0.18848577
0003c0 1b 96 4c 3c 1c 34 f7 bd 53 63 84 bd 58 05 c4 3d
       0.01248696 -0.12070486 -0.06464257 0.09571332
0003d0 92 ce d2 3d 63 20 e4 3d cf b2 65 3c f9 0f 3b 3d
       0.102933064 0.1113899 0.014019682 0.04566953
0003e0 8f f2 ef bc 32 6e f7 b9 e4 92 93 bd c8 00 8a bd
       -0.029290466 -0.00047193613 -0.072057515 -0.0673843
0003f0 8b 6b 96 bd 07 9f bc bc 07 85 dd 3d 2f ca a3 bd
       -0.07344731 -0.023025049 0.108163886 -0.07997548

conv_block1.Conv2.bias f4 [16]
000000 8e 9d 27 bd ad a3 1c 3d 52 de 85 3d ae 39 20 be
       -0.04092174 0.03824203 0.06536545 -0.15647003
000010 f9 90 a8 bd ae 82 a5 bc 9e cc 95 bd dc 0c 34 be
       -0.08230776 -0.020203914 -0.07314418 -0.1758303
000020 15 32 0c bd 36 8d 04 bd 5d 91 f2 bb 2a 29 9c be
       -0.03422745 -0.03236123 -0.0074025826 -0.30500156
000030 fb fc 90 3d 39 c0 a4 bd 54 a1 33 bd 2f c9 fb bc
       0.07079502 -0.08044476 -0.043855026 -0.03073558

conv_block1.BN2.weight f4 [16]
000000 af 0b 77 3f 53 40 79 3f cc e2 77 3f e7 41 81 3f
       0.965022 0.97363776 0.9683044 1.0098237
000010 63 62 8c 3f f2 8f 7d 3f 12 94 7a 3f 29 e7 86 3f
       1.0967525 0.9904777 0.9788219 1.0539294
000020 33 9f 61 3f 01 ba 7c 3f 77 54 76 3f 1a 06 96 3f
       0.88133544 0.9872132 0.96222633 1.1720612
000030 9b 9b 74 3f 11 69 6d 3f 9c 23 89 3f fd c2 6a 3f
       0.95549935 0.92738444 1.0713992 0.9170378

conv_block1.BN2.bias f4 [16]
000000 94 d8 2a 3d 5e 87 c7 3c e1 5d f4 bc 3c b1 c0 bc
       0.04171045 0.02435654 -0.029829921 -0.023522012
000010 d9 32 24 bd 1a 5e 42 3d 2b 37 0c ba a3 1f 86 3d
       -0.040087555 0.047453023 -0.0005348797 0.06549003
000020 ec 8e 95 3c ff 61 d2 bd ca 03 cf bd b1 35 bc b9
       0.018256627 -0.102725975 -0.101081446 -0.00035898158
000030 24 94 76 3b 89 b6 27 3d b7 01 f6 3c d5 4d c9 bb
       0.003762492 0.040945563 0.030030115 -0.0061433115

conv_block1.BN2.running_mean f4 [16]
000000 de e2 09 3f be 66 40 3f 74 8d 33 3f cf 76 e8 3e
       0.53861797 0.7515677 0.70137715 0.45403144
000010 e1 ac 27 3f d6 fd e3 3e 14 37 29 3f bb ae e7 3e
       0.6549817 0.445296 0.6609967 0.45250496
000020 34 9e dd 3e 5a 9a 03 3f 67 bf 05 3f fe 08 08 3f
       0.43284762 0.51407397 0.5224518 0.5313872
000030 6f b7 ea 3e 25 30 f1 3e d7 1a 35 3f 9a 4b db 3e
       0.45843074 0.47107044 0.7074408 0.42831117

conv_block1.BN2.running_var f4 [16]
000000 1a f7 3c 3f 70 9c 8b 3f 10 43 8e 3f 16 17 34 3f
       0.7381455 1.0907116 1.1114216 0.70347726
000010 a8 ff a7 3f ee d5 0d 3f fa 5f 8d 3f 79 00 2f 3f
       1.3124895 0.55404556 1.1044915 0.68360096
000020 9a d2 0c 3f a2 1c 4a 3f 99 00 17 3f ab 75 a1 3f
       0.5500885 0.7894994 0.58985287 1.2614034
000030 b9 e1 14 3f f3 ba 10 3f 32 a5 c7 3f df 9b 24 3f
       0.58156925 0.5653526 1.5597289 0.6430034

conv_block2.Conv3.weight f4 [32, 16, 3, 3]
000000 4a 4f 04 3e 73 c6 49 bd b8 81 d8 bc 43 ee 75 bd
       0.12920871 -0.04926152 -0.026429042 -0.060041677
000010 31 a3 ec 3d 94 95 cc bd d8 94 64 bc fe 1e 88 3d
       0.11554564 -0.09989467 -0.013951503 0.06646536
000020 ae 23 fc bd b1 f1 2b 3d 77 48 44 bd 36 14 f2 3c
       -0.12311493 0.04197854 -0.04792067 0.029550653
000030 1e 37 55 3d 09 17 73 3d f9 b9 7b bc 5a 58 20 3d
       0.052054517 0.05934814 -0.015364164 0.03914676
000040 09 47 83 bd d2 48 67 bd 9c 06 fe bb 19 39 97 3c
       -0.06410033 -0.05646593 -0.0077522527 0.018459843
000050 5c d9 7b 3d 08 7d 4f bd 3f d0 81 bd 45 f4 eb 3d
       0.061486587 -0.05065635 -0.06338548 0.115212
000060 76 e3 e3 3b 1c ae 82 3d 8e a4 23 bd 2c 87 d9 3c
       0.0069546057 0.06380865 -0.039951853 0.026553713
000070 22 aa 6d bd 66 fb a2 bc a1 3f 15 bd 2b a8 81 3b
       -0.05802358 -0.019895267 -0.036437634 0.0039568148
000080 c8 0b 79 3d c0 e6 fd bb 3f 27 71 bd 8f 63 9d bd
       0.06080225 -0.007748455 -0.05887532 -0.07685005
000090 27 44 02 3e c5 9e 6c bd 03 fd e8 bd f5 2c 35 3d
       0.1272131 -0.057768602 -0.11376383 0.044232327
0000a0 89 e0 9a 3c 99 e1 c6 bd 5a 60 c1 bd 4d 20 ad 3c
       0.018905895 -0.09710998 -0.09442206 0.021133566
0000b0 20 ed ce bd c3 f4 90 bd 31 5f 83 bc e9 cd df bd
       -0.10103822 -0.070779346 -0.016036602 -0.10927946
0000c0 aa 90 dc 3d ce a7 73 bc 7d 93 57 3d 9c b8 f0 3d
       0.1076978 -0.014871551 0.05263089 0.117539614
0000d0 dc 34 8c 3d d1 4c b0 3c f8 33 a7 bd a8 8a ad bd
       0.068460196 0.021521004 -0.08164209 -0.08473712
0000e0 e0 5e bc 3c 4d f0 52 bd e3 d2 5e 3d df 75 d8 bc
       0.022994459 -0.0514987 0.054400336 -0.026423393
0000f0 fa be 39 3e 84 94 ac bb a1 8f 85 3d 47 4e 52 bc
       0.18139258 -0.005266728 0.06521536 -0.012836046
000100 ff 7d 3c 3e 53 b1 ec 3c ea cf 0f 3e 14 9c 2e 3e
       0.18407439 0.028893149 0.14044157 0.17051727
000110 13 c7 cc bc 95 31 2f 3d 14 ec b3 3c 3b 02 fe bd
       -0.02499727 0.042771894 0.021963157 -0.12402769
000120 0a f8 7a 3c 3b 64 e8 3a 9a c5 dc 3b cd 23 39 3d
       0.015317926 0.0017730066 0.006737423 0.045200158
000130 b3 6d 88 bd ff ff 6c bb e8 e4 a5 3c 23 c6 07 3d
       -0.066615485 -0.0036163328 0.020250753 0.033147942
000140 69 31 be bc 00 5a 9b bc 3a 7c 5b bd da 3f 1d bc
       -0.02321692 -0.018963814 -0.05358527 -0.009597743
000150 64 41 a7 3d c8 fd 2c 3d c1 b5 19 be a4 cf ba 3d
       0.08166769 0.042234212 -0.1501074 0.091216356
000160 7a e1 3d bd bd 5f aa 3d 94 bb 54 3c 88 3c c2 bd
       -0.04635761 0.08319042 0.012984175 -0.09484202
000170 cb c6 95 bd a7 07 aa 3d e8 fd b5 3d a2 93 5f bb
       -0.073133074 0.08302241 0.088863194 -0.0034115096
000180 c6 54 9d 3c 10 3b 51 3d 7b 52 86 3d a0 fa c4 bd
       0.019205462 0.051081717 0.06558701 -0.096181154
000190 51 1a c3 bd 97 f0 3b bd 57 25 8d 3d cd b5 18 3d
       -0.09526504 -0.04588374 0.06891888 0.037282754
0001a0 7b 8f a3 3d 9e cd 39 3d f8 65 c6 3d 14 4e f6 3d
       0.07986351 0.045362107 0.09687418 0.12026611
0001b0 79 63 97 3c ff e6 b9 3b 1d fe 7a 3d d5 f1 2f 3e
       0.01848005 0.005673289 0.061277498 0.17182095
0001c0 34 b1 a3 3d a7 fc e2 3d 4e 9f 0a 3e 9a 20 38 3d
       0.07992783 0.11083346 0.13537332 0.044952966
0001d0 73 48 ba bc 29 92 2a bd 0a 00 19 bd d7 33 97 bd
       -0.022739625 -0.041643295 -0.037353553 -0.073829345
0001e0 74 af 33 bd 5b d3 2b 3d c6 26 4d 3c e7 a9 fe 3c
       -0.043868497 0.04194961 0.012521451 0.031086875
0001f0 bf ff 1a bd 8b 22 81 bd 1c 4a b5 3d ef 61 22 3e
       -0.037841555 -0.06305417 0.08852026 0.15857671
000200 45 59 89 bd 1b 0d 05 bd 4a 3a 89 3d d9 a1 40 3c
       -0.0670648 -0.0324832 0.06700571 0.0117573375
000210 31 69 3c bd 2b 3a 32 bd 84 06 e3 bc 21 e0 b8 bd
       -0.045998756 -0.043512505 -0.027713068 -0.09027124
000220 87 4a 48 3d c1 37 a0 3b 8c 02 e5 bd ba 00 96 bc
       0.0488992 0.004889459 -0.111821264 -0.018310893
000230 a2 0a f5 bd 88 7d 2e 3d 32 c2 b1 ba dc da 38 be
       -0.11964919 0.042600185 -0.0013561903 -0.18052238
000240 4d 3c 43 bd c1 c4 8f 3d 08 b6 39 3d 27 8b 79 bc
       -0.04766493 0.0701995 0.045339614 -0.01523093
000250 67 f3 e7 3d 89 49 c1 3d bd 53 b0 bc 42 66 91 3c
       0.11325722 0.09437854 -0.021524305 0.017748956
000260 2b de 39 bd e9 d4 3d bd b1 de d3 3d 80 bc 85 3d
       -0.04537789 -0.046345625 0.103452094 0.06530094
000270 3d 7c b9 bd 69 c0 00 3e e5 17 35 bd b0 30 fc bd
       -0.090569 0.12573399 -0.04421224 -0.12313974
000280 39 39 19 be 29 a8 b2 bd 60 03 35 39 78 3d 13 bc
       -0.14963235 -0.0872348 0.00017262762 -0.008986823
000290 d6 d2 a9 bd dc bf c4 bd 03 16 a8 bc ad 6a c1 bd
       -0.08292167 -0.09606907 -0.020518309 -0.09444175
0002a0 93 e6 34 bd 80 fd 13 3e 73 54 0b bd 64 b2 cf 3d
       -0.044165205 0.14452171 -0.034016084 0.10141447
0002b0 11 8f 13 3c d4 ee b3 bd 79 77 d5 bd 4b 7b 9e bd
       0.009006278 -0.08785787 -0.10423178 -0.0773836
0002c0 c9 36 89 bd 7d 6f 1c 3e 8a 23 a2 3d 50 bb 7e 3d
       -0.066999026 0.15276904 0.07916935 0.062190354
0002d0 42 ae de bd 6b 28 85 bd d3 b1 1d 3d 60 5b 99 bd
       -0.10873081 -0.0650185 0.038499665 -0.074881315
0002e0 7b 29 97 bc 33 63 2c bd 50 fe 31 bc 86 69 97 bd
       -0.018452397 -0.04208679 -0.0108638555 -0.07393174
0002f0 4d a8 54 bd 72 10 69 bd 36 84 8a 3d 23 e9 ec 3c
       -0.051918317 -0.05690045 0.067634985 0.028919762
000300 e4 10 1f be 7b 27 5d bd a1 b5 62 3d 8b 15 08 3c
       -0.15533787 -0.05399273 0.055348996 0.0083059175
000310 9c ff a3 bd 95 dc 13 3e e1 a3 17 bd 24 ea 7e bc
       -0.08007738 0.14439614 -0.03702152 -0.015558753
000320 d1 9f a5 bc 88 5e 99 3d 7a d3 4d 3c a7 73 68 3d
       -0.020217808 0.074887335 0.012562627 0.05675092
000330 bb 88 f0 3d 71 7f 6b bd 46 bb 97 3d 9e 2c 0e 3c
       0.11744829 -0.057494584 0.074087664 0.00867763
000340 66 98 30 3e 1b 47 93 3b 41 d1 e6 3d 31 f4 8a 3d
       0.17245635 0.0044945604 0.11270381 0.06784857
000350 15 43 0d bc bf 95 93 bd 6c 35 bb 3d 83 cf bc 3d
       -0.008621951 -0.07206296 0.09141049 0.09219267
000360 fb 89 02 be f8 64 99 bd 07 06 b5 bd 9c 15 ef bd
       -0.12747948 -0.074899614 -0.0883904 -0.116740435
000370 ac eb e3 bd f0 34 31 bb 6f a0 74 bc 04 69 9f 3d
       -0.11128935 -0.002703961 -0.0149308285 0.07783702
000380 6f 6e a3 3d 7f fd 18 bd 23 82 2c 3d d8 2d 3a bd
       0.07980048 -0.037351128 0.042116296 -0.045453876
000390 b0 f9 fc bd 0c 6d 37 be 20 b6 fc bd 37 c0 e6 bd
       -0.123523116 -0.17912692 -0.12339425 -0.11267131
0003a0 6f 22 85 bc f3 34 87 3d 7f f3 49 3c 25 7c 76 3d
       -0.01625177 0.06601896 0.01232612 0.060176987
0003b0 42 32 21 3e 62 9e fc bc 2b bc 14 ba 44 3a b6 3c
       0.15741828 -0.030837242 -0.0005673791 0.02224458
0003c0 8e 65 34 bc df be ce 3d 8b 03 05 3c cc a7 8d 3d
       -0.011010541 0.100949995 0.0081185205 0.0691677
0003d0 d5 8b fe 3d a2 4b af 3d d6 1e 0d bd f6 0e 0e 3e
       0.124290146 0.08559348 -0.034453236 0.13872895
0003e0 68 f0 0f 3e 60 ab 99 3d 8e 66 08 3e 0b b1 c5 3c
       0.14056551 0.0750339 0.13320372 0.024132272
0003f0 3a f5 4f 3d 49 e4 d0 bd 0c dd 93 bd 67 92 e1 b9
       0.050770976 -0.10199792 -0.07219896 -0.00043024422

conv_block2.Conv3.bias f4 [32]
000000 6a 45 71 39 0f 25 c7 3a 81 86 f5 3c ea 4f 0f 3d
       0.0002300941 0.001519354 0.029971363 0.03498832
000010 eb 2b 9a 3d 32 6c 89 bd f3 18 53 3d 22 51 e5 bd
       0.07527908 -0.0671009 0.051537465 -0.111971155
000020 e1 f6 2d bc 71 1e 27 3c 70 fa 60 3d 9c 9d f7 3c
       -0.010617943 0.010200129 0.054926336 0.030226521
000030 4c 06 5a bd 93 8f 34 3d a3 90 26 3d 60 e9 c5 3d
       -0.05322866 0.044082236 0.04066528 0.096636534
000040 7e a2 4a 3e f3 51 db bd a4 ef 7c 3d dd a3 62 bd
       0.19788548 -0.1070899 0.061751977 -0.055332053
000050 99 55 4d bb d6 f3 d8 bd 8e d3 5e 3e b2 fb 1b 3d
       -0.0031331538 -0.10593383 0.21760389 0.038081832
000060 3a 1d 06 be be c1 2f 3d 2b 29 16 be 6a a8 67 bc
       -0.13097087 0.042909376 -0.14664142 -0.014139274
000070 fe 85 9d bc de 92 12 3d dd 66 d7 3d 09 af b0 3d
       -0.019228932 0.035784595 0.105176665 0.08627135

conv_block2.BN3.weight f4 [32]
000000 67 37 6e 3f 94 48 6a 3f 24 05 87 3f 45 17 84 3f
       0.9305329 0.91516995 1.0548444 1.0319601
000010 f5 e6 74 3f 42 ff 8e 3f be 16 85 3f 46 86 82 3f
       0.9566491 1.1171649 1.0397565 1.0197227
000020 3c 22 87 3f af fa 8f 3f 9a 31 7b 3f 39 15 81 3f
       1.0557323 1.1248378 0.9812256 1.0084602
000030 d4 35 66 3f b1 ae 63 3f 10 ab 72 3f 12 38 7c 3f
       0.89925885 0.8893843 0.9479227 0.98523057
000040 03 d2 86 3f 56 c5 6c 3f 4b 08 89 3f aa 50 80 3f
       1.053284 0.9248861 1.0705656 1.0024617
000050 a1 54 81 3f fc 1e 76 3f 57 45 82 3f e5 83 73 3f
       1.0103952 0.9614103 1.0177411 0.9512313
000060 e1 d3 7f 3f cc ce 81 3f 48 5a 78 3f 5f 15 81 3f
       0.99932677 1.0141234 0.9701276 1.0084647
000070 d9 80 67 3f 51 40 82 3f 90 53 7d 3f 05 a3 86 3f
       0.9043098 1.0175878 0.9895563 1.05185

conv_block2.BN3.bias f4 [32]
000000 c3 2a 57 bb fd 21 87 3e 5c 97 93 bd 82 b9 4c 3c
       -0.0032831884 0.26393119 -0.07206604 0.0124954
000010 46 fa a6 bd 23 b6 0f bd 9c 1a 47 3d 23 eb ba 3d
       -0.081532046 -0.03508581 0.04860936 0.0912688
000020 e3 9c 7a 3d 31 9c a0 bd c0 a4 35 3d a4 c5 8f 3d
       0.061184775 -0.07842291 0.04434657 0.07020119
000030 6a d8 2a 3d c9 cf 31 3e e0 db d7 3b 32 5f 65 3e
       0.041710295 0.1736442 0.0065874904 0.22399595
000040 29 f1 09 bd a7 1a 45 3e 4a e3 8f ba 46 33 bd 3d
       -0.033677254 0.19248448 -0.0010977772 0.09238295
000050 ee f1 49 3e 5a 62 ac 3d 01 57 fc 3d 44 28 2c 3e
       0.19721195 0.084171966 0.12321282 0.16812235
000060 79 46 2c 3e 8a 84 ad 3c a1 d6 38 3e e1 d7 cc 3d
       0.16823758 0.021181364 0.18050624 0.10002113
000070 48 98 d7 bd 47 a5 03 3e 51 4b 2a 3e eb 5c 53 3e
       -0.10527092 0.12856017 0.16630293 0.20640914

conv_block2.BN3.running_mean f4 [32]
000000 58 08 6e 3f b3 f1 38 3f 3d dc 0e 3f d4 2f 56 3f
       0.9298148 0.72243804 0.55804807 0.8366673
000010 12 00 75 3f cf 92 ae 3e 85 25 3b 3f 0f 2d d6 3e
       0.9570323 0.3409638 0.73104125 0.41831252
000020 72 84 40 3e a8 af 1d 3f 40 e0 6e 3e 1a 3c 8c 3f
       0.18800524 0.61596155 0.23327732 1.0955842
000030 fd 67 6e 3f fe 70 4f 3f 70 39 81 3f 04 ef 4e 3f
       0.93127424 0.8103179 1.0095654 0.8083346
000040 04 7b 5c 3f a8 36 21 3e 35 24 36 3e 4d 5e 25 3f
       0.86125207 0.15743506 0.1778725 0.64597017
000050 e1 03 c3 3e 66 1c 9b 3e ca dc 9f 3e 46 ea 81 3e
       0.38088897 0.30295104 0.31223136 0.2537405
000060 98 9b 47 3e 12 90 07 3f b8 7e 20 3e ce 8c 13 3f
       0.19492948 0.5295421 0.1567334 0.57636726
000070 9e 00 a0 3f b0 0c d4 3e d7 0f 1f 3f d0 f8 c4 3e
       1.2500188 0.4141593 0.62133545 0.3847108

conv_block2.BN3.running_var f4 [32]
000000 35 5a 88 3f 5c ad 6e 3f 72 07 5d 3f 8c f7 a2 3f
       1.0652529 0.93233275 0.86339486 1.2731795
000010 f6 f5 96 3f 31 26 d4 3e 18 77 a5 3f a6 dd 09 3f
       1.1793811 0.41435388 1.292697 0.53853834
000020 81 db 54 3e 26 4b 5b 3f f2 ed 8a 3e c7 8e f2 3f
       0.20786859 0.8566154 0.27134663 1.8949822
000030 f0 39 b4 3f e5 44 8e 3f e4 2a b0 3f 95 e8 85 3f
       1.4080181 1.1114775 1.3763089 1.0461603
000040 32 82 94 3f f3 a7 3f 3e 18 10 78 3e 94 c2 4c 3f
       1.1602232 0.18716411 0.2422489 0.799844
000050 5c 46 22 3f ae a5 b9 3e ca 37 b6 3e 29 84 a2 3e
       0.6338861 0.36259216 0.3558944 0.31741455
000060 3f 59 70 3e 3a ec 43 3f 2e 07 3b 3e 97 89 80 3f
       0.23471545 0.7653233 0.18264458 1.0041989
000070 6e 7e 26 40 6b f4 06 3f c2 ef 80 3f 25 6d 08 3f
       2.6014667 0.527167 1.0073168 0.5329154

conv_block2.Conv4.weight f4 [32, 32, 3, 3]
000000 d3 6b 01 bd 9c e0 03 bd 66 da fb bd 51 bd 5a bc
       -0.03159697 -0.032196626 -0.122975156 -0.013350801
000010 83 42 da bc 35 21 7f 3c e7 2e 4f 3d e6 54 5b bc
       -0.026643043 0.015571882 0.05058184 -0.013386941
000020 bf 75 db 3b c5 15 ef 3b 09 ef 54 bd c0 7d cc bd
       0.006697386 0.0072962963 -0.051985774 -0.099849224
000030 55 8b bb bd d6 c0 49 be d6 73 b9 3b 3a 05 45 3c
       -0.09157435 -0.19702467 0.0056595607 0.012025172
000040 5c 03 44 3d d7 e6 d2 3d a4 3d 72 3d 06 4e 29 3e
       0.047854766 0.102979355 0.059140816 0.1653367
000050 3f c5 06 3d 8a d9 7e 3c fb 26 cc 3d 16 7b c1 3d
       0.032902952 0.015554795 0.099683724 0.09447305
000060 18 28 1b 3d bf bb 94 3d 3b 52 2c bc 3d 99 50 bd
       0.037880033 0.07262372 -0.010517652 -0.05092739
000070 70 ae 15 3d 55 a6 30 bd 24 17 57 3d dd f2 a5 3d
       0.03654331 -0.043127377 0.052512303 0.08102963
000080 34 af ad 3d aa 07 25 bd c5 84 e1 3d 69 28 8e 3c
       0.08480683 -0.040290512 0.11011652 0.017353253
000090 31 6c ab bb 82 c6 7c 3c dd 93 98 bd 49 c9 fc bd
       -0.0052314033 0.015428187 -0.07450078 -0.123430796
0000a0 ea 8e 7f bd 49 6a 92 bd ef 6d 5f bc f3 0e 68 bd
       -0.062392153 -0.071491785 -0.01363705 -0.05665488
0000b0 f1 55 d5 3c d3 75 0a 3d ab a7 1b 3d c9 fe 96 bc
       0.026041957 0.033803772 0.038001698 -0.018432038
0000c0 a9 44 09 3e 6f 8c 7d 3d 37 88 0f 3d a2 36 05 bd
       0.13405098 0.061901506 0.035042014 -0.032522805
0000d0 54 71 0b bd 0b 68 c2 bd fd f3 00 be 9a b7 1e bd
       -0.034043625 -0.09492501 -0.12593074 -0.038749315
0000e0 6c a8 49 bd 0c a1 31 bd 7a 7a ae 3d 21 34 3c 3d
       -0.049232885 -0.043366477 0.08519454 0.04594815
0000f0 91 cd 25 bc 42 8a 28 bd 32 74 0b bd b3 38 b9 3c
       -0.010119812 -0.041147478 -0.03404636 0.022610044
000100 21 1e a7 bc 0b 91 b4 bd 96 12 1d 3e 88 2c 22 3a
       -0.020400109 -0.08816727 0.15339121 0.0006186445
000110 ec 77 ac bd 57 11 cb bc ae 44 42 bc 37 e7 54 3d
       -0.08421311 -0.024788542 -0.011857195 0.051978316
000120 e4 02 67 3c ee 45 d7 3a 27 45 87 bc 44 a9 60 bd
       0.01409981 0.0016424039 -0.016512467 -0.054848924
000130 12 ed 9e bd dd f8 af 3c d8 cc a2 bd 27 7d be bd
       -0.07760061 0.021480972 -0.07949227 -0.09301215
000140 01 4b 13 bc 3e 6f 08 be eb 42 89 ba 58 a1 cb 3c
       -0.00899005 -0.13323686 -0.0010472214 0.024857208
000150 e2 11 19 be af 6c f5 3c 84 a3 ae 3d 78 b8 52 3c
       -0.14948228 0.029959051 0.08527282 0.012861364
000160 fd aa b4 bb 89 c7 aa bc 0a b2 93 3d d0 c9 44 bd
       -0.0055135475 -0.020847099 0.07211693 -0.048044026
000170 ae e9 83 3d 9d 95 75 bd 6d 6f 12 bd 0e 94 75 bd
       0.06441055 -0.059957135 -0.035750795 -0.05995565
000180 05 a7 5d 3d 23 cf ad 3d 28 05 3f bd 98 09 9a bb
       0.05411436 0.08486774 -0.046635777 -0.0047008507
000190 ea 26 9b 3d b7 00 af 3d d4 9a df 3c c8 e3 fb 3d
       0.07575782 0.08545058 0.027295507 0.12299305
0001a0 c0 2a 7b 3d b1 2f 75 3d 47 1e 99 3d 5b 65 17 3e
       0.061320066 0.059859935 0.07476478 0.14784758
0001b0 3d c2 5a 3c 9b 4a 9a bc fb 24 ff bc fa b2 05 bd
       0.013351974 -0.018834403 -0.031145563 -0.03264139
0001c0 44 6f a5 bc 16 61 a3 3d da e6 c3 bc 35 5b 4e bd
       -0.020194657 0.07977502 -0.02391379 -0.05037995
0001d0 ae 28 2c 3d a4 c8 b1 39 4c aa 8a bd 7d 95 89 bd
       0.042030983 0.0003390956 -0.06770763 -0.06717966
0001e0 37 3f a8 bb 85 73 29 3d 64 be 91 bb 01 8d 80 bc
       -0.005134489 0.041369934 -0.004447745 -0.015692236
0001f0 f3 08 9f 3c f5 31 98 bd 17 91 7c bd 60 3c bf bb
       0.019413447 -0.074314035 -0.061661806 -0.0058360547
000200 13 5a ca 3d db 3b 1c 3d 32 69 21 3d cc 5a 98 3d
       0.098804615 0.03814302 0.039406963 0.07439193
000210 c7 1d 23 3d 2f 56 ef 3b da 9c ec bd e5 ae 06 3e
       0.03982332 0.007303975 -0.115533546 0.13152654
000220 61 28 88 3b c2 72 31 bd 9c ec 98 bc f6 dc 24 3d
       0.004155204 -0.043322332 -0.018667512 0.040249787
000230 23 4c 1b bd e9 75 af bd d7 01 fa bd c3 20 80 bb
       -0.037914407 -0.085674115 -0.12207382 -0.0039101555
000240 23 db 88 3b 12 6a dc bc 97 21 67 3d 43 90 2e bc
       0.0041765138 -0.026906047 0.05642852 -0.010654512
000250 83 0b 8d bd 6d ef dc bd 34 25 3d 3d 0c 18 2f 3c
       -0.06886961 -0.10787854 0.046178058 0.010686886
000260 db f2 90 bc 9d 3f c9 3a 60 30 3c be 3d 59 02 be
       -0.017693928 0.0015354041 -0.18377829 -0.12729354
000270 89 bd c3 bc df 32 a6 bd 8d a8 1e be c8 09 cf 3c
       -0.023894088 -0.08115172 -0.15493985 0.025273219
000280 86 0d 61 bd f7 aa 15 3d a7 5a eb bd d2 02 df bd
       -0.054944538 0.036539998 -0.114919 -0.1088921
000290 27 9f 02 3d d3 08 ce 3c 2f b0 e4 bd f7 e9 d8 bc
       0.03189006 0.025150692 -0.11166417 -0.02647875
0002a0 bb ed 27 3d dc be d1 bb 7b e5 0c 3d 6d 80 bf 3d
       0.0409982 -0.006400926 0.034398537 0.09350667
0002b0 d3 d2 dc bd 5b cf 99 bd dc 35 70 bb f4 df 8e bd
       -0.10782399 -0.07510253 -0.0036653196 -0.069763094
0002c0 bd cd 7b bd b1 99 58 bd 7f 59 9e bd ca cd 8d bd
       -0.061475504 -0.052880947 -0.07731914 -0.06924017
0002d0 fd c7 bf bd 8d 0b c6 bd 8c c1 5f be 20 83 50 bd
       -0.093643166 -0.09670172 -0.21851176 -0.0509063
0002e0 66 26 9f bc 32 08 20 3d 17 d9 4c 3d 51 b5 5b 3c
       -0.01942749 0.039070316 0.05001172 0.013409928
0002f0 50 af 9a 3d 23 30 c3 3c df 58 a3 bd 0a 01 00 be
       0.075529695 0.023826664 -0.07975935 -0.12500396
000300 60 64 6d bd af ff 69 bd 84 95 cf bd 78 cb b6 bd
       -0.057957053 -0.057128605 -0.1013594 -0.08925527
000310 78 bb 25 bd 52 72 a0 3c 65 90 a7 3d 6f 6a bc bd
       -0.040461987 0.019585762 0.08181838 -0.09199988
000320 78 a3 d2 bc 9d 7b 83 3c 50 69 a3 bd f3 2f ca bd
       -0.025712714 0.016050154 -0.07979071 -0.09872427
000330 e1 d3 81 bd da 07 0c 3c 8b 73 05 3a 1d da 6d bb
       -0.06339241 0.008546794 0.00050907646 -0.0036293336
000340 1c 43 c2 bd 53 1e d0 3d 42 ff 7a bd 7b 71 84 39
       -0.09485456 0.10162034 -0.06127859 0.00025261551
000350 30 61 55 bc 47 9b 3c bd fa 41 06 3d 27 e2 f7 3c
       -0.01302366 -0.04604652 0.032777764 0.030259205
000360 95 2d 09 3d f1 cf 72 3d 15 b4 87 bd 6b f5 64 bc
       0.033490736 0.05928034 -0.06626145 -0.013974528
000370 52 c2 a2 bd ed 87 a7 bd 09 7f f4 3c 75 f9 c8 bc
       -0.0794722 -0.08180223 0.029845731 -0.024533013
000380 6f a9 ff bd 6b a6 c8 bc 30 e9 b1 bc b5 59 ed 3c
       -0.12483489 -0.024493417 -0.021717638 0.02897344
000390 28 fd f6 3c 5b 6b db 3d 7d 92 ce 3d 58 36 96 3d
       0.030150011 0.10713836 0.10086534 0.07334584
0003a0 83 c8 ef bd 33 5c ee bc 97 9e 87 bc 35 bd 81 3d
       -0.117081665 -0.029096698 -0.016555114 0.063349165
0003b0 21 ff 80 bd 48 3f 85 3d ab 6f bf bd 6c 70 e7 bd
       -0.06298662 0.065062106 -0.09347471 -0.1130074
0003c0 65 9f bd 3d c7 ca 34 bd 5c 3d d0 bd 55 5c 25 bd
       0.09258918 -0.044138696 -0.10167953 -0.040371258
0003d0 32 8a d4 3b be 69 16 3e 63 0a a2 bb 1c 3f d7 3d
       0.0064862007 0.14688775 -0.004945086 0.10510084
0003e0 44 d1 8b bc d9 0e 2f 3e c4 48 d4 3c 07 45 26 3c
       -0.017067559 0.17095508 0.025913604 0.010148293
0003f0 65 9a 4a bd b8 dc 02 be fc 25 5b 3d 67 fa 2a be
       -0.04946365 -0.1277951 0.05350302 -0.16697083

conv_block2.Conv4.bias f4 [32]
000000 8e f2 36 3b 85 ea 05 be a5 0b ac 3c 34 46 1f be
       0.002791557 -0.13077743 0.021001646 -0.15554124
000010 17 bb 4a 3a fa 66 69 bd 00 b1 49 be ad 34 90 bd
       0.0007733567 -0.05698297 -0.19696426 -0.07041297
000020 ed 47 90 bc cf 00 bf bd 04 de f8 bc a9 93 07 3d
       -0.017612422 -0.09326326 -0.030379303 0.033099804
000030 18 4d 08 be 89 17 f0 bd ce 5a 28 bd 08 98 bf 3b
       -0.13310659 -0.11723239 -0.041102223 0.005846981
000040 1d f2 bc bd 6e 03 0e be 4e 88 a8 3c e2 e4 3b be
       -0.09225867 -0.13868496 0.020572808 -0.1834903
000050 45 e1 40 ba 6b a6 f9 3c ec 5d 53 be 0c 06 05 3c
       -0.00073577865 0.030474862 -0.20641297 0.0081191175
000060 03 c4 a3 bc eb cb c9 bd a6 26 14 bd 8b 1b 95 3d
       -0.019990927 -0.098533474 -0.03616967 0.07280644
000070 cd e4 1f be 20 13 24 bd f1 00 58 bd ce 55 06 be
       -0.15614624 -0.0400573 -0.052735273 -0.1311867

conv_block2.BN4.weight f4 [32]
000000 10 6d 79 3f 0b 92 83 3f 30 1c 82 3f f2 f0 82 3f
       0.9743204 1.0278944 1.0164852 1.0229781
000010 45 23 78 3f fb fc 7b 3f d6 ad 7e 3f 97 a1 7f 3f
       0.9692882 0.9843289 0.99484 0.9985594
000020 f9 14 84 3f 69 0b 89 3f 8e 4b 81 3f 9d ed 69 3f
       1.03189 1.0706607 1.0101182 0.91378194
000030 b8 4f 89 3f 1d 3b 89 3f e1 14 76 3f 4f 6c 71 3f
       1.0727453 1.0721165 0.9612561 0.9430589
000040 dc 09 6b 3f f2 39 7b 3f 17 4b 86 3f 6d eb 77 3f
       0.9181192 0.9813529 1.0491666 0.96843606
000050 fa c7 73 3f fa 14 84 3f 12 95 72 3f e0 fe 86 3f
       0.95227015 1.0318902 0.94758713 1.0546532
000060 34 22 66 3f 4f b4 82 3f 28 4c 72 3f ef cc 8b 3f
       0.8989594 1.0211276 0.94647455 1.0921916
000070 0e 62 8b 3f e7 3f 7c 3f b3 8f 82 3f d4 5b 76 3f
       1.0889299 0.9853501 1.0200104 0.9623387

conv_block2.BN4.bias f4 [32]
000000 e4 b2 15 bd 9f b4 1e bd b8 ac ab 3d f5 46 cf bb
       -0.036547557 -0.038746472 0.08382553 -0.0063255974
000010 fb 97 80 bc 07 f1 d4 bc 8a 0e a5 bc 18 9d 47 bc
       -0.01569747 -0.025993837 -0.020148534 -0.01218345
000020 d8 03 91 bd 21 b7 65 bd 44 dd 0a 3c 41 96 13 3d
       -0.07080811 -0.05608285 0.008475605 0.036031965
000030 ca e8 63 bc 83 2e 80 3c 13 68 51 bd 71 fd e0 39
       -0.013910482 0.015647179 -0.051124644 0.00042913438
000040 51 4d 50 bd 89 80 07 be ab 9b 83 bd 10 fe a0 bb
       -0.050854985 -0.13232626 -0.06426176 -0.004913099
000050 c4 e3 09 bd c3 67 8c bc 7f 3a 94 bd a2 08 cf bd
       -0.03366448 -0.017139321 -0.0723772 -0.101090685
000060 db 25 20 be 15 74 4f bd 70 eb 8b bd 3b 03 6a bd
       -0.1563944 -0.050647814 -0.068320155 -0.057131987
000070 07 a5 8e bd 7b 8c 68 bd 9a 20 1b 3c 6b c8 74 be
       -0.0696507 -0.056774598 0.009468222 -0.23904578

conv_block2.BN4.running_mean f4 [32]
000000 8e 23 f0 3e 1c 77 17 3f 07 d4 22 3f 18 c1 1b 3f
       0.46902126 0.5916612 0.6360478 0.6084151
000010 79 85 e8 3e 54 ea f0 3e 3b 6d fa 3e c8 a2 a2 3e
       0.45414332 0.47053778 0.4891146 0.31764817
000020 f9 e5 1a 3f b0 59 30 3f a3 da 00 3f 97 e8 1a 3f
       0.6050716 0.6888685 0.50333613 0.60511154
000030 4f c9 04 3f 43 71 12 3f ce 66 06 3f 2a 2b e6 3e
       0.5186967 0.57204074 0.5250062 0.44954807
000040 df 3e d8 3e 88 b2 07 3f 5e 1b 1e 3f cc ab 1e 3f
       0.42235467 0.5300679 0.6176051 0.6198089
000050 8e 4f 3e 3f 0a 47 2b 3f f1 55 ed 3e 6a f4 4e 3f
       0.7434014 0.6690527 0.4635463 0.80841696
000060 70 c4 18 3f af cd 0a 3f ea 69 1a 3f 6a 74 0d 3f
       0.5967474 0.542201 0.6031786 0.5525576
000070 aa c6 08 3f d0 4b 25 3f 64 c3 d7 3e 08 83 07 3f
       0.5342814 0.64568806 0.4214126 0.5293431

conv_block2.BN4.running_var f4 [32]
000000 bd 04 56 3f 17 ef 99 3f f0 c0 81 3f d7 c3 a2 3f
       0.8360098 1.202609 1.0137005 1.2716016
000010 0f 4e 27 3f 8e 4a 5c 3f d1 95 73 3f 21 af ee 3e
       0.6535348 0.8605126 0.95150477 0.46617988
000020 8c da 8e 3f e4 56 c7 3f 5e 31 70 3f 89 a1 4b 3f
       1.1160445 1.5573392 0.9382533 0.7954336
000030 94 08 58 3f 3c bc 81 3f df b2 54 3f 74 01 16 3f
       0.8438809 1.013557 0.83085436 0.5859597
000040 25 76 2d 3f 2b e3 81 3f d6 60 72 3f 3e 20 89 3f
       0.677584 1.0147451 0.9467901 1.0712965
000050 96 65 95 3f a7 51 81 3f fa 15 3c 3f a0 d0 aa 3f
       1.1671627 1.0103043 0.73471034 1.3344917
000060 83 28 7f 3f 29 37 62 3f bf 0a 98 3f b6 c9 6a 3f
       0.9967119 0.8836542 1.187828 0.91714036
000070 95 58 65 3f da 79 87 3f cb 76 27 3f 0a 09 65 3f
       0.8958829 1.0584061 0.6541564 0.8946692

conv_block3.Conv5.weight f4 [64, 32, 3, 3]
000000 6c 0a 31 be da fd 73 bd a4 20 16 bb bf aa 24 bc
       -0.17289132 -0.059568264 -0.002290764 -0.010050475
000010 59 32 b9 3d b5 59 da 3d 07 d3 0f 3d 6f 6c 1e 3d
       0.09042806 0.106616415 0.03511336 0.03867763
000020 b2 b1 1e bd 9c 1d 07 3b fe 65 02 bd 2d 15 8a 3c
       -0.038743682 0.0020617014 -0.03183555 0.0168558
000030 b9 96 ce bd 02 21 75 3d e9 d0 ce 3d 3c 7a 44 bd
       -0.10087342 0.05984593 0.1009844 -0.047968134
000040 0f c5 4c 3d 72 2a 7f 3d 31 73 35 be cc 6a 93 bb
       0.049992617 0.06229634 -0.17719723 -0.004498815
000050 40 88 8a bd fe 6b 1c bc 34 a6 8a 3d f9 b0 d5 3d
       -0.06764269 -0.009547232 0.06769982 0.104341455
000060 42 80 a2 3c ed ea 56 3d 7b a6 e5 3c 8f ab ec bd
       0.019836549 0.052470136 0.028033486 -0.1155616
000070 ed ff b6 bd 5e 42 fe 3c c1 42 1a 3d a8 56 48 ba
       -0.08935533 0.031037506 0.037661318 -0.00076423073
000080 ec fb d4 bd 02 28 11 3e 6b 8b ed 3d bc 9f 3d bc
       -0.10399613 0.14175418 0.115988575 -0.011573728
000090 fb 9b b7 bc 6c a2 64 bc da 85 d8 bd 2f 77 89 bd
       -0.022413244 -0.01395474 -0.10572405 -0.067121856
0000a0 4f 76 a6 bd eb a0 06 bd 78 68 a5 3d bd 8b 25 bd
       -0.08128034 -0.032868307 0.080765665 -0.040416468
0000b0 4c bd c0 bc b0 34 b0 bd e0 a5 fa bd 7a d5 4c bd
       -0.023527764 -0.08603799 -0.122386694 -0.050008275
0000c0 8f 48 1c 3d 19 94 fa bd 70 e7 61 bc c7 18 5d bd
       0.038155135 -0.12235279 -0.013788089 -0.053978708
0000d0 3e bb 15 be 76 eb a0 3d 70 d4 09 be 5c ed dc bd
       -0.14622208 0.078574106 -0.13459945 -0.1078746
0000e0 b4 c9 21 bd 3b b3 2e 3d e7 ab 81 39 e9 e3 42 bc
       -0.039499 0.042651396 0.00024732875 -0.011895158
0000f0 63 51 bb bc b9 f0 ac 3d 40 28 90 3d 51 ad a9 bd
       -0.022865957 0.08444352 0.07038927 -0.082850106
000100 0a 17 b2 bd e9 a1 52 3d 4c 23 3f 3d dd 5b 0a bd
       -0.086958006 0.05142394 0.04666452 -0.033779014
000110 d0 e1 80 3d c5 23 0c 3e e8 44 11 3e dd e4 1a 3d
       0.0629307 0.1368552 0.14186442 0.037815917
000120 0d 95 ff bd 56 12 3c be 77 8f 28 be 73 32 26 bc
       -0.12479601 -0.1836637 -0.16460977 -0.010143864
000130 3d ac f7 bc a4 60 d8 bd 26 ca 05 3d 6e 92 be 3d
       -0.030233497 -0.10565308 0.032663487 0.09305273
000140 ad 56 17 3d 8e 8c 0b bd ad c9 ae bc 69 3b 94 3b
       0.036947895 -0.03406959 -0.0213364 0.004523684
000150 ca 0f 71 3c 53 0e 90 3d bf 9a 65 3d 84 c2 33 3d
       0.014713237 0.07033982 0.05605578 0.043886676
000160 7f 5a 99 3c 53 c7 61 3d 8e 61 09 be c6 c1 65 be
       0.01871991 0.05512173 -0.1341612 -0.224372
000170 a9 38 84 3d c9 c0 61 3c f7 2c 85 3b 30 c0 2d bd
       0.064561196 0.013778874 0.004064198 -0.042419612
000180 22 b8 e7 bc 80 12 0c 3d 60 e4 75 bd 50 da f4 bc
       -0.028286044 0.03419733 -0.06003225 -0.029889256
000190 2b 9a 03 bd 65 63 e1 3d a9 3a a6 3d 15 2e 15 3d
       -0.032129448 0.11005286 0.08116657 0.0364209
0001a0 e8 a7 61 3b aa eb d6 3d d2 ee 38 3d de cc 21 3d
       0.0034432355 0.10494168 0.04514963 0.039502017
0001b0 79 4a 86 bd 56 82 38 bd f8 b3 01 3e 6c c9 9c 3c
       -0.06557173 -0.045046173 0.12666309 0.019139014
0001c0 13 2c 98 3c 23 10 46 3d d0 8e db bd 57 df 6d 3c
       0.018575704 0.048355233 -0.10720599 0.01451858
0001d0 37 98 a7 3d 01 60 0c be 46 e6 95 3b b1 44 da bc
       0.081833296 -0.13708498 0.00457457 -0.026644083
0001e0 b3 5f 8d bd 6c 7d 21 3d 89 84 85 3d 1c 04 44 bd
       -0.06903019 0.039426252 0.0651942 -0.04785548
0001f0 82 b3 d8 bc 7d 66 88 bd db 7a 96 bc 36 bb a3 3b
       -0.026452783 -0.06660173 -0.018369129 0.0049966825
000200 67 dd 04 3d 8b e1 6b bc ad be 99 3d bc f9 68 bc
       0.03243771 -0.014397035 0.07507072 -0.014219698
000210 b0 07 61 bd 54 03 21 bd 86 c6 a7 bd f4 d7 82 bd
       -0.054938972 -0.039309815 -0.08192162 -0.06388846
000220 e0 af 90 3d fb 86 a0 3d e1 20 b0 bd ce 5e b8 bc
       0.070647955 0.078382455 -0.08600021 -0.022506144
000230 50 14 c2 3c e8 be 42 bc df 58 2b 3d 78 89 21 3d
       0.023691326 -0.011886336 0.0418328 0.03943774
000240 bf 0a c7 bd e4 e1 04 be e4 77 78 bc 77 5d 74 bd
       -0.097188465 -0.12976795 -0.015165303 -0.059659448
000250 ea 32 9d 3b 6b 13 fd bc 2a e6 ce 3d 9b e4 7f 3d
       0.004797329 -0.030893048 0.10102494 0.062473875
000260 1a 29 80 3d 4f 6c 00 bd 80 14 6e bb e0 ac e3 3d
       0.062578395 -0.03135329 -0.0036328137 0.11116958
000270 80 fc 75 3d b2 59 e2 3d 04 90 96 3d 76 54 87 3d
       0.060055256 0.11052264 0.073516876 0.066079065
000280 66 91 b0 3d 62 fb d0 bd 23 f6 5e bd 1b d9 80 bc
       0.086214826 -0.102041975 -0.054433953 -0.015728524
000290 b8 54 54 bd 18 b0 80 3d 90 97 3a 3c da 67 78 3c
       -0.051838607 0.06283587 0.011388674 0.015161479
0002a0 06 06 09 3e fe 85 aa 3d 67 46 96 bc a2 88 fe bb
       0.13381204 0.08326338 -0.018344117 -0.0077677527
0002b0 b3 98 64 bd cb 2b 3b bb a3 79 ad 3c 53 36 f3 bc
       -0.055809688 -0.0028560038 0.021176165 -0.02968899
0002c0 c5 30 e3 3d 8a 13 0d bc 50 12 e4 3d d1 47 7d 3d
       0.110932864 -0.0086106155 0.11136305 0.061836068
0002d0 17 a1 ef bc 39 af 91 bd 27 92 21 3d 4b b7 38 3e
       -0.029251618 -0.07113499 0.039446022 0.1803867
0002e0 7d 06 13 3e 42 38 12 bc 1d 3c d7 3d eb 3a 18 3e
       0.14357944 -0.008924546 0.105095126 0.14866225
0002f0 b9 5b 81 3d 87 d6 8b 3d b2 57 4f 3d 79 92 a9 bc
       0.06316323 0.06828027 0.050620742 -0.020699726
000300 27 28 c3 3d aa 95 f7 bc 6e ad a7 3c fa 88 6f bc
       0.09529143 -0.030222733 0.02046844 -0.01462006
000310 09 00 a3 3d 28 3a 42 bd 77 fc 32 be 8a e1 99 bd
       0.07958991 -0.047418743 -0.1747912 -0.07513721
000320 38 1f c3 3d ce 6c 84 bd f8 c3 55 3c 34 55 35 bc
       0.09527439 -0.06466065 0.013047211 -0.011067677
000330 49 49 bf bd 1c aa fa bb e7 8f e7 3d 64 23 bb 3d
       -0.0934015 -0.007649673 0.11306744 0.091376096
000340 bf 2b 1a 3c ec 81 9d 3d 1c 0c d4 bd 8e 49 a3 bd
       0.009409844 0.07690796 -0.10353872 -0.07973014
000350 34 18 d4 bd cf 45 fd bd 7c ff ec bd 55 4f 97 bd
       -0.10356179 -0.123668306 -0.11572167 -0.07388178
000360 f2 7a ab 3c 4a 1e 82 bd 44 a9 ba bc 1f 01 d3 3d
       0.020932648 -0.063534334 -0.02278579 0.10302948
000370 05 8d 2f 3c 9d f7 c5 3d 62 2c 41 bc 1c 16 b8 3c
       0.010714774 0.09666369 -0.011790367 0.02247148
000380 d9 ac 0b bc 92 f2 cf bd 4e 2c 74 bd 42 bd 20 3d
       -0.008525097 -0.101536885 -0.059612565 0.03924299
000390 03 99 4d bd 50 44 bf 3c 18 96 d9 bb c5 a7 ba 3d
       -0.05019475 0.023348004 -0.006640207 0.09114031
0003a0 5d a2 3c 3e 9f f1 19 bd a4 2b ab bd 7d df 64 bd
       0.18421312 -0.037583943 -0.08357933 -0.055877198
0003b0 ba b3 02 3e 92 be a2 3d fb 78 83 bc 7e bd b6 bc
       0.12763873 0.07946505 -0.016048899 -0.022307154
0003c0 4c d8 95 3c 59 82 cf 3c 7b e4 06 be 27 f2 d7 3d
       0.018291615 0.02533071 -0.13173096 0.10544234
0003d0 5b be 42 bc 99 a8 be bc 15 0c dd 3c ad a5 a9 3b
       -0.011886205 -0.023273753 0.0269833 0.005177221
0003e0 bf f4 84 bc 02 96 60 3d ce 1d e1 3c d8 c5 61 bd
       -0.016229985 0.05483056 0.027480032 -0.05512032
0003f0 97 82 88 bd 25 e2 50 3d b6 90 6b 3c dd b0 e2 3c
       -0.06665533 0.05099692 0.0143777635 0.027672226

conv_block3.Conv5.bias f4 [64]
000000 ca 6d 5d bd 54 93 68 bd c5 87 26 be 94 04 2b be
       -0.05405978 -0.056781128 -0.1626273 -0.16700965
000010 01 fb cc bc 81 78 69 3d 67 16 28 bd cc 7a 90 bd
       -0.025022032 0.056999687 -0.04103699 -0.07054672
000020 4e b5 67 3d 43 61 4c bd 1e 8b a3 bd 60 1d 39 3c
       0.05656939 -0.049897444 -0.07985519 0.011298507
000030 d9 6d 97 bd 73 d6 e8 bc b5 6c 42 bd 81 cc bb bd
       -0.07393999 -0.02842257 -0.047466952 -0.091698654
000040 2c 26 ca bc a5 f6 52 bd 2f fb a5 bd 54 e4 d7 bd
       -0.024676405 -0.05150475 -0.0810455 -0.10541597
000050 36 78 51 bd 9b 9f 42 bd b5 7d 44 bd 9e 57 a9 3c
       -0.051140033 -0.047515493 -0.047971446 0.020671662
000060 f9 f5 e6 3d f2 1d 5c bd 10 23 c0 bd 73 44 88 3b
       0.11277384 -0.053739496 -0.09381688 0.0041585504
000070 cd 32 6c 3d d4 66 9f 3c 6c 18 fe bc 94 d5 df bd
       0.057665635 0.019458212 -0.031017505 -0.10929409
000080 11 e9 53 be c6 5e 16 be 46 51 dd bd 54 2e cc bd
       -0.20694377 -0.1468459 -0.10806517 -0.09969774
000090 93 99 0f be 30 5a ff bd 94 4f b0 3d 0c c2 4f 3c
       -0.14023428 -0.12468374 0.08608928 0.012680542
0000a0 84 e9 d3 bb 27 86 b0 bd 89 d7 b6 3c fb c9 05 3d
       -0.006467046 -0.086193375 0.022319572 0.032663327
0000b0 5a 56 01 be 9f 48 c3 bc 12 e6 8a bd 18 b1 8d 3c
       -0.12630597 -0.02383834 -0.06782164 0.017296359
0000c0 9e 18 0f be 42 8f 91 bc 7c 6c 23 be 30 41 71 bd
       -0.13974234 -0.017768506 -0.15959352 -0.05890006
0000d0 a6 52 71 3d b5 f5 16 be 1c a4 a4 bd c4 08 f2 bd
       0.05891671 -0.14742167 -0.08039114 -0.11818078
0000e0 7c de 87 3d 2f f1 05 be d6 8e 24 bd 00 8a 8c 3c
       0.066342324 -0.13080285 -0.04017528 0.017155647
0000f0 ba e2 2a be 7d ef 43 bd 02 90 f2 bd a8 be ad bd
       -0.16688052 -0.047835816 -0.118438736 -0.084836304
