src/weights/linear_fashionmnist_holdout_[8, 9].pt (torch, 408001 bytes, 4 tensors)

linear_stack.0.weight f4 [128, 784]
00000000: 20c9 a13c 87b5 83ba 5da8 913b 5721 33bd
00000010: f240 68bd 6ce6 04bd f984 37bd 5ac1 4fbd
00000020: e034 64bd dc05 82bd 52ea fb3d 3b82 913e
00000030: f2c7 72be 5877 71be 3ccf 29be 5cb6 92be
00000040: 938f 613e e1f2 cd3e 071d b7bc 41b4 69bd
00000050: 4e66 f1ba f6ff bfbc e870 53bd 20ad 2fbd
00000060: e247 bebc 9f73 933a fd0d 88bc 367d 893c
00000070: 2b60 a73c 6501 eabc 85d5 02bd 8d09 383c
00000080: aa35 89bd 2649 99bd 0ee9 44be 3a7f 1ebe
00000090: 3bd0 fcbd 0015 a73e 6fdb 203e 729b 4e3d
000000a0: 069d 36be e16e c93d 844c fe3d 6016 0dbe
000000b0: 7dfb 8c3d a9a0 123e 6939 a33e a4be 603d
000000c0: a4fc bbbd 2214 013b 294a f5bc b31b f1bb
000000d0: a790 3cbc ddf0 083c 786a 633c 4572 cc3c
000000e0: b3f0 9cba e9f2 d43b c163 35bd 12a6 233a
000000f0: efa1 06bd 1681 18bd 85e8 a13c f880 293e
00000100: 2728 513d de04 213e 16a4 4bbd 5fcc e5bd
00000110: 8ee6 02bd 3d3d 17bd d6ac 02be bdd9 43be
00000120: ee38 c93c c5a9 2ebc 59b0 c83d 178c 83ba
00000130: 0b18 043e 4eae 013e aa74 a53b f914 3b3d
00000140: c7ca e73c 6e57 2fbd 3189 adbc 3125 09bd
00000150: cdb0 3bbc 7254 9fbc 9ebd fc3b 45db 8ebd
00000160: cbfe 903c 2161 873d e925 283e 80d8 01bd
00000170: 12da 15be c561 63bd 1e5a 1a3e 6d05 8c3d
00000180: 23d7 8c3d 0f98 d9bd f279 d1bd 088b 03be
00000190: f600 473d a7dd ab3d 70c3 ae3d d95d 88be
000001a0: e275 6bbe bcb4 b73d 7f0d df3d dbf7 9b3d
000001b0: 2ff6 833d 4ddf 34bd 1001 243c ac6e 17bd
000001c0: 37a0 16bd 0ac4 b6bb a754 97bc 86cb 4fbd
000001d0: a670 8b3d bef9 563d 5a33 a93d 3cbe d93c
000001e0: 946a bd3c 822a 093c 4e6c 1f3e 31b4 02bd
000001f0: 4cdb 11be 2a0a 16be 7289 63be bd91 9abd
00000200: 7118 42be bcad 113e c5df 1f3e 31bd 14bd
00000210: d0b4 8e3d 8e8b 593d 70fd c23c 477b 1f3e
00000220: f524 7d3d d228 1fbd d540 51bd e3f8 6d3c
00000230: 66f0 71bc 7248 0bbd 1e88 fcbc 7fad ec3b
00000240: 1bf6 7c3d 9bd9 bb3d 2006 e23d 140c 933c
00000250: 8e4c 063e e9b5 46bd 2170 d23c 68eb 84bd
00000260: 71b9 723c 5657 46be 0fd2 8ebe 4ac3 883d
00000270: 10f4 00be cab3 543e c3e4 fd3d 80b0 543c
00000280: a268 173d 6a2c 1c3c 8af1 183c 054b 063e
00000290: eda8 223d 2c97 f1bc 22bd 6a38 e9a9 5e3c
000002a0: 12ae a03c ed98 a63c f52f ea3b 8a17 28bd
000002b0: 78c3 8c3d d1cb 4b3d d014 073e 9b7d ce3d
000002c0: 7858 d63d 9542 cf3b 6407 1b3d dc02 3fbe
000002d0: e5ac 77bd 5ecb 02be 4537 5fbe 710a 863c
000002e0: 52c8 153d 74bb 10bb 4f2b 4f3d 25fc f7bc
000002f0: cfb6 b93d b84b 3dbd f0f1 c53d 24d7 813d
00000300: 9879 7c3d ce37 5d3d 3c56 e8bc c89e b2bc
00000310: d812 c93c ef86 373d 1efb 833c 2594 81bb
00000320: 2f74 01bd 3fd9 0bbd 3344 f33d f264 483d
00000330: 3a79 e83c deec af3c b39b 943c cb24 c4bd
00000340: cf3c c53c ef5e cabd 3ece 77be dac2 d8bb
00000350: 1058 6c3d 2ea2 04bd d7c4 103c 3bab a23d
00000360: ab57 383e f594 f8bc 8388 533d 6b72 c4bd
00000370: 4f27 963c 13aa 9dbc a578 f038 a3f9 bb3c
00000380: 7f1d 8dbc 0fde b73c 40d6 13bd 396c e33c
00000390: 4f4c 3f3d 0984 88bd 104f 8abc 0686 193d
000003a0: 6724 5a3d eac2 473c 034c 843b 32b6 0bbe
000003b0: bc56 bd3d 5455 d8bd a4be 24be 3e2a bfbc
000003c0: 8941 0b3d 3ddf 0e3d abc8 653c e9ce a83d
000003d0: 6908 9f3d 0d29 ba3d ccac 15bd e85b efbd
000003e0: 9c19 2cbd 7641 8abd 999a 0ebd 5203 733c
000003f0: f872 9bbc 2cf6 c6ba c826 da3b 9d05 83bc
0.019749224 -0.0010048606 0.0044451193 -0.043732967 -0.05670256 -0.03244631 -0.044804547 -0.050721504
-0.055714488 -0.06348774 0.123005524 0.2841967 -0.23709086 -0.23580682 -0.1658296 -0.28654754
0.22027425 0.40224364 -0.022352709 -0.05705667 -0.001841733 -0.023437481 -0.051621348 -0.042889714
-0.023227636 0.0011249668 -0.016608233 0.016783338 0.020431599 -0.028565118 -0.03194191 0.011232746
-0.06699689 -0.07484655 -0.19229528 -0.1547822 -0.12344404 0.3263321 0.15708707 0.050441213
-0.17833337 0.098356016 0.12416938 -0.13778067 0.06883905 0.143191 0.31879738 0.05486931
-0.09179047 0.0019695838 -0.029942589 -0.0073580383 -0.011509097 0.0083582075 0.013880365 0.024956832
-0.001197359 0.0064986837 -0.044284586 0.0006242703 -0.032869276 -0.03723248 0.019764194 0.16553104
0.051063683 0.15724513 -0.04971703 -0.11220621 -0.031958155 -0.036923636 -0.12761244 -0.1912603
0.024563279 -0.010660593 0.09799261 -0.0010036257 0.12899797 0.12664148 0.005049308 0.045674298
0.028294934 -0.04280799 -0.021183582 -0.033482734 -0.011455727 -0.019449446 0.007713034 -0.06975416
0.01769962 0.06610323 0.16420712 -0.03170061 -0.14633968 -0.055513162 0.1507344 0.068369724
0.068769716 -0.10624706 -0.10228337 -0.12846005 0.0485849 0.08391886 0.085333705 -0.266341
-0.22994187 0.08970019 0.10891246 0.07615634 0.0644344 -0.04415827 0.010010019 -0.03697078
-0.036773887 -0.005577569 -0.018472983 -0.050731204 0.06808595 0.052484266 0.08261748 0.026579969
0.02312211 0.008371951 0.15568659 -0.031910125 -0.14243811 -0.14652315 -0.222204 -0.075473286
-0.18954636 0.1422643 0.15612705 -0.03631324 0.06968081 0.053111605 0.023802489 0.1557437
0.061802823 -0.03885729 -0.05108722 0.014524671 -0.014766788 -0.034004636 -0.030826624 0.007222831
0.061758142 0.09172364 0.110363245 0.017950095 0.13115141 -0.048513327 0.025688233 -0.06490213
0.0148147205 -0.19369254 -0.27894637 0.066778734 -0.12593102 0.20771709 0.123971485 0.012981534
0.03696502 0.0095320735 0.009334931 0.13114555 0.03971188 -0.02949103 5.596609e-05 0.013590314
0.019614253 0.020336593 0.00714683 -0.041038074 0.0687322 0.04975492 0.13191533 0.10082551
0.10466093 0.006325076 0.037848845 -0.18653435 -0.06046762 -0.12772891 -0.21798427 0.0163624
0.036567993 -0.0022084387 0.05057841 -0.0302716 0.09068071 -0.04621479 0.096652865 0.06339863
0.0616394 0.054008298 -0.028361432 -0.021804228 0.024545118 0.044806417 0.016110953 -0.003954428
-0.031604942 -0.03414273 0.11878242 0.048924394 0.028378118 0.021475252 0.01814065 -0.0957733
0.024076847 -0.098813884 -0.24199769 -0.006615025 0.05770117 -0.03238123 0.008835993 0.07942816
0.18002193 -0.030344466 0.05164386 -0.09592136 0.01832929 -0.019246137 0.000114665636 0.022946185
-0.017225979 0.022444753 -0.036092997 0.027761566 0.046703633 -0.06665809 -0.016883403 0.03748133
0.053257372 0.012192467 0.0040373816 -0.13643721 0.09245059 -0.1056315 -0.16088349 -0.023335572
0.033998046 0.034880865 0.014024894 0.0824259 0.07765276 0.09089861 -0.036541745 -0.116874516
-0.04201661 -0.06750767 -0.034815405 0.014832335 -0.01897572 -0.0015179566 0.006657455 -0.015993888

linear_stack.0.bias f4 [128]
00000000: fe7a d23b 2e5f 03bd 0733 783c 0ebc 86bc
00000010: 2043 2b3c bdc5 38bd db75 8f3c 2136 813d
00000020: 2907 4cbc 9c38 cb3b b542 88bd ad21 0a3d
00000030: a25a 0c3d f99b 113d 02b1 9a3c cec7 afbc
00000040: d9c5 ccbb 00bd 6dbc 5a23 50bd f3e0 0c3d
00000050: 4988 0b3d 534b 343d 0f22 c73c 6917 863c
00000060: db98 41bd a06c 17bd 11c2 aa3c 0c89 0c39
00000070: 9381 d93a 5abc 383b f523 c93b 66f9 81bb
00000080: eb88 26bb e4ca f5bc cc07 2f3b e475 5b3c
00000090: c2e8 e03b 0017 5c3c beb6 1bbd aa09 393c
000000a0: 1547 f8bc 1ad7 b1bc ca0a 983c 6399 d23c
000000b0: 927b a5bc 475e ce3c a086 ea3b e8d7 e0ba
000000c0: eab6 8b3c a5e4 713d 469a 5ebc e4f3 2bbd
000000d0: a429 ba3c 9668 8c3c 36a9 08bd 395c b03c
000000e0: 7311 a6bc 69aa a33c 70ee c53b 6b38 433d
000000f0: 9b6c 5e3d 4953 fe3c 056f 363c a070 643c
00000100: 4c10 abbc c84f 83bc d5da 24bb 4d04 3cbd
00000110: 658f 3dbd 9ce5 4dbc 7a98 10bb daab c1bc
00000120: 54e1 583c ea1f f03c 9e56 a4bc 3397 d23c
00000130: 413d 01bd e513 9e3a 7569 11bd 4585 bbbc
00000140: 996c 42b9 69af 50bd 24cc c0bb bd55 753c
00000150: 7454 29bd a61c f0bc 22fb ba3c 3658 99bc
00000160: bb29 3ebd 80e4 16bd 0668 61bc 503c 4abc
00000170: 53c5 0ebd dd3e d1bc f359 3f3d 09d6 41bc
00000180: 5cd4 07bc 0548 f03b 290c 973c 11f9 d83b
00000190: 293d 5abd 6dce f63c 4c3e 40bd 93f7 55bd
000001a0: e733 0fbd 7403 023d 60cf 023d 87fe 7bbc
000001b0: 2b43 73bc 1f63 143c fa88 08bc 533c 5dbc
000001c0: 7ab2 0c3c 74a3 573d 1494 f2ba bc82 a13c
000001d0: c0ac 5d3b 994c 773d 0bea 4d3d 7cbf 5abc
000001e0: 82fd 82bc 5e47 28bc 0dcf 60ba 191c ea3b
000001f0: 8d43 fabc 5e0f 2ebd 7429 5ebc 0a00 633d
0.006423353 -0.032073192 0.015148885 -0.016447093 0.010453016 -0.045110453 0.017512253 0.063091524
-0.012452879 0.0062018167 -0.06653348 0.033723522 0.03426612 0.035549138 0.018883232 -0.021457579
-0.006249171 -0.014510393 -0.050814964 0.034394216 0.03406552 0.044017147 0.024308233 0.016368585
-0.047264915 -0.036968827 0.020844491 0.00013402494 0.0016594402 0.0028188438 0.0061383196 -0.003966498
-0.00254112 -0.030003972 0.0026707528 0.0133948065 0.0068636844 0.013433218 -0.038016073 0.011293808
-0.030307332 -0.021709014 0.018559832 0.025707906 -0.020200524 0.02519144 0.007157162 -0.0017154189
0.017054994 0.059055943 -0.013586586 -0.04198064 0.022724934 0.017139714 -0.033364497 0.02152835
-0.020271992 0.019978719 0.006040387 0.047661226 0.054302793 0.031045573 0.011134868 0.0139428675
-0.020881794 -0.016029254 -0.0025154848 -0.04590254 -0.04627933 -0.01256695 -0.002206354 -0.023641516
0.013237316 0.029312093 -0.020060834 0.025706863 -0.031552557 0.0012060372 -0.035500962 -0.022890696
-0.00018541738 -0.050948534 -0.0058837105 0.014974055 -0.041340306 -0.029310536 0.022824828 -0.01871882
-0.046426516 -0.03683901 -0.013757711 -0.012343481 -0.03485615 -0.02554267 0.04671664 -0.011830815
-0.0082903765 0.007332804 0.018438416 0.006621488 -0.053280983 0.030127728 -0.04693441 -0.05223806
-0.034961607 0.031741574 0.03193605 -0.015380508 -0.014847557 0.009056835 -0.008333439 -0.013503152
0.008587474 0.052646115 -0.0018507265 0.01971566 0.003382489 0.060375784 0.05027203 -0.0133513175
-0.015990023 -0.0102709215 -0.0008575775 0.007144463 -0.030549789 -0.042495124 -0.013559688 0.05541996

linear_stack.1.weight f4 [8, 128]
00000000: 52e7 983d 597b 99bc efbc 6b3d e98b 133d
00000010: 9849 9e3d 9699 64bd 9c97 9abd f881 81bd
00000020: 8dbe 903c bb0d 903c c061 93bd 741f 4d3d
00000030: 231c 3cbd d6d2 22bd e735 04bd 29f6 dabc
00000040: 802e c03c 8d89 1abc 317b 3d3c 2897 cdbc
00000050: 0986 a5bc 4d73 d23d 142f 9c3b a148 b5bc
00000060: fc55 4fbd 559a 003d 7f90 bcbc 7283 973c
00000070: aa2f 12bc 1626 bd3c 3dcb e73c 9012 ea3c
00000080: ac1d 7a3c 4f0f 03bd 1881 283d 97d2 0f3d
00000090: 8aba debc 14fa 953c 6e26 9cbd 1074 07bc
000000a0: 26fc a63c 3054 8cbd 433c 853d 554a 84bd
000000b0: 5caa e73c c4bc 21bd 1faf 37bd cce8 07bd
000000c0: 5a31 73bd 660f 9a3d ee18 0abd ccd4 953c
000000d0: 614e cb3b 1fad 62bd 7106 ed3b 2904 453d
000000e0: db7a 80bd bf7b ee3b afe4 383c aa54 123d
000000f0: c89f b33d 45bc b93d 967c 8ebc 5d1b 99bc
00000100: 14db 45bd 8e99 7c3d 07f2 ed3b b1a7 4a3c
00000110: 7882 82ba aa34 42bc 8da6 fe3c 9dc2 143d
00000120: af5f 81bd e5d8 bd3c 12ec fcbc 82d3 02bc
00000130: 1a6d 823b deb3 0ebd 5aab c7bd 811a b53c
00000140: e595 69bd 33f4 b0bd b969 b83c 5b0b 4abc
00000150: 5750 a1bd d80f 533d 8731 023c 27df 843c
00000160: c1b6 26bd e83d d7bc 02ef 4dbd ea55 8abc
00000170: ff94 20bd c233 1b3d 16a0 2c3d 7503 9dbd
00000180: 3422 ce3c 9cdc cabc c7f9 2f3d ad1d 113c
00000190: 02c4 1ebd fb16 a9bc 1936 02bd 5559 c73c
000001a0: 03b5 1abd 2d03 cb3d 6fba 2bbd 2852 6bbc
000001b0: e836 533d 4087 01bd 4c4f 9cbd df74 2cbd
000001c0: bc82 e13b aaac 1abc 691c 983c 2f92 b23c
000001d0: f60b 57bb a40a e23b 8704 bb3b 378c 373d
000001e0: b0cb f13c f8f5 023b 8be7 943c d69c 8f3d
000001f0: 1775 93bc 0cb6 0fbd 884a afbd ed09 bc3d
00000200: 8473 cebd d4ee 36bd 2ba2 753d 9f50 093d
00000210: 5af1 5c3d 1cf6 af3b b917 183d e13d 203d
00000220: 421b 2dbb b15d 89bd 4336 d4bd 9231 853d
00000230: d304 c2bc ec47 a9bc ffe1 123b e662 c5bc
00000240: cb3e 2a3d b64b 6fbd a80c dc3d 2507 06bd
00000250: 6c20 873d 5961 90bc e239 50bd b8c2 eabc
00000260: 94dc c4bd 2bb0 ed3d fcad 1a3d 2049 403d
00000270: d24c f5bd f59f c93c a588 6f3d 0b31 783d
00000280: cb26 043d 42ae 17be 9865 0e3c 1b36 953d
00000290: f448 183d 3b90 013c 7fde cb3d 798e cbbd
000002a0: 0d7e 1ebb 898c 933d 1e79 70bd 4041 573d
000002b0: 50a6 093d 5bec 71bd fd1b 9abd a409 c9bd
000002c0: 9c1c e5bd 168b 5abd 08c8 86bd 8004 92bc
000002d0: 243b 323d 2be5 7abd fe56 553c a4ea c0bc
000002e0: c864 abbd 48af a13c 943a 28bd bef2 703d
000002f0: 0256 30be 05fc 0f3e c807 a9bd 1a09 c8bc
00000300: fc8f 61bd 175a 6c3d 8516 7e3c 5fe4 9bbc
00000310: 524d 31bb f2e0 333c 3b60 613d d1e7 e23d
00000320: bdde fcbc f079 713b d679 c7bd 6785 083d
00000330: 11ba b13d 5441 3bbd 2e77 bcbc 3bfc 3d3d
00000340: 70f4 85bd 1596 6ebc 9193 3d3d cb46 be3d
00000350: 8206 d03c 8b67 b7bc ec8e 563c 2f89 85bd
00000360: 1836 a3bd 8f5e 673c 382b 0f3d 6d05 70bd
00000370: d6f2 57bd a018 633c 0e87 8abd d386 98bd
00000380: 3d12 5ebd ddb6 04bd 798a 45bc f4dd cd3d
00000390: 73b1 44bd 186f c5bc c936 e4bc 6bd6 4ebd
000003a0: 34b8 2a3e 4031 673d 53ae e03d c3e2 4bbd
000003b0: af3b b8bd 047b 003d 7a5e 95bc aa8f 2ebd
000003c0: ad45 13ba ea3e 5e3d 42d2 2fbe 1bce ec3c
000003d0: 2eb2 a23d 3012 243d 333e 123d 6c1c 793c
000003e0: a01d 31bc 6ea9 2bbd e204 083d d1f8 a23d
000003f0: 4150 19ba 0443 44bd 389a a83d 32bd acbc
0.07465996 -0.018735575 0.057553228 0.0360221 0.07728881 -0.055810533 -0.075484484 -0.06323618
0.017668987 0.017584672 -0.07196379 0.050078824 -0.04592527 -0.03975185 -0.032277968 -0.026728706
0.023459673 -0.009432209 0.011565016 -0.025096491 -0.020205515 0.10275898 0.0047663543 -0.022129359
-0.05061911 0.031397182 -0.02301812 0.018495295 -0.008922497 0.02308945 0.028295154 0.028573304
0.015265863 -0.03199702 0.04113874 0.035112944 -0.027188558 0.018307723 -0.076245174 -0.008267418
0.020383906 -0.06851995 0.06505635 -0.0645949 0.028279476 -0.03948666 -0.044844743 -0.033180997
-0.059373237 0.07522468 -0.03371518 0.018289946 0.006204412 -0.055340882 0.007233434 0.04809967
-0.06273433 0.0072779353 0.011284991 0.035725273 0.0877071 0.09069113 -0.017393392 -0.018689806
-0.048304632 0.06166988 0.007261518 0.012369082 -0.0009957096 -0.011853376 0.031085277 0.03631841
-0.06317078 0.023174712 -0.030874286 -0.007984998 0.003980291 -0.034839503 -0.097494796 0.022107365
-0.057027716 -0.08640327 0.02251135 -0.012331809 -0.07876652 0.05152878 0.007946379 0.016219689
-0.04070163 -0.026274636 -0.050276764 -0.01688667 -0.039204594 0.037891157 0.042144857 -0.07666675
0.025162794 -0.024763398 0.042962816 0.008857173 -0.038761146 -0.02064084 -0.031789873 0.024334589
-0.037770282 0.09912715 -0.041925844 -0.014362849 0.051566035 -0.031623125 -0.07632312 -0.042103644
0.00688204 -0.00944058 0.018568235 0.021798221 -0.0032813526 0.006898241 0.005707327 0.044811454
0.029516071 0.0019983035 0.018176815 0.07012336 -0.018000169 -0.035085723 -0.085591376 0.09181581
-0.100806266 -0.044661358 0.05996911 0.033524152 0.05394111 0.0053699147 0.037132 0.039121512
-0.0026413952 -0.06707323 -0.10361912 0.065035954 -0.023683941 -0.020664178 0.0022412536 -0.02409501
0.04156379 -0.058421813 0.107446015 -0.032721657 0.06597981 -0.017624544 -0.05083645 -0.028657302
-0.096123844 0.11605867 0.03776358 0.046944737 -0.11977543 0.024612406 0.058479924 0.060593646
0.03226356 -0.14812568 0.008691214 0.072857104 0.03717895 0.007907922 0.09954547 -0.09939284
-0.002418402 0.07204539 -0.058709256 0.05255246 0.033605874 -0.059063297 -0.075248696 -0.09816292
-0.111870974 -0.0533553 -0.06581122 -0.017824411 0.043513432 -0.061253708 0.013021229 -0.023549385
-0.08368832 0.0197369 -0.04107149 0.058825247 -0.1722031 0.14060982 -0.08253437 -0.024418402
-0.055068955 0.057703104 0.015508299 -0.019029794 -0.0027054143 0.010978924 0.055023413 0.11079372
-0.030867929 0.0036846362 -0.09740035 0.033330347 0.086780675 -0.0457166 -0.023006048 0.046383124
-0.065407634 -0.0145621495 0.04628331 0.092908464 0.025393728 -0.02238824 0.013095599 -0.06520306
-0.07969302 0.014121666 0.034953326 -0.058598924 -0.05272182 0.0138608515 -0.06764041 -0.07447591
-0.054216612 -0.032400955 -0.01205694 0.100521 -0.04802079 -0.024100825 -0.027858155 -0.050497454
0.1667183 0.056443453 0.1097075 -0.049776804 -0.08995759 0.031367317 -0.018233526 -0.042617477
-0.00056179875 0.05425922 -0.1717005 0.028906872 0.07944141 0.040056407 0.03570385 0.01520453
-0.010810286 -0.041909628 0.03320778 0.07957614 -0.00058484456 -0.047915474 0.0823254 -0.02108631

linear_stack.1.bias f4 [8]
00000000: df36 cd3d be15 4cbd 99f7 29bc 50e8 9f3d
00000010: b8d2 3fbd 1de9 313d 676a 8f3d 0b9e 4dbd
0.100202315 -0.049825422 -0.010373973 0.07807982 -0.046831816 0.043435205 0.070027165 -0.05019955
