src/weights/linear_fashionmnist_gswil.pt (torch, 408395 bytes, 4 tensors)

input_layer.weight f4 [128, 784]
000000 c6 16 3c 3c 9f 86 f5 bb c9 21 2c bd e0 bf 33 3c
       0.011480039 -0.0074928547 -0.042024408 0.0109710395
000010 1e c7 35 bb c5 f9 4b bd 4b ac af 3b 7c b5 b3 3d
       -0.0027737091 -0.049798746 0.005361115 0.0877485
000020 2f 0a 25 3d c5 f2 86 3d 80 3f e2 3d b2 f1 23 3e
       0.040292915 0.06589273 0.11047268 0.16010168
000030 ab 10 e8 bc 3b 3a 12 bd 8c 82 6a 3c 82 f4 9d bd
       -0.02832826 -0.035700064 0.014313351 -0.07712652
000040 a0 7c 9f 3d 0b 54 ed 3d bd ba d5 3c a5 f0 14 3d
       0.07787442 0.115882955 0.02609002 0.03636231
000050 8c 8f 01 3e 3a 22 8b 3d 1d 16 18 bd 1f dd 23 bb
       0.12652415 0.067936376 -0.037130464 -0.0025003625
000060 f3 fa e7 3a 56 90 63 bd 95 2f 2f bd c1 d2 89 bc
       0.001769869 -0.05555757 -0.042769987 -0.016824128
000070 b6 36 2f bd fd b3 15 3b 98 99 e4 bc fe ab 04 3b
       -0.042776786 0.0022842877 -0.02790527 0.0020244117
000080 34 cc 63 bd 28 db d3 bc 8a a9 63 3c 54 c0 4e bd
       -0.055614665 -0.025861338 0.013895402 -0.050476387
000090 9b cd 6b bc b7 8e 25 bc 72 1d 1e 3d 50 73 f9 3a
       -0.014392282 -0.010104827 0.0386023 0.0019031558
0000a0 71 e5 8b 3c f8 f3 c9 3c 02 31 35 3d e1 ba 62 bd
       0.01707718 0.024652466 0.04423619 -0.055354003
0000b0 c5 ad 63 3d 1a f0 0c 3d e4 f1 18 3d 7c 94 3d bb
       0.05558564 0.034408666 0.03734006 -0.0028927615
0000c0 f9 6b 16 3c 76 c7 45 3d f6 41 eb 3b da 00 57 bd
       0.009181016 0.048285924 0.007179494 -0.052491046
0000d0 6c 6d 54 bd ec 40 17 bd 51 f2 27 3c 42 34 0a bc
       -0.051862165 -0.03692715 0.010250644 -0.008435311
0000e0 cb 77 be 3b 95 9e 21 bd 3a 20 29 3c 03 e0 90 3a
       0.0058126203 -0.039457876 0.010322625 0.0011053089
0000f0 93 75 4c bc 78 67 5f bd 74 c1 b7 bc 9b a2 8a bc
       -0.012479204 -0.054542035 -0.022431113 -0.01692324
000100 be f4 04 bc 6a 79 59 3c e2 fa 2f bc e0 82 df 3c
       -0.008114992 0.013273576 -0.0107409675 0.027284086
000110 3d cc 1e bc 68 04 8e bc 03 bd c2 3c 4e df 94 bd
       -0.009692249 -0.017336085 0.023771768 -0.072691545
000120 06 46 dc 3c e2 4d ab bb cd e9 0e bd 7d 68 68 bd
       0.026888859 -0.00522779 -0.03489094 -0.056740273
000130 d6 1d 06 bc 04 3a 44 3d 88 9c 34 bc 5d 53 0c bd
       -0.008185824 0.04790689 -0.011023648 -0.03425919
000140 ee 8d 36 bc da 0b 2c bc 5a 8f 04 bd 81 8c 16 3b
       -0.011142237 -0.0105008725 -0.032363273 0.002297193
000150 e9 e4 cf bc ff 00 c2 bc 69 28 d4 3b 5a bc ac 3c
       -0.025377708 -0.023682116 0.006474544 0.021085907
000160 73 cd 28 3d f2 fb b9 3c 38 33 89 3d 49 16 93 3c
       0.041211557 0.022703145 0.06699222 0.017954962
000170 a4 83 b3 bc fc af 53 3c e7 4d 89 3d 58 5a 40 3d
       -0.021913357 0.012920376 0.06704312 0.04696116
000180 6a 3b ef 3b a0 d0 5a bd fa 68 d8 bc 70 0c b1 bc
       0.007300784 -0.053421617 -0.026417244 -0.021612376
000190 58 0d 70 3c e7 8a 4c 3d e7 3d db 3c 11 0b 92 bd
       0.014651619 0.049937155 0.026762916 -0.07131017
0001a0 e9 4d 90 bd ff 20 dd 3c cc ce 2b bc 1c 55 a4 bb
       -0.0704611 0.026993273 -0.010486316 -0.0050150286
0001b0 a7 a2 f2 bb 0a 77 40 bd a7 54 c3 3b cb c9 e9 bc
       -0.0074046436 -0.046988524 0.005961019 -0.028538605
0001c0 d6 9c 67 bd 0a 01 a0 bc 6a 20 18 3c ac dd 10 39
       -0.056546055 -0.019531745 0.009285072 0.0001381549
0001d0 b2 3d 43 3c de f8 71 bc 80 af da 3d 0d c3 07 3d
       0.011916565 -0.014768807 0.10678005 0.033145
0001e0 e4 5a 13 38 ed 9d b6 3c 87 f3 36 3d 6d 4e ca bc
       3.513218e-05 0.022292102 0.04466584 -0.0246956
0001f0 be cd 83 bd 54 fd 8e 3b af 93 aa bd ea e4 f1 bc
       -0.064357266 0.004363695 -0.0832895 -0.0295281
000200 ff 0a d0 bc 00 d8 ae 3c 2e 81 9f 3d e9 11 19 bd
       -0.025395868 0.021343231 0.07788311 -0.037370596
000210 05 be ff bc f3 03 38 bb ec 01 4c bc 00 6e 99 3c
       -0.031218538 -0.0028078526 -0.01245163 0.01872921
000220 11 7b 92 bc 20 30 ce bc 36 92 0b bc 5b a1 89 bb
       -0.017880948 -0.025169432 -0.008518746 -0.0042001433
000230 fd c6 53 3c 18 18 23 bd 96 63 7f bc ba 1d bd 3c
       0.0129258605 -0.0398179 -0.015587708 0.023085464
000240 e8 f8 c7 3c ba 44 9b 3d 0a ae 67 3d 34 fe 5b 3d
       0.02441068 0.07581468 0.05656246 0.053709224
000250 96 02 9a 3d bb 36 d9 bb c2 f5 f0 bc ae cd cc bc
       0.075200245 -0.006628839 -0.029414061 -0.02500042
000260 42 10 bd 3a af a0 85 bc 3e 3c 34 3c 0a 28 ba bc
       0.0014424401 -0.016311971 0.011000691 -0.02272417
000270 e4 a4 1d bd cf ba 0c 3d 86 0a a2 3d b4 26 8a 3b
       -0.03848733 0.034357842 0.079121634 0.0042160396
000280 51 af 1f bd 22 72 88 bc ee c3 0a 3c bf dc 18 bd
       -0.038985554 -0.016655985 0.008469565 -0.037319895
000290 4e 36 eb bc 8d bf a1 bd ea c5 1a bd 34 21 73 3c
       -0.028712418 -0.078978635 -0.0377864 0.014839459
0002a0 de 8a 00 bd 90 7b cc bc ad 18 9f bc 18 da 1e bd
       -0.031382434 -0.024961263 -0.019420946 -0.03878221
0002b0 a7 9f 3d bc 25 8b 21 3d e1 51 8c 3d d5 3f 7d 3d
       -0.011573709 0.03943934 0.06851555 0.061828453
0002c0 ec ac 22 3d 60 d5 db 3b cc 60 da 3c f6 fb 05 bd
       0.039715692 0.006708786 0.026657484 -0.03271099
0002d0 ee 13 4c bd 65 46 09 bd 04 a7 ab bc a5 49 28 bd
       -0.049823694 -0.0335144 -0.020953663 -0.041085858
0002e0 0d 5d e4 ba a4 aa 7f 3d 22 07 25 3d 34 56 b8 3c
       -0.0017422751 0.062418595 0.040290006 0.022502042
0002f0 a9 da b7 bd 46 c8 92 bd cf 6d c3 3b 6e 7b 84 3c
       -0.08977253 -0.071671054 0.005964018 0.016172137
000300 a8 55 cc bd d0 ae e3 bc c8 c7 3c 3d b4 42 0c bc
       -0.09977275 -0.027793318 0.046088964 -0.008560825
000310 7e 65 47 bd 8b bb 89 bc 5e bb 42 bc 5b 0e 36 bc
       -0.048680775 -0.01681306 -0.011885492 -0.011111821
000320 e5 f8 ab bc b5 d0 1a 3d 68 e0 fb 3d c6 57 51 3d
       -0.020992706 0.037796695 0.122986615 0.051109098
000330 6f 70 90 3c e3 92 8d 3b d8 63 3f bb 27 b0 a1 bd
       0.017631738 0.004320489 -0.0029203799 -0.078949265
000340 6c c4 b7 bc 54 79 18 bd 74 2d 48 bd 53 43 0d 3d
       -0.022432528 -0.037225083 -0.048871472 0.034488034
000350 c3 7f 25 3d 10 78 56 3c 14 b4 ae 3d 4a 2f e2 3d
       0.040405046 0.013090149 0.08530441 0.11044176
000360 8a 7b cc 3d 32 fa 04 bd 67 bc 2a 3b ed da d7 bc
       0.09984501 -0.032465167 0.0026052238 -0.02634951
000370 89 ad 25 bd e1 21 43 bd 87 29 55 3c 55 b0 be bc
       -0.0404487 -0.04763973 0.013010389 -0.023277441
000380 ae 48 81 bb 28 64 90 3c 84 ab 9a bc e2 95 09 3c
       -0.0039454317 0.017625883 -0.018880613 0.008397551
000390 d0 88 e2 3c 5a 12 58 3d a7 09 80 3d 19 35 79 3d
       0.027653128 0.052751876 0.06251841 0.060841653
0003a0 7d b1 c0 3d 7e 4e c5 3c 35 a3 99 3c fc 31 95 bd
       0.09408853 0.02408528 0.018754581 -0.072849244
0003b0 52 a1 af 3c 97 75 8f bd 6d 02 e1 bd 0e 2e eb bd
       0.021439228 -0.0700485 -0.10986791 -0.114833936
0003c0 2e 38 34 3c 73 5a db 3d 34 4b 0f 3d 05 06 b7 bc
       0.010999722 0.10710611 0.03498383 -0.022341738
0003d0 2c 3e f7 bc 31 db 11 bd 32 51 27 3c bb 7d 3a bd
       -0.030181013 -0.035609428 0.01021223 -0.045530062
0003e0 55 36 2f bd 49 81 41 bd 23 ff 6c bd 69 bc 49 3b
       -0.042776424 -0.047242437 -0.057860505 0.0030782467
0003f0 8f d9 2f 3b ce 14 d7 3c ca cc a2 bc 81 13 dc 3c
       0.0026832556 0.026255038 -0.019873042 0.026864769

input_layer.bias f4 [128]
000000 8e a0 f8 3c c1 fe 60 bc 67 0b 14 3d eb 80 a7 3d
       0.030349996 -0.013732613 0.036143687 0.08178886
000010 04 ad 6d 3c b4 9f e6 3c e6 68 8b 3d 0a 68 8e 3d
       0.014506582 0.028152324 0.06807117 0.069534376
000020 2d 5a cd 3b 3c 37 26 bc 6a c7 2f 3d 38 98 9d 3c
       0.0062668533 -0.010145005 0.042914785 0.019237623
000030 dc 5a 17 bd ae 6b 3c 3d d1 26 55 3d fa 8a 5d bb
       -0.036951885 0.04600113 0.05203897 -0.003380476
000040 4a 95 38 3c bf 3e c3 bc b0 02 3b bd b4 95 5c bc
       0.011266062 -0.02383363 -0.04565686 -0.013463426
000050 ef ff 18 bd 79 f2 db bc 5e e3 2d bd 3b 56 98 bc
       -0.037353452 -0.026849018 -0.042453162 -0.018595805
000060 39 c9 b5 3c ee 9b 42 bc 3d 09 01 3d 03 45 0d bd
       0.022190677 -0.011877997 0.03150295 -0.034489643
000070 f3 a7 09 3d 54 65 33 3c ba f9 73 bc 33 05 1d 3d
       0.033607434 0.0109494515 -0.014891082 0.038335036
000080 4d 4b a5 3b 80 d7 a8 3c c7 8c 1e bd bb f0 0b 3d
       0.005044377 0.02061057 -0.038708474 0.034165125
000090 67 1f 6e 3b 7f 18 f9 bc 8c 13 22 3d 16 74 fe 3b
       0.0036334635 -0.030407188 0.039569423 0.0077653034
0000a0 fa a9 da bc f9 4e 70 3c 33 b2 e1 bc a8 20 20 3d
       -0.02669238 0.014667266 -0.027550792 0.039093643
0000b0 a2 f7 c6 bb 2c 4d 2a 3d 96 0e 03 bb df 2c 6a bc
       -0.0060720006 0.041577503 -0.0019997708 -0.014292925
0000c0 90 c6 f3 bb 14 14 46 bc 3f e6 3a 3c b4 13 a7 3b
       -0.007439442 -0.012089748 0.011407434 0.0050987843
0000d0 75 1d 1f 3d d3 e3 28 bd 11 1f 6c bc af 1a e0 bc
       0.03884645 -0.041232895 -0.014411704 -0.027356474
0000e0 eb 02 5f bd 87 5e 3f 3d a5 0f 53 3c ce 27 52 bd
       -0.054446142 0.046721008 0.012882148 -0.051307492
0000f0 d5 33 af 3c 45 e6 33 bd 3e 07 b7 3c 58 3d eb bc
       0.02138702 -0.043920774 0.02234232 -0.028715774
000100 88 90 8d bc 41 94 06 bd aa 7a 13 3c 4a a9 98 3b
       -0.017280832 -0.03285623 0.009001413 0.0046588527
000110 b7 87 db bc 0b 10 97 bc 37 32 20 bd 11 d7 d1 3c
       -0.026798112 -0.018440267 -0.03911039 0.025615247
000120 76 23 a3 3c a1 ce 2f 3c d7 e6 53 3c f0 e5 d7 ba
       0.01991437 0.0107304165 0.0129334545 -0.0016471725
000130 07 ce cb bb 87 68 3e bd 84 06 5c bd 2f 36 e4 3c
       -0.0062196287 -0.046486404 -0.05371715 0.027857868
000140 d1 c8 97 3c eb b9 de 39 06 8a 35 3d f8 4e 2b bc
       0.018528374 0.0004248166 0.044321083 -0.010455839
000150 1f d0 d5 bb 7e ff 0b bd 7e cc c8 3c ff 95 46 3b
       -0.006525054 -0.034179203 0.024511572 0.0030301807
000160 09 48 f7 ba 3e 94 e0 3c 70 51 a9 bc 70 60 d4 3c
       -0.0018866073 0.027414437 -0.020668715 0.025924891
000170 ae 61 06 bd ae 51 0f bd ee f0 c8 3c 8f cd c2 3c
       -0.032808 -0.034990005 0.024528947 0.023779659
000180 9c 2b 28 bd 5a 5c 34 bc bc df 02 bc ba 91 80 3d
       -0.041057214 -0.011008346 -0.007987913 0.06277795
000190 fb 0a 18 bc d8 a6 29 bb 31 05 fc 3b a1 c3 ca 3c
       -0.009279962 -0.00258868 0.0076910486 0.024751486
0001a0 b9 1a cd 3c 5c 03 51 bc 0a 39 b2 3c 62 f8 86 bd
       0.025037156 -0.012757149 0.021755714 -0.06590344
0001b0 0a 7c 21 bd 1f f0 24 bd ab 00 05 3d 2c 4e 6b 3c
       -0.039424933 -0.04026806 0.03247134 0.014361899
0001c0 08 9e a2 bc ac 4f e6 bb 3a c5 c7 3c cc 38 d1 3c
       -0.019850746 -0.0070285406 0.024386037 0.025539778
0001d0 b1 ac 3e 3d 63 37 c3 bc 59 22 b3 bc 56 c9 1b 3d
       0.04655141 -0.023830121 -0.021866964 0.038033806
0001e0 5f 0c c4 bc 7e fe db bc db ab c6 3c e9 42 f3 bb
       -0.02393168 -0.02685475 0.024251869 -0.007423748
0001f0 cb 6c 1b bd e7 4b 97 bc a6 ca 42 bd db a9 a9 bb
       -0.03794555 -0.01846881 -0.04755654 -0.005177719

output_layer.weight f4 [9, 128]
000000 4d 1b 02 bd e8 bc 94 bd 14 1d 0b 3d 85 e2 8b bd
       -0.031764317 -0.072625935 0.033963278 -0.068303145
000010 b5 73 da 3c e8 cc 73 3d da 5a a1 3c e0 0e 75 3d
       0.026666502 0.059521586 0.019696642 0.05982864
000020 71 5b 5b 3d 41 ca 09 3c 54 4f e7 bc de 86 31 bc
       0.053554002 0.0084100375 -0.028236069 -0.0108353775
000030 e2 58 d1 bb 72 10 7c 3b a5 ef ab 3c e9 f3 98 bc
       -0.0063887695 0.003846195 0.020988295 -0.018670993
000040 1b ed 50 3d cc 88 07 bd 74 1e 39 bd 20 01 84 3d
       0.05100737 -0.033089444 -0.045195058 0.06445527
000050 ae c2 52 bd 00 2e b3 3b d7 3b 0d 3d 5a 1c a1 3c
       -0.051455192 0.00546813 0.034480896 0.01966684
000060 db 1b 8e 3b 11 df 0b 3d f9 72 04 bb 42 05 e6 39
       0.0043368167 0.03414828 -0.002021013 0.00043872936
000070 14 0d 10 3d 7f 6d 1d 3d ed 37 80 bc eb fe 5d 3d
       0.035168722 0.0384345 -0.015651667 0.054198187
000080 93 15 f2 3b 45 1e 45 3c 0c ed 06 bd 7f db 11 3d
       0.0073878258 0.012031143 -0.03294091 0.03560972
000090 ba 33 9b 3c a4 ab f0 bc a6 16 6c bb a0 87 48 bc
       0.018945564 -0.02937872 -0.0036024242 -0.012239367
0000a0 24 75 97 bc 9f a5 c8 ba 66 53 00 bd e0 c9 b4 3c
       -0.018488474 -0.0015308148 -0.031329535 0.022068918
0000b0 2b a6 ce 3c 3e fe 5f 3c 1d fd 8a bd cd ab 13 bd
       0.02522572 0.013671456 -0.06786559 -0.036052514
0000c0 98 16 23 3b ee 14 e6 3c 67 5b 02 3e da cf 0a 3d
       0.0024885293 0.028086152 0.1273018 0.03388963
0000d0 56 27 68 3c f9 a6 5d ba 98 69 ba bd 3f 0d db 3b
       0.014169535 -0.0008455362 -0.09102172 0.0066849287
0000e0 45 e1 f3 3b 48 0a 58 3d 6f 70 a2 bb d2 78 70 bc
       0.0074426257 0.05274418 -0.004957251 -0.014677243
0000f0 a0 e2 b1 3c b1 5d 2a bc 42 f1 bc 3c f5 4a ef 3c
       0.021714509 -0.010398314 0.02306426 0.029210547
000100 b1 77 25 3d 59 ef 03 3d ba 57 9b bc d6 c2 97 bc
       0.04039735 0.03221068 -0.01896273 -0.018525522
000110 b6 11 82 3c 0c eb 89 bc e2 50 46 3c 00 31 8d 3c
       0.015877586 -0.016835712 0.012104245 0.01723528
000120 07 25 5c 3d 18 69 0d 3e ca d9 e7 3a 7f 2f 07 3d
       0.05374625 0.13809621 0.0017688808 0.03300428
000130 a8 d7 0b bd 50 5d 1a bd 4d e9 c5 bd df 67 86 3b
       -0.034141213 -0.037686646 -0.09663639 0.004101738
000140 3c 3b 89 3b 8e b5 25 bd 05 a8 eb bc 0c b3 6e 3d
       0.0041879695 -0.040456347 -0.028766641 0.05827622
000150 3d b1 ea 3b c6 11 a0 3c 91 d2 b8 3c 67 b8 08 3d
       0.0071622417 0.019539725 0.022561343 0.033378985
000160 54 bd ef 3c 40 8c 8f 3c 84 67 06 bc e7 a6 ac 3d
       0.029265083 0.017522931 -0.008203391 0.084302716
000170 61 df 08 bd 99 11 d4 bd 43 cf 04 3d a6 1e 41 bd
       -0.033416156 -0.10354919 0.032424223 -0.04714837
000180 c2 fd 38 bd 2a b3 cf 3c 98 77 5a bc 0f e9 19 3c
       -0.045163877 0.025353987 -0.013334177 0.009393944
000190 10 89 31 3d 8e ea 53 bd 30 55 61 3d 56 7b 02 ba
       0.043343604 -0.05173736 0.05501288 -0.0004977485
0001a0 e6 b3 8c 3c f8 7a 33 3d 89 d7 44 3d 60 ef 69 bd
       0.017175626 0.043818444 0.048057113 -0.05711305
0001b0 d5 e5 c1 bd 50 cd a4 3d 2a 5d 85 bd 3e 21 f1 bd
       -0.09467665 0.08046973 -0.0651191 -0.117739186
0001c0 c5 ad e5 bc ee c7 a5 bd 9d 44 de 3c e4 09 c4 3b
       -0.028036961 -0.08094774 0.027132327 0.0059826244
0001d0 1c b0 fe 3c 66 c1 85 bd a4 31 86 3c a7 c4 d1 3c
       0.031089835 -0.065310284 0.016381092 0.025606466
0001e0 71 b0 85 bc ec 70 7a 3c db 63 26 3d 20 30 28 3d
       -0.016319485 0.015285712 0.040622573 0.04106152
0001f0 12 dc e5 bc b1 c7 61 3c 24 23 f8 bc de 1c 23 bc
       -0.02805904 0.01378052 -0.030290194 -0.009955613
000200 d8 7d 90 bd b6 8e 65 bc 19 ae 09 3c 09 b7 3c bd
       -0.07055253 -0.014011076 0.0084033245 -0.046072993
000210 f4 51 bc ba fa 46 97 bc 9e 3f 31 bd 5d 22 a7 3d
       -0.0014367686 -0.018466461 -0.04327356 0.08160851
000220 1f 9b e7 3c a3 a8 3c 3c fc 7d fc 3c 12 78 5e bd
       0.02827221 0.0115148155 0.030821793 -0.054313727
000230 c5 53 fb 3c a2 26 c3 3c 6e ce 94 3d 66 cb 06 3e
       0.030679593 0.023822132 0.07265936 0.13163528
000240 38 92 35 3d 48 c3 ac 3b 0f fd bd bd b8 17 d8 bc
       0.0443289 0.005272303 -0.09276783 -0.026378497
000250 3b 70 88 bc 7e 82 28 3d 4d 87 f6 3c 3e d4 c9 3c
       -0.016655078 0.041140072 0.030093813 0.024637338
000260 9e 72 ff 3c 4f 89 83 bc 68 63 0d 3e 70 1e be 3d
       0.031182583 -0.016056685 0.13807452 0.09283149
000270 65 65 ec bc 88 0b 68 3b 5a 79 04 3d cd c2 38 3d
       -0.028856942 0.0035407264 0.032342292 0.04510765
000280 e0 7b 80 bd 52 0a 9a 3c 63 8c 49 bd f5 63 81 3d
       -0.06273627 0.01880375 -0.04920615 0.063178934
000290 63 41 0a 3e a3 4e 0d 3b 75 92 04 bc e5 7c a7 3b
       0.13501506 0.0021561764 -0.008091559 0.005111324
0002a0 c1 fa 7e bd e3 c6 9d bd 01 47 70 bd 72 67 8b 3d
       -0.062250856 -0.0770395 -0.058661465 0.0680684
0002b0 1c cd 89 bd bd 62 b5 3c 62 fb a7 bd 70 03 08 bd
       -0.06728575 0.022141809 -0.08202244 -0.033206403
0002c0 d7 8b bf bb 40 3d 87 bd ed 5b 95 3b 2d 80 7b bd
       -0.0058455276 -0.066034794 0.0045580775 -0.061401535
0002d0 1f 2e 49 3c 5a 45 fb 3c 63 e8 d3 3d ea 79 66 3d
       0.0122790625 0.030672718 0.103470586 0.05626861
0002e0 e1 1b 78 3d 65 8d 8c 3c 45 03 30 be bd 74 e7 3c
       0.060573462 0.017157266 -0.17188747 0.028253907
0002f0 17 6d 62 3d 49 ac 4f 3b cd 9c 64 3d d2 2b 39 bd
       0.055279817 0.0031688383 0.0558136 -0.045207806
000300 0b 9e eb 3d b5 91 c8 bc 86 fc 20 3b 2c d1 c2 3d
       0.11504754 -0.024483541 0.0024564578 0.095125526
000310 3c 27 67 3d 9d 4a e3 bc 90 1a 0c 3d dd 6f a7 3d
       0.0564339 -0.02774554 0.03420502 0.08175633
000320 2c 17 5d bc cf 3e c8 3d d0 01 96 3c 7a 3f 61 bb
       -0.013494294 0.09777605 0.018311411 -0.003437011
000330 81 71 80 bd 12 89 3a be 44 27 19 bd 11 54 9e 3d
       -0.06271649 -0.1821635 -0.037390962 0.07730878
000340 52 7a ce 3c ba 25 96 bd e5 af 32 bb 57 03 06 3e
       0.025204811 -0.073314145 -0.0027265486 0.13087212
000350 d1 d8 35 3b 2e c8 70 3d 60 a0 de 3d ef d9 c0 bd
       0.002774764 0.058784656 0.10870433 -0.094165675
000360 88 f7 aa 3d 85 a1 f2 ba 11 f7 d0 bd ad 56 9b bc
       0.08347994 -0.0018511271 -0.10203374 -0.018962229
000370 ad ca 03 3d 08 a7 fa bd 07 9d 27 3d 0c e5 b6 3b
       0.03217571 -0.1223889 0.040921237 0.0055815037
000380 c5 fa cf 3d b8 56 c4 3d a3 c5 9a bc 07 c6 1b 3d
       0.10155252 0.09586853 -0.018893069 0.03803065
000390 fc 86 b3 3d aa 50 ee 3d 4f 42 06 3d 30 4a 13 3d
       0.087659806 0.11636479 0.03277808 0.035959423
0003a0 d7 66 b2 3c a7 7d 16 bc 33 f0 a8 bc c1 ed ec bc
       0.021777553 -0.009185231 -0.020622348 -0.028921964
0003b0 98 c7 9a 3b 44 ed 20 3d 58 a5 4d bd cb fc af bc
       0.0047235005 0.039288774 -0.050206512 -0.021482846
0003c0 6a 87 e1 bc 24 4d ac bd 5c 34 27 bd ad 5f 4a bd
       -0.02753039 -0.08413151 -0.04082142 -0.04940765
0003d0 49 5c ae 3d 01 83 a1 bd 04 65 7c bb 97 aa 07 3d
       0.08513696 -0.07886315 -0.0038512358 0.03312167
0003e0 d0 f0 ab bd 9d 70 8d bd 64 28 6e 3d 81 59 31 bd
       -0.08395541 -0.06906245 0.05814399 -0.04329825
0003f0 fe fa 0f bd 77 a9 f4 bd 14 2c 5b 3d 25 aa 3b bd
       -0.035151474 -0.11946385 0.053508833 -0.04581656

output_layer.bias f4 [9]
000000 4d 75 71 3e 38 4e a2 3d 38 ec 91 3e 87 75 d5 3d
       0.23579903 0.07925075 0.28500533 0.10422807
000010 61 6b 40 3e 34 1d 34 3e 9b 13 85 3e b1 9c e0 3d
       0.18790962 0.17589265 0.2599152 0.109673865
000020 84 f9 5c 3f
       0.8631823
