src/models/linear_fashionmnist_holdout_[8]_swil2.pt (torch, 408595 bytes, 4 tensors)

input_layer.weight f4 [128, 784]
00000000: c616 3c3c 9f86 f5bb c921 2cbd e0bf 333c
00000010: 1ec7 35bb c5f9 4bbd 4bac af3b 7cb5 b33d
00000020: 2f0a 253d c5f2 863d 803f e23d b2f1 233e
00000030: ab10 e8bc 3b3a 12bd 8c82 6a3c 82f4 9dbd
00000040: a07c 9f3d 0b54 ed3d bdba d53c a5f0 143d
00000050: 8c8f 013e 3a22 8b3d 1d16 18bd 1fdd 23bb
00000060: f3fa e73a 5690 63bd 952f 2fbd c1d2 89bc
00000070: b636 2fbd fdb3 153b 9899 e4bc feab 043b
00000080: 34cc 63bd 28db d3bc 8aa9 633c 54c0 4ebd
00000090: 9bcd 6bbc b78e 25bc 721d 1e3d 5073 f93a
000000a0: 71e5 8b3c f8f3 c93c 0231 353d e1ba 62bd
000000b0: c5ad 633d 1af0 0c3d e4f1 183d 7c94 3dbb
000000c0: f96b 163c 76c7 453d f641 eb3b da00 57bd
000000d0: 6c6d 54bd ec40 17bd 51f2 273c 4234 0abc
000000e0: cb77 be3b 959e 21bd 3a20 293c 03e0 903a
000000f0: 9375 4cbc 7867 5fbd 74c1 b7bc 9ba2 8abc
00000100: bef4 04bc 6a79 593c e2fa 2fbc e082 df3c
00000110: 3dcc 1ebc 6804 8ebc 03bd c23c 4edf 94bd
00000120: 0646 dc3c e24d abbb cde9 0ebd 7d68 68bd
00000130: d61d 06bc 043a 443d 889c 34bc 5d53 0cbd
00000140: ee8d 36bc da0b 2cbc 5a8f 04bd 818c 163b
00000150: e9e4 cfbc ff00 c2bc 6928 d43b 5abc ac3c
00000160: 73cd 283d f2fb b93c 3833 893d 4916 933c
00000170: a483 b3bc fcaf 533c e74d 893d 585a 403d
00000180: 6a3b ef3b a0d0 5abd fa68 d8bc 700c b1bc
00000190: 580d 703c e78a 4c3d e73d db3c 110b 92bd
000001a0: e94d 90bd ff20 dd3c ccce 2bbc 1c55 a4bb
000001b0: a7a2 f2bb 0a77 40bd a754 c33b cbc9 e9bc
000001c0: d69c 67bd 0a01 a0bc 6a20 183c acdd 1039
000001d0: b23d 433c def8 71bc 80af da3d 0dc3 073d
000001e0: e45a 1338 ed9d b63c 87f3 363d 6d4e cabc
000001f0: becd 83bd 54fd 8e3b af93 aabd eae4 f1bc
00000200: ff0a d0bc 00d8 ae3c 2e81 9f3d e911 19bd
00000210: 05be ffbc f303 38bb ec01 4cbc 006e 993c
00000220: 117b 92bc 2030 cebc 3692 0bbc 5ba1 89bb
00000230: fdc6 533c 1818 23bd 9663 7fbc ba1d bd3c
00000240: e8f8 c73c ba44 9b3d 0aae 673d 34fe 5b3d
00000250: 9602 9a3d bb36 d9bb c2f5 f0bc aecd ccbc
00000260: 4210 bd3a afa0 85bc 3e3c 343c 0a28 babc
00000270: e4a4 1dbd cfba 0c3d 860a a23d b426 8a3b
00000280: 51af 1fbd 2272 88bc eec3 0a3c bfdc 18bd
00000290: 4e36 ebbc 8dbf a1bd eac5 1abd 3421 733c
000002a0: de8a 00bd 907b ccbc ad18 9fbc 18da 1ebd
000002b0: a79f 3dbc 258b 213d e151 8c3d d53f 7d3d
000002c0: ecac 223d 60d5 db3b cc60 da3c f6fb 05bd
000002d0: ee13 4cbd 6546 09bd 04a7 abbc a549 28bd
000002e0: 0d5d e4ba a4aa 7f3d 2207 253d 3456 b83c
000002f0: a9da b7bd 46c8 92bd cf6d c33b 6e7b 843c
00000300: a855 ccbd d0ae e3bc c8c7 3c3d b442 0cbc
00000310: 7e65 47bd 8bbb 89bc 5ebb 42bc 5b0e 36bc
00000320: e5f8 abbc b5d0 1a3d 68e0 fb3d c657 513d
00000330: 6f70 903c e392 8d3b d863 3fbb 27b0 a1bd
00000340: 6cc4 b7bc 5479 18bd 742d 48bd 5343 0d3d
00000350: c37f 253d 1078 563c 14b4 ae3d 4a2f e23d
00000360: 8a7b cc3d 32fa 04bd 67bc 2a3b edda d7bc
00000370: 89ad 25bd e121 43bd 8729 553c 55b0 bebc
00000380: ae48 81bb 2864 903c 84ab 9abc e295 093c
00000390: d088 e23c 5a12 583d a709 803d 1935 793d
000003a0: 7db1 c03d 7e4e c53c 35a3 993c fc31 95bd
000003b0: 52a1 af3c 9775 8fbd 6d02 e1bd 0e2e ebbd
000003c0: 2e38 343c 735a db3d 344b 0f3d 0506 b7bc
000003d0: 2c3e f7bc 31db 11bd 3251 273c bb7d 3abd
000003e0: 5536 2fbd 4981 41bd 23ff 6cbd 69bc 493b
000003f0: 8fd9 2f3b ce14 d73c cacc a2bc 8113 dc3c
0.011480039 -0.0074928547 -0.042024408 0.0109710395 -0.0027737091 -0.049798746 0.005361115 0.0877485
0.040292915 0.06589273 0.11047268 0.16010168 -0.02832826 -0.035700064 0.014313351 -0.07712652
0.07787442 0.115882955 0.02609002 0.03636231 0.12652415 0.067936376 -0.037130464 -0.0025003625
0.001769869 -0.05555757 -0.042769987 -0.016824128 -0.042776786 0.0022842877 -0.02790527 0.0020244117
-0.055614665 -0.025861338 0.013895402 -0.050476387 -0.014392282 -0.010104827 0.0386023 0.0019031558
0.01707718 0.024652466 0.04423619 -0.055354003 0.05558564 0.034408666 0.03734006 -0.0028927615
0.009181016 0.048285924 0.007179494 -0.052491046 -0.051862165 -0.03692715 0.010250644 -0.008435311
0.0058126203 -0.039457876 0.010322625 0.0011053089 -0.012479204 -0.054542035 -0.022431113 -0.01692324
-0.008114992 0.013273576 -0.0107409675 0.027284086 -0.009692249 -0.017336085 0.023771768 -0.072691545
0.026888859 -0.00522779 -0.03489094 -0.056740273 -0.008185824 0.04790689 -0.011023648 -0.03425919
-0.011142237 -0.0105008725 -0.032363273 0.002297193 -0.025377708 -0.023682116 0.006474544 0.021085907
0.041211557 0.022703145 0.06699222 0.017954962 -0.021913357 0.012920376 0.06704312 0.04696116
0.007300784 -0.053421617 -0.026417244 -0.021612376 0.014651619 0.049937155 0.026762916 -0.07131017
-0.0704611 0.026993273 -0.010486316 -0.0050150286 -0.0074046436 -0.046988524 0.005961019 -0.028538605
-0.056546055 -0.019531745 0.009285072 0.0001381549 0.011916565 -0.014768807 0.10678005 0.033145
3.513218e-05 0.022292102 0.04466584 -0.0246956 -0.064357266 0.004363695 -0.0832895 -0.0295281
-0.025395868 0.021343231 0.07788311 -0.037370596 -0.031218538 -0.0028078526 -0.01245163 0.01872921
-0.017880948 -0.025169432 -0.008518746 -0.0042001433 0.0129258605 -0.0398179 -0.015587708 0.023085464
0.02441068 0.07581468 0.05656246 0.053709224 0.075200245 -0.006628839 -0.029414061 -0.02500042
0.0014424401 -0.016311971 0.011000691 -0.02272417 -0.03848733 0.034357842 0.079121634 0.0042160396
-0.038985554 -0.016655985 0.008469565 -0.037319895 -0.028712418 -0.078978635 -0.0377864 0.014839459
-0.031382434 -0.024961263 -0.019420946 -0.03878221 -0.011573709 0.03943934 0.06851555 0.061828453
0.039715692 0.006708786 0.026657484 -0.03271099 -0.049823694 -0.0335144 -0.020953663 -0.041085858
-0.0017422751 0.062418595 0.040290006 0.022502042 -0.08977253 -0.071671054 0.005964018 0.016172137
-0.09977275 -0.027793318 0.046088964 -0.008560825 -0.048680775 -0.01681306 -0.011885492 -0.011111821
-0.020992706 0.037796695 0.122986615 0.051109098 0.017631738 0.004320489 -0.0029203799 -0.078949265
-0.022432528 -0.037225083 -0.048871472 0.034488034 0.040405046 0.013090149 0.08530441 0.11044176
0.09984501 -0.032465167 0.0026052238 -0.02634951 -0.0404487 -0.04763973 0.013010389 -0.023277441
-0.0039454317 0.017625883 -0.018880613 0.008397551 0.027653128 0.052751876 0.06251841 0.060841653
0.09408853 0.02408528 0.018754581 -0.072849244 0.021439228 -0.0700485 -0.10986791 -0.114833936
0.010999722 0.10710611 0.03498383 -0.022341738 -0.030181013 -0.035609428 0.01021223 -0.045530062
-0.042776424 -0.047242437 -0.057860505 0.0030782467 0.0026832556 0.026255038 -0.019873042 0.026864769

input_layer.bias f4 [128]
00000000: 8ea0 f83c c1fe 60bc 670b 143d eb80 a73d
00000010: 04ad 6d3c b49f e63c e668 8b3d 0a68 8e3d
00000020: 2d5a cd3b 3c37 26bc 6ac7 2f3d 3898 9d3c
00000030: dc5a 17bd ae6b 3c3d d126 553d fa8a 5dbb
00000040: 4a95 383c bf3e c3bc b002 3bbd b495 5cbc
00000050: efff 18bd 79f2 dbbc 5ee3 2dbd 3b56 98bc
00000060: 39c9 b53c ee9b 42bc 3d09 013d 0345 0dbd
00000070: f3a7 093d 5465 333c baf9 73bc 3305 1d3d
00000080: 4d4b a53b 80d7 a83c c78c 1ebd bbf0 0b3d
00000090: 671f 6e3b 7f18 f9bc 8c13 223d 1674 fe3b
000000a0: faa9 dabc f94e 703c 33b2 e1bc a820 203d
000000b0: a2f7 c6bb 2c4d 2a3d 960e 03bb df2c 6abc
000000c0: 90c6 f3bb 1414 46bc 3fe6 3a3c b413 a73b
000000d0: 751d 1f3d d3e3 28bd 111f 6cbc af1a e0bc
000000e0: eb02 5fbd 875e 3f3d a50f 533c ce27 52bd
000000f0: d533 af3c 45e6 33bd 3e07 b73c 583d ebbc
00000100: 8890 8dbc 4194 06bd aa7a 133c 4aa9 983b
00000110: b787 dbbc 0b10 97bc 3732 20bd 11d7 d13c
00000120: 7623 a33c a1ce 2f3c d7e6 533c f0e5 d7ba
00000130: 07ce cbbb 8768 3ebd 8406 5cbd 2f36 e43c
00000140: d1c8 973c ebb9 de39 068a 353d f84e 2bbc
00000150: 1fd0 d5bb 7eff 0bbd 7ecc c83c ff95 463b
00000160: 0948 f7ba 3e94 e03c 7051 a9bc 7060 d43c
00000170: ae61 06bd ae51 0fbd eef0 c83c 8fcd c23c
00000180: 9c2b 28bd 5a5c 34bc bcdf 02bc ba91 803d
00000190: fb0a 18bc d8a6 29bb 3105 fc3b a1c3 ca3c
000001a0: b91a cd3c 5c03 51bc 0a39 b23c 62f8 86bd
000001b0: 0a7c 21bd 1ff0 24bd ab00 053d 2c4e 6b3c
000001c0: 089e a2bc ac4f e6bb 3ac5 c73c cc38 d13c
000001d0: b1ac 3e3d 6337 c3bc 5922 b3bc 56c9 1b3d
000001e0: 5f0c c4bc 7efe dbbc dbab c63c e942 f3bb
000001f0: cb6c 1bbd e74b 97bc a6ca 42bd dba9 a9bb
0.030349996 -0.013732613 0.036143687 0.08178886 0.014506582 0.028152324 0.06807117 0.069534376
0.0062668533 -0.010145005 0.042914785 0.019237623 -0.036951885 0.04600113 0.05203897 -0.003380476
0.011266062 -0.02383363 -0.04565686 -0.013463426 -0.037353452 -0.026849018 -0.042453162 -0.018595805
0.022190677 -0.011877997 0.03150295 -0.034489643 0.033607434 0.0109494515 -0.014891082 0.038335036
0.005044377 0.02061057 -0.038708474 0.034165125 0.0036334635 -0.030407188 0.039569423 0.0077653034
-0.02669238 0.014667266 -0.027550792 0.039093643 -0.0060720006 0.041577503 -0.0019997708 -0.014292925
-0.007439442 -0.012089748 0.011407434 0.0050987843 0.03884645 -0.041232895 -0.014411704 -0.027356474
-0.054446142 0.046721008 0.012882148 -0.051307492 0.02138702 -0.043920774 0.02234232 -0.028715774
-0.017280832 -0.03285623 0.009001413 0.0046588527 -0.026798112 -0.018440267 -0.03911039 0.025615247
0.01991437 0.0107304165 0.0129334545 -0.0016471725 -0.0062196287 -0.046486404 -0.05371715 0.027857868
0.018528374 0.0004248166 0.044321083 -0.010455839 -0.006525054 -0.034179203 0.024511572 0.0030301807
-0.0018866073 0.027414437 -0.020668715 0.025924891 -0.032808 -0.034990005 0.024528947 0.023779659
-0.041057214 -0.011008346 -0.007987913 0.06277795 -0.009279962 -0.00258868 0.0076910486 0.024751486
0.025037156 -0.012757149 0.021755714 -0.06590344 -0.039424933 -0.04026806 0.03247134 0.014361899
-0.019850746 -0.0070285406 0.024386037 0.025539778 0.04655141 -0.023830121 -0.021866964 0.038033806
-0.02393168 -0.02685475 0.024251869 -0.007423748 -0.03794555 -0.01846881 -0.04755654 -0.005177719

output_layer.weight f4 [9, 128]
00000000: 8b8c 663d fe46 5dbd 0351 d23c f449 823d
00000010: 5908 353d b04e 3f3d e51c 053e 9006 b63d
00000020: 4a0e 1e3d 4736 6cbd 81ed 8eba 7a92 e2bb
00000030: 1541 29bd c7dd a4bd 407f 163e ea82 19bd
00000040: e45f 843d e516 c2bc b105 81bd 1f25 053e
00000050: dd97 2fbd cd3e 12be 0e0a aebd 8c26 9fbd
00000060: f094 013e 8109 a0bd 11ef 9abd f963 e3bd
00000070: efb9 76bd 89c9 9a3d f399 20be 12fb 063e
00000080: 1120 9c3d ae7d e5bd b8aa c9bb 0ba6 f3bc
00000090: faf1 2a3e 50a3 2cbe 8737 16bd c1cd edbd
000000a0: 8327 1c3e 8930 363e c183 babd 6c8f 2d3e
000000b0: 0d07 f63d cc84 e63d cc4f aa3d ef0f 06be
000000c0: 372b 88bd cfdf 14bd d3f7 db3d 4c1f 1c3e
000000d0: 3a48 ed3c 9fb5 2e3c 4926 e03b 1c21 06be
000000e0: 0552 4dbd 9b8c ec3c b7e4 12bd ed33 ecbd
000000f0: 9928 52bd 7097 8cbd e763 7abc 9a1b a4bb
00000100: 5726 02bc 7832 403c 4081 8d3d a9e8 cbbd
00000110: b646 4d3d e60c 8d3d 6bcd f3bc cf52 033e
00000120: fc77 c73d 2a15 51bd fb2a 833d 635b b33d
00000130: 3b59 103d bd9d 7ebd ddc4 0bbe 5f20 b03d
00000140: 3bf8 22bc 81a0 833d 8a4b 043d 3fd0 443d
00000150: 95a6 b93d a727 35bd fa1d f33b 850f 353e
00000160: 5cc0 c33c fe11 f13c d6c7 4dbd 6500 5f3d
00000170: 66b5 15be 2c7e 10be a2bf a8bd 561a 17be
00000180: f272 fdbc 7004 2d3d 790d 8f3d 9d0a 0e3e
00000190: 07ab b73d e370 cebd 98f4 0c3e 4249 0d3d
000001a0: beb6 753c bae5 a63d befd 04be 71fa c5bd
000001b0: 6aa3 a1bc e645 cbbc 38be 853d 6cc3 203c
000001c0: 24f8 333d 3437 073d cfe4 9e3d 6377 933d
000001d0: 60e5 323d 93dc 4dbd 34b6 88bc 3ff5 243e
000001e0: e739 eebd d708 343d 2415 9e3d 2686 d6bd
000001f0: 66b5 dabd afc0 323e 31d1 52bd 3b68 59bd
00000200: 4ab9 903d 1550 fbbd 5489 253d 3019 47bd
00000210: d8e8 d93d 6643 b73c fa90 683c 41df 143e
00000220: f0fd 543c f7fc e1bd ec4c febb 3bc0 12be
00000230: 3d63 aebd 80ec 81bc cc10 e63d b967 03be
00000240: 4ce1 d6bb c471 edbd a10e e7bd fcec b7bd
00000250: 7502 f3bd 5202 f3bd bd59 abbb 00ef da3d
00000260: 114e a93d d728 3bbe 1226 273d 7c72 3ebd
00000270: 8748 623d 6f3e 4cbd ecb6 3abd 12fe 0a3e
00000280: 5e73 8bbd bfb2 0dbe 65f0 fc3c ba11 5e3d
00000290: 5abd 843e dc32 7dbd a4df 973d b629 90bd
000002a0: 3d6d 2dbd 931f 123c 45a4 25bd 5d17 103d
000002b0: a23f ffbc fd81 01be d4bd 04be 5e75 1bbe
000002c0: 195e 3abe 244f a73d 3b3a 523d e3d5 bcbd
000002d0: e68b 03be a04c 6e3b 36a5 8abd 28da 183e
000002e0: 2b6d a23d 8ca4 19be 3f90 11bd 2834 8cbd
000002f0: fdc9 24bd c510 e53c e36a 413d d724 cdbd
00000300: ed69 063e 7659 c53d 30eb 9d3d ed60 e6bd
00000310: 0748 a9bd 0db3 d9bd 3571 233e 19f9 02be
00000320: 713c 85bd 89fe 98bd 079b 1a3e 9679 05be
00000330: e1c2 a43d f7ba 1f3d 1e55 00be 08c1 87bc
00000340: 05ba 0b3e e68d 5b3d 7188 bc3d 4c57 c7bd
00000350: 40b2 58be 944f 20be e655 843d 1912 033e
00000360: 99ef 333e cf28 223e 1d40 13bd e5fd b43d
00000370: c039 013d 5e83 723c 81bf ad3d 1e67 463d
00000380: e9f5 23bd 5fe0 f2bc aa1d 093e a41f fb3d
00000390: 808e ff3d 9891 2d3e cb72 203e 5d1b dabd
000003a0: 9a5d d43d 3d11 5ebe d7e1 193d 9d1b 14be
000003b0: dd51 b13d a517 d43d 2208 a4bd c761 013d
000003c0: f266 cb3d 0925 913d 1edb d33d 53d0 0b3e
000003d0: 6e5a 5a3c 4a50 c8bd 6eda 113e 4313 0c3e
000003e0: b86a ad3c 7af6 48be b7b2 683d 347f 53be
000003f0: a495 3ebe 2654 ffbc e594 d7bd dd8f 12be
0.056286376 -0.05402278 0.025673395 0.06361762 0.044197414 0.0467059 0.12999304 0.088879704
0.038587846 -0.05766895 -0.0010904522 -0.006914434 -0.041321833 -0.08050113 0.1469698 -0.037478365
0.06463602 -0.023692558 -0.06299914 0.13002442 -0.042869437 -0.14281769 -0.084980115 -0.07771024
0.12654471 -0.07814313 -0.075651295 -0.11103053 -0.060235914 0.07557971 -0.15683727 0.13181713
0.07623304 -0.11205612 -0.0061543845 -0.029742261 0.16693869 -0.16859174 -0.03667405 -0.1161151
0.15249448 0.17791952 -0.09107161 0.16949242 0.120130636 0.11255798 0.08316001 -0.13092016
-0.066488676 -0.036346253 0.10740628 0.15246314 0.028965104 0.010663419 0.0068405014 -0.13098568
-0.050127048 0.02887564 -0.03586265 -0.115333416 -0.05130825 -0.06864822 -0.015282608 -0.005008173
-0.007943711 0.011730783 0.06909418 -0.09956486 0.050116263 0.06887226 -0.029761037 0.12824558
0.09739682 -0.051045574 0.06404682 0.08757665 0.035241347 -0.06216215 -0.13649316 0.08599924
-0.009946878 0.06427098 0.032298602 0.04805016 0.09064976 -0.04422727 0.007419345 0.17681701
0.023895435 0.029427525 -0.050239407 0.054443736 -0.1461998 -0.14110631 -0.08239676 -0.1475614
-0.0309386 0.04224056 0.069849916 0.13871236 0.08968168 -0.10080125 0.1376518 0.034493692
0.014997182 0.081492856 -0.1298742 -0.096669085 -0.019731242 -0.024813604 0.06530422 0.009812217
0.043937817 0.03301163 0.077584855 0.072005056 0.04367578 -0.050259184 -0.016688444 0.16109179
-0.11632138 0.043953743 0.07718876 -0.104748055 -0.1067913 0.17456315 -0.05146903 -0.053077918
0.07066591 -0.12271134 0.04041417 -0.048608005 0.106401145 0.022371005 0.014194721 0.1453829
0.012999997 -0.11034577 -0.0077606346 -0.14331143 -0.08515022 -0.015859842 0.112336725 -0.12832536
-0.006557619 -0.11593965 -0.11282087 -0.08980748 -0.11865703 -0.11865677 -0.0052292035 0.10690117
0.08266843 -0.18277298 0.04080779 -0.0464959 0.05524495 -0.04986423 -0.045584604 0.13573483
-0.06809114 -0.13837717 0.030876348 0.054216124 0.25925714 -0.06181608 0.07415703 -0.07039206
-0.042340506 0.008918661 -0.040439863 0.03517853 -0.031158272 -0.12647243 -0.12963039 -0.15181491
-0.18199958 0.08169392 0.051325064 -0.09220483 -0.12846336 0.003636159 -0.06769793 0.1492697
0.079309784 -0.15004176 -0.035537954 -0.068458855 -0.040231694 0.027962098 0.047221076 -0.10016792
0.13126345 0.09636204 0.07710874 -0.11248956 -0.08265691 -0.10629854 0.15961154 -0.12790336
-0.06505669 -0.07470424 0.150982 -0.13034663 0.08044983 0.038996663 -0.1253247 -0.016571537
0.1364518 0.05360212 0.09205712 -0.097334474 -0.21161747 -0.15655357 0.06461696 0.12799872
0.17571868 0.1583588 -0.035949815 0.08837489 0.031549215 0.014801828 0.08483792 0.048438184
-0.04002944 -0.029648004 0.13390222 0.12261894 0.124783516 0.16950071 0.1566879 -0.106497504
0.103694156 -0.21686263 0.037568893 -0.14463659 0.08658192 0.10356072 -0.08009364 0.03158739
0.09931745 0.07087142 0.10344528 0.13653688 0.013327224 -0.09780939 0.1424348 0.13679223
0.021169052 -0.19625273 0.05681106 -0.20653993 -0.18611771 -0.031168055 -0.10526446 -0.14312692

output_layer.bias f4 [9]
00000000: d032 083e 1b1c 053d 5db5 253e 331b 2d3d
00000010: 0bc2 a53d b200 943b 149a 063e c303 1c3c
00000020: 8a31 a73c
0.13300633 0.032497507 0.16182466 0.042262267 0.080936514 0.0045166845 0.13144714 0.009522381
0.020409364
