src/models/linear_fashionmnist_holdout_[8]_swil3.pt (torch, 408595 bytes, 4 tensors)

input_layer.weight f4 [128, 784]
0.011480039 -0.0074928547 -0.042024408 0.0109710395 -0.0027737091 -0.049798746 0.005361115 0.0877485
0.040292915 0.06589273 0.11047268 0.16010168 -0.02832826 -0.035700064 0.014313351 -0.07712652
0.07787442 0.115882955 0.02609002 0.03636231 0.12652415 0.067936376 -0.037130464 -0.0025003625
0.001769869 -0.05555757 -0.042769987 -0.016824128 -0.042776786 0.0022842877 -0.02790527 0.0020244117
-0.055614665 -0.025861338 0.013895402 -0.050476387 -0.014392282 -0.010104827 0.0386023 0.0019031558
0.01707718 0.024652466 0.04423619 -0.055354003 0.05558564 0.034408666 0.03734006 -0.0028927615
0.009181016 0.048285924 0.007179494 -0.052491046 -0.051862165 -0.03692715 0.010250644 -0.008435311
0.0058126203 -0.039457876 0.010322625 0.0011053089 -0.012479204 -0.054542035 -0.022431113 -0.01692324
-0.008114992 0.013273576 -0.0107409675 0.027284086 -0.009692249 -0.017336085 0.023771768 -0.072691545
0.026888859 -0.00522779 -0.03489094 -0.056740273 -0.008185824 0.04790689 -0.011023648 -0.03425919
-0.011142237 -0.0105008725 -0.032363273 0.002297193 -0.025377708 -0.023682116 0.006474544 0.021085907
0.041211557 0.022703145 0.06699222 0.017954962 -0.021913357 0.012920376 0.06704312 0.04696116
0.007300784 -0.053421617 -0.026417244 -0.021612376 0.014651619 0.049937155 0.026762916 -0.07131017
-0.0704611 0.026993273 -0.010486316 -0.0050150286 -0.0074046436 -0.046988524 0.005961019 -0.028538605
-0.056546055 -0.019531745 0.009285072 0.0001381549 0.011916565 -0.014768807 0.10678005 0.033145
3.513218e-05 0.022292102 0.04466584 -0.0246956 -0.064357266 0.004363695 -0.0832895 -0.0295281
-0.025395868 0.021343231 0.07788311 -0.037370596 -0.031218538 -0.0028078526 -0.01245163 0.01872921
-0.017880948 -0.025169432 -0.008518746 -0.0042001433 0.0129258605 -0.0398179 -0.015587708 0.023085464
0.02441068 0.07581468 0.05656246 0.053709224 0.075200245 -0.006628839 -0.029414061 -0.02500042
0.0014424401 -0.016311971 0.011000691 -0.02272417 -0.03848733 0.034357842 0.079121634 0.0042160396
-0.038985554 -0.016655985 0.008469565 -0.037319895 -0.028712418 -0.078978635 -0.0377864 0.014839459
-0.031382434 -0.024961263 -0.019420946 -0.03878221 -0.011573709 0.03943934 0.06851555 0.061828453
0.039715692 0.006708786 0.026657484 -0.03271099 -0.049823694 -0.0335144 -0.020953663 -0.041085858
-0.0017422751 0.062418595 0.040290006 0.022502042 -0.08977253 -0.071671054 0.005964018 0.016172137
-0.09977275 -0.027793318 0.046088964 -0.008560825 -0.048680775 -0.01681306 -0.011885492 -0.011111821
-0.020992706 0.037796695 0.122986615 0.051109098 0.017631738 0.004320489 -0.0029203799 -0.078949265
-0.022432528 -0.037225083 -0.048871472 0.034488034 0.040405046 0.013090149 0.08530441 0.11044176
0.09984501 -0.032465167 0.0026052238 -0.02634951 -0.0404487 -0.04763973 0.013010389 -0.023277441
-0.0039454317 0.017625883 -0.018880613 0.008397551 0.027653128 0.052751876 0.06251841 0.060841653
0.09408853 0.02408528 0.018754581 -0.072849244 0.021439228 -0.0700485 -0.10986791 -0.114833936
0.010999722 0.10710611 0.03498383 -0.022341738 -0.030181013 -0.035609428 0.01021223 -0.045530062
-0.042776424 -0.047242437 -0.057860505 0.0030782467 0.0026832556 0.026255038 -0.019873042 0.026864769
00000000: c616 3c3c 9f86 f5bb c921 2cbd e0bf 333c
00000010: 1ec7 35bb c5f9 4bbd 4bac af3b 7cb5 b33d
00000020: 2f0a 253d c5f2 863d 803f e23d b2f1 233e
00000030: ab10 e8bc 3b3a 12bd 8c82 6a3c 82f4 9dbd
00000040: a07c 9f3d 0b54 ed3d bdba d53c a5f0 143d
00000050: 8c8f 013e 3a22 8b3d 1d16 18bd 1fdd 23bb
00000060: f3fa e73a 5690 63bd 952f 2fbd c1d2 89bc
00000070: b636 2fbd fdb3 153b 9899 e4bc feab 043b
00000080: 34cc 63bd 28db d3bc 8aa9 633c 54c0 4ebd
00000090: 9bcd 6bbc b78e 25bc 721d 1e3d 5073 f93a
000000a0: 71e5 8b3c f8f3 c93c 0231 353d e1ba 62bd
000000b0: c5ad 633d 1af0 0c3d e4f1 183d 7c94 3dbb
000000c0: f96b 163c 76c7 453d f641 eb3b da00 57bd
000000d0: 6c6d 54bd ec40 17bd 51f2 273c 4234 0abc
000000e0: cb77 be3b 959e 21bd 3a20 293c 03e0 903a
000000f0: 9375 4cbc 7867 5fbd 74c1 b7bc 9ba2 8abc
00000100: bef4 04bc 6a79 593c e2fa 2fbc e082 df3c
00000110: 3dcc 1ebc 6804 8ebc 03bd c23c 4edf 94bd
00000120: 0646 dc3c e24d abbb cde9 0ebd 7d68 68bd
00000130: d61d 06bc 043a 443d 889c 34bc 5d53 0cbd
00000140: ee8d 36bc da0b 2cbc 5a8f 04bd 818c 163b
00000150: e9e4 cfbc ff00 c2bc 6928 d43b 5abc ac3c
00000160: 73cd 283d f2fb b93c 3833 893d 4916 933c
00000170: a483 b3bc fcaf 533c e74d 893d 585a 403d
00000180: 6a3b ef3b a0d0 5abd fa68 d8bc 700c b1bc
00000190: 580d 703c e78a 4c3d e73d db3c 110b 92bd
000001a0: e94d 90bd ff20 dd3c ccce 2bbc 1c55 a4bb
000001b0: a7a2 f2bb 0a77 40bd a754 c33b cbc9 e9bc
000001c0: d69c 67bd 0a01 a0bc 6a20 183c acdd 1039
000001d0: b23d 433c def8 71bc 80af da3d 0dc3 073d
000001e0: e45a 1338 ed9d b63c 87f3 363d 6d4e cabc
000001f0: becd 83bd 54fd 8e3b af93 aabd eae4 f1bc
00000200: ff0a d0bc 00d8 ae3c 2e81 9f3d e911 19bd
00000210: 05be ffbc f303 38bb ec01 4cbc 006e 993c
00000220: 117b 92bc 2030 cebc 3692 0bbc 5ba1 89bb
00000230: fdc6 533c 1818 23bd 9663 7fbc ba1d bd3c
00000240: e8f8 c73c ba44 9b3d 0aae 673d 34fe 5b3d
00000250: 9602 9a3d bb36 d9bb c2f5 f0bc aecd ccbc
00000260: 4210 bd3a afa0 85bc 3e3c 343c 0a28 babc
00000270: e4a4 1dbd cfba 0c3d 860a a23d b426 8a3b
00000280: 51af 1fbd 2272 88bc eec3 0a3c bfdc 18bd
00000290: 4e36 ebbc 8dbf a1bd eac5 1abd 3421 733c
000002a0: de8a 00bd 907b ccbc ad18 9fbc 18da 1ebd
000002b0: a79f 3dbc 258b 213d e151 8c3d d53f 7d3d
000002c0: ecac 223d 60d5 db3b cc60 da3c f6fb 05bd
000002d0: ee13 4cbd 6546 09bd 04a7 abbc a549 28bd
000002e0: 0d5d e4ba a4aa 7f3d 2207 253d 3456 b83c
000002f0: a9da b7bd 46c8 92bd cf6d c33b 6e7b 843c
00000300: a855 ccbd d0ae e3bc c8c7 3c3d b442 0cbc
00000310: 7e65 47bd 8bbb 89bc 5ebb 42bc 5b0e 36bc
00000320: e5f8 abbc b5d0 1a3d 68e0 fb3d c657 513d
00000330: 6f70 903c e392 8d3b d863 3fbb 27b0 a1bd
00000340: 6cc4 b7bc 5479 18bd 742d 48bd 5343 0d3d
00000350: c37f 253d 1078 563c 14b4 ae3d 4a2f e23d
00000360: 8a7b cc3d 32fa 04bd 67bc 2a3b edda d7bc
00000370: 89ad 25bd e121 43bd 8729 553c 55b0 bebc
00000380: ae48 81bb 2864 903c 84ab 9abc e295 093c
00000390: d088 e23c 5a12 583d a709 803d 1935 793d
000003a0: 7db1 c03d 7e4e c53c 35a3 993c fc31 95bd
000003b0: 52a1 af3c 9775 8fbd 6d02 e1bd 0e2e ebbd
000003c0: 2e38 343c 735a db3d 344b 0f3d 0506 b7bc
000003d0: 2c3e f7bc 31db 11bd 3251 273c bb7d 3abd
000003e0: 5536 2fbd 4981 41bd 23ff 6cbd 69bc 493b
000003f0: 8fd9 2f3b ce14 d73c cacc a2bc 8113 dc3c

input_layer.bias f4 [128]
0.030349996 -0.013732613 0.036143687 0.08178886 0.014506582 0.028152324 0.06807117 0.069534376
0.0062668533 -0.010145005 0.042914785 0.019237623 -0.036951885 0.04600113 0.05203897 -0.003380476
0.011266062 -0.02383363 -0.04565686 -0.013463426 -0.037353452 -0.026849018 -0.042453162 -0.018595805
0.022190677 -0.011877997 0.03150295 -0.034489643 0.033607434 0.0109494515 -0.014891082 0.038335036
0.005044377 0.02061057 -0.038708474 0.034165125 0.0036334635 -0.030407188 0.039569423 0.0077653034
-0.02669238 0.014667266 -0.027550792 0.039093643 -0.0060720006 0.041577503 -0.0019997708 -0.014292925
-0.007439442 -0.012089748 0.011407434 0.0050987843 0.03884645 -0.041232895 -0.014411704 -0.027356474
-0.054446142 0.046721008 0.012882148 -0.051307492 0.02138702 -0.043920774 0.02234232 -0.028715774
-0.017280832 -0.03285623 0.009001413 0.0046588527 -0.026798112 -0.018440267 -0.03911039 0.025615247
0.01991437 0.0107304165 0.0129334545 -0.0016471725 -0.0062196287 -0.046486404 -0.05371715 0.027857868
0.018528374 0.0004248166 0.044321083 -0.010455839 -0.006525054 -0.034179203 0.024511572 0.0030301807
-0.0018866073 0.027414437 -0.020668715 0.025924891 -0.032808 -0.034990005 0.024528947 0.023779659
-0.041057214 -0.011008346 -0.007987913 0.06277795 -0.009279962 -0.00258868 0.0076910486 0.024751486
0.025037156 -0.012757149 0.021755714 -0.06590344 -0.039424933 -0.04026806 0.03247134 0.014361899
-0.019850746 -0.0070285406 0.024386037 0.025539778 0.04655141 -0.023830121 -0.021866964 0.038033806
-0.02393168 -0.02685475 0.024251869 -0.007423748 -0.03794555 -0.01846881 -0.04755654 -0.005177719
00000000: 8ea0 f83c c1fe 60bc 670b 143d eb80 a73d
00000010: 04ad 6d3c b49f e63c e668 8b3d 0a68 8e3d
00000020: 2d5a cd3b 3c37 26bc 6ac7 2f3d 3898 9d3c
00000030: dc5a 17bd ae6b 3c3d d126 553d fa8a 5dbb
00000040: 4a95 383c bf3e c3bc b002 3bbd b495 5cbc
00000050: efff 18bd 79f2 dbbc 5ee3 2dbd 3b56 98bc
00000060: 39c9 b53c ee9b 42bc 3d09 013d 0345 0dbd
00000070: f3a7 093d 5465 333c baf9 73bc 3305 1d3d
00000080: 4d4b a53b 80d7 a83c c78c 1ebd bbf0 0b3d
00000090: 671f 6e3b 7f18 f9bc 8c13 223d 1674 fe3b
000000a0: faa9 dabc f94e 703c 33b2 e1bc a820 203d
000000b0: a2f7 c6bb 2c4d 2a3d 960e 03bb df2c 6abc
000000c0: 90c6 f3bb 1414 46bc 3fe6 3a3c b413 a73b
000000d0: 751d 1f3d d3e3 28bd 111f 6cbc af1a e0bc
000000e0: eb02 5fbd 875e 3f3d a50f 533c ce27 52bd
000000f0: d533 af3c 45e6 33bd 3e07 b73c 583d ebbc
00000100: 8890 8dbc 4194 06bd aa7a 133c 4aa9 983b
00000110: b787 dbbc 0b10 97bc 3732 20bd 11d7 d13c
00000120: 7623 a33c a1ce 2f3c d7e6 533c f0e5 d7ba
00000130: 07ce cbbb 8768 3ebd 8406 5cbd 2f36 e43c
00000140: d1c8 973c ebb9 de39 068a 353d f84e 2bbc
00000150: 1fd0 d5bb 7eff 0bbd 7ecc c83c ff95 463b
00000160: 0948 f7ba 3e94 e03c 7051 a9bc 7060 d43c
00000170: ae61 06bd ae51 0fbd eef0 c83c 8fcd c23c
00000180: 9c2b 28bd 5a5c 34bc bcdf 02bc ba91 803d
00000190: fb0a 18bc d8a6 29bb 3105 fc3b a1c3 ca3c
000001a0: b91a cd3c 5c03 51bc 0a39 b23c 62f8 86bd
000001b0: 0a7c 21bd 1ff0 24bd ab00 053d 2c4e 6b3c
000001c0: 089e a2bc ac4f e6bb 3ac5 c73c cc38 d13c
000001d0: b1ac 3e3d 6337 c3bc 5922 b3bc 56c9 1b3d
000001e0: 5f0c c4bc 7efe dbbc dbab c63c e942 f3bb
000001f0: cb6c 1bbd e74b 97bc a6ca 42bd dba9 a9bb

output_layer.weight f4 [9, 128]
0.010603234 -0.059322454 -0.014940927 0.008744893 0.1056339 0.093259335 0.086292215 0.109416194
0.21690105 -0.036651265 -0.08117811 -0.102391824 0.089447096 -0.14371806 0.113422 -0.025693392
0.04419372 -0.09403727 -0.11753508 0.12875615 0.035122994 -0.08604143 -0.076269686 -0.049089864
-0.035678018 -0.03767788 -0.033393655 0.05388549 -0.057982408 0.09278252 -0.090702765 0.14930604
-0.12110979 -0.11879702 -0.013244914 0.012967477 0.097720675 -0.10029058 -0.17100684 0.024315331
0.10946979 0.10096172 -0.071391955 0.13137949 0.037189346 0.09189312 -0.011421763 -0.12977359
0.00067770155 0.024266442 0.05038415 0.1082395 -0.0924913 0.10453068 0.015461529 -0.03633925
-0.059356056 -0.012633499 0.056572847 -0.04066559 0.010550898 0.018637022 0.18260008 -0.07627973
-0.018435474 0.08450084 0.043878235 -0.060806748 -0.14761133 0.13845795 -0.050449494 0.10581968
0.03500121 0.18573354 -0.00030994433 0.09041956 -0.17866957 0.038933083 -0.06362868 0.033435617
0.06209815 -0.004885737 -0.055755876 0.096868835 0.07020557 0.037049912 -0.093017675 0.010385564
0.04789433 0.025095198 -0.07711107 0.056065023 -0.118920326 0.027816638 -0.11712365 -0.102281235
-0.044885796 0.0045645796 0.12752616 0.067386426 -0.03586389 -0.042336337 0.09368966 0.09720419
0.022388166 0.033925183 -0.1302045 -0.047480732 0.028459104 -0.04942884 0.031675152 0.109084055
-0.1389058 0.07553047 0.1316228 0.07442505 0.06304068 -0.16436324 0.11922443 0.11674658
-0.08560895 -0.020587567 0.070437744 -0.07897405 -0.1267485 0.08484271 -0.077157155 -0.01262123
0.030141132 -0.067369044 0.041924987 -0.014655175 0.13295397 -0.030370563 0.018830022 0.13677011
0.0006409057 -0.12767579 -0.035204545 -0.15721495 -0.0022512386 -0.07105577 0.12067354 -0.1113813
-0.056921482 -0.1359727 -0.11060181 -0.07875249 -0.12697475 -0.12223316 -0.026748203 0.10877099
0.09939052 -0.15222742 0.05427557 -0.06930681 0.0814096 -0.07761298 -0.03586434 0.122737885
-0.078082904 -0.11179303 0.049823333 0.084485404 0.21550047 -0.04454781 0.006960377 -0.002254951
0.004698244 0.040557813 -0.062487237 0.05206414 0.003454313 -0.10661684 -0.1424241 -0.12523413
-0.14789993 0.08186409 0.0038908105 -0.036001246 -0.1403958 -0.010836808 -0.09336398 0.1360066
0.09514936 -0.15123543 -0.04907427 -0.043560166 -0.0059347916 -0.012086219 0.11150899 -0.14173818
0.10568478 0.12422069 0.059778746 -0.08659952 -0.09279888 -0.1153676 0.18275777 -0.09923769
-0.13388024 0.006682256 0.10328184 -0.1707913 0.0052755796 0.0634039 -0.10476651 -0.0819747
0.16342303 0.037580658 0.06613337 -0.07018232 -0.17224263 -0.10792555 0.06907355 0.065694824
0.18854195 0.14838967 -0.06943013 0.106735006 -0.013851965 0.050627753 0.039467722 0.04252894
-0.07821186 -0.06762852 0.11015047 0.07965737 0.09753982 0.1767344 0.12796003 -0.05573268
0.10133087 -0.21526487 0.0023988723 -0.1273601 0.121730804 0.06310494 -0.040494636 0.045683015
0.0517599 0.041859694 0.102045156 0.07053168 0.04712955 -0.12572785 0.17052996 0.1320007
-0.022411013 -0.20912685 0.081943154 -0.18761186 -0.16882153 -0.013601016 -0.11752255 -0.119579665
00000000: 30b9 2d3c 1afc 72bd caca 74bc bd46 0f3c
00000010: 9656 d83d c0fe be3d f9b9 b03d 9915 e03d
00000020: 4f1b 5e3e a31f 16bd b540 a6bd ceb2 d1bd
00000030: 0a30 b73d d42a 13be cb49 e83d f37a d2bc
00000040: 7904 353d 9d96 c0bd 3bb6 f0bd a7d8 033e
00000050: 21dd 0f3d 7d36 b0bd 4833 9cbd 7412 49bd
00000060: 1d23 12bd 1f54 1abd c9c7 08bd 08b7 5c3d
00000070: f67e 6dbd c304 be3d 5fc2 b9bd afe3 183e
00000080: 6908 f8bd da4b f3bd 3201 59bc 8a75 543c
00000090: c721 c83d 2665 cdbd 6b1c 2fbe f230 c73c
000000a0: b231 e03d 05c5 ce3d f235 92bd 5888 063e
000000b0: db53 183d 7632 bc3d 5922 3bbc 5ee3 04be
000000c0: c8a7 313a 6bca c63c 9c5f 4e3d acac dd3d
000000d0: 146c bdbd 2e14 d63d 5a52 7d3c 77d8 14bd
000000e0: 561f 73bd bcfc 4ebc eeb8 673d f690 26bd
000000f0: acdd 2c3c abac 983c 84fb 3a3e 8c38 9cbd
00000100: fe05 97bc c70e ad3d aab9 333d 7f10 79bd
00000110: 6d27 17be ecc7 0d3e 21a4 4ebd fdb7 d83d
00000120: 6e5d 0f3d ef30 3e3e 0680 a2b9 e42d b93d
00000130: 28f5 36be 4c78 1f3d c14f 82bd c9f3 083d
00000140: a15a 7e3d 8818 a0bb 4660 64bd 2b63 c63d
00000150: f0c7 8f3d a6c1 173d 0d80 bebd 3628 2a3c
00000160: d82c 443d 7294 cd3c 69ec 9dbd 70a4 653d
00000170: 808c f3bd b8df e33c 86de efbd d378 d1bd
00000180: 2bda 37bd 7892 953b 3896 023e e501 8a3d
00000190: 04e6 12bd de68 2dbd 5de0 bf3d fe12 c73d
000001a0: 6367 b73c 22f5 0a3d 5454 05be 287b 42bd
000001b0: 1123 e93c e575 4abd cebd 013d 7667 df3d
000001c0: 523d 0ebe b8af 9a3d 21c8 063e 296c 983d
000001d0: 791b 813d d64e 28be f02b f43d d518 ef3d
000001e0: bf53 afbd 42a7 a8bc aa41 903d 26bd a1bd
000001f0: 5cca 01be 04c2 ad3d 9204 9ebd 47c9 4ebc
00000200: 89ea f63c c8f8 89bd 89b9 2b3d 421c 70bc
00000210: 1625 083e b0cb f8bc 6b41 9a3c 770d 0c3e
00000220: 7402 283a 71bd 02be a432 10bd f5fc 20be
00000230: 8489 13bb b085 91bd b023 f73d e11b e4bd
00000240: 8026 69bd 6d3c 0bbe 3483 e2bd fc48 a1bd
00000250: ab05 02be 6155 fabd 0c1f dbbc 53c3 de3d
00000260: 428d cb3d 81e1 1bbe 0f50 5e3d bbf0 8dbd
00000270: 14ba a63d 8ef3 9ebd 7ce6 12bd 005e fb3d
00000280: eee9 9fbd bef3 e4bd 8d13 4c3d af06 ad3d
00000290: 28ac 5c3e c477 36bd e013 e43b cdc7 13bb
000002a0: baf3 993b f31f 263d 9ef2 7fbd 3541 553d
000002b0: c161 623b ee59 dabd a0d7 11be 603d 00be
000002c0: 1473 17be 5ca8 a73d f8fc 7e3b 0b76 13bd
000002d0: ebc3 0fbe de8c 31bc 9d35 bfbd 5045 0b3e
000002e0: abdd c23d 76dd 1abe 1a02 49bd 256c 32bd
000002f0: a478 c2bb 4705 46bc d35e e43d d023 11be
00000300: 4371 d83d 6b67 fe3d 8fda 743d 175b b1bd
00000310: 570d bebd d945 ecbd da24 3b3e 213d cbbd
00000320: e717 09be d3f6 da3b 6e85 d33d eae3 2ebe
00000330: c5de ac3b e7d9 813d d38f d6bd 5ae2 a7bd
00000340: 5e58 273e 2dee 193d ef70 873d c0bb 8fbd
00000350: 5f60 30be 1208 ddbd 6f76 8d3d 028b 863d
00000360: 2411 413e 76f3 173e 6231 8ebd e297 da3d
00000370: 5af3 62bc 0c5f 4f3d e8a8 213d d332 2e3d
00000380: 8a2d a0bd d280 8abd 9296 e13d 6723 a33d
00000390: f5c2 c73d ddf9 343e f407 033e f347 64bd
000003a0: 8f86 cf3d 656e 5cbe 6636 1d3b b06a 02be
000003b0: 004e f93d 2a3d 813d b4dd 25bd 1d1e 3b3d
000003c0: 3002 543d 1275 2b3d 0dfd d03d ea72 903d
000003d0: ea0a 413d cdbe 00be 689f 2e3e 312b 073e
000003e0: 4d97 b7bc 5925 56be d0d1 a73d 531d 40be
000003f0: 8ddf 2cbe ccd6 5ebc aaaf f0bd 2fe6 f4bd

output_layer.bias f4 [9]
0.081271596 0.055120982 0.14708252 0.0745245 0.09068958 -0.03148241 0.049969334 -0.12880121
-0.741905
00000000: b971 a63d 8ac6 613d cd9c 163e 4da0 983d
00000010: 75bb b93d b3f3 00bd a5ac 4c3d 77e4 03be
00000020: 7ced 3dbf
