src/models/linear_fashionmnist_holdout_[8]_swil1.pt (torch, 408595 bytes, 4 tensors)

input_layer.weight f4 [128, 784]
000000 c6 16 3c 3c 9f 86 f5 bb c9 21 2c bd e0 bf 33 3c
       0.011480039 -0.0074928547 -0.042024408 0.0109710395
000010 1e c7 35 bb c5 f9 4b bd 4b ac af 3b 7c b5 b3 3d
       -0.0027737091 -0.049798746 0.005361115 0.0877485
000020 2f 0a 25 3d c5 f2 86 3d 80 3f e2 3d b2 f1 23 3e
       0.040292915 0.06589273 0.11047268 0.16010168
000030 ab 10 e8 bc 3b 3a 12 bd 8c 82 6a 3c 82 f4 9d bd
       -0.02832826 -0.035700064 0.014313351 -0.07712652
000040 a0 7c 9f 3d 0b 54 ed 3d bd ba d5 3c a5 f0 14 3d
       0.07787442 0.115882955 0.02609002 0.03636231
000050 8c 8f 01 3e 3a 22 8b 3d 1d 16 18 bd 1f dd 23 bb
       0.12652415 0.067936376 -0.037130464 -0.0025003625
000060 f3 fa e7 3a 56 90 63 bd 95 2f 2f bd c1 d2 89 bc
       0.001769869 -0.05555757 -0.042769987 -0.016824128
000070 b6 36 2f bd fd b3 15 3b 98 99 e4 bc fe ab 04 3b
       -0.042776786 0.0022842877 -0.02790527 0.0020244117
000080 34 cc 63 bd 28 db d3 bc 8a a9 63 3c 54 c0 4e bd
       -0.055614665 -0.025861338 0.013895402 -0.050476387
000090 9b cd 6b bc b7 8e 25 bc 72 1d 1e 3d 50 73 f9 3a
       -0.014392282 -0.010104827 0.0386023 0.0019031558
0000a0 71 e5 8b 3c f8 f3 c9 3c 02 31 35 3d e1 ba 62 bd
       0.01707718 0.024652466 0.04423619 -0.055354003
0000b0 c5 ad 63 3d 1a f0 0c 3d e4 f1 18 3d 7c 94 3d bb
       0.05558564 0.034408666 0.03734006 -0.0028927615
0000c0 f9 6b 16 3c 76 c7 45 3d f6 41 eb 3b da 00 57 bd
       0.009181016 0.048285924 0.007179494 -0.052491046
0000d0 6c 6d 54 bd ec 40 17 bd 51 f2 27 3c 42 34 0a bc
       -0.051862165 -0.03692715 0.010250644 -0.008435311
0000e0 cb 77 be 3b 95 9e 21 bd 3a 20 29 3c 03 e0 90 3a
       0.0058126203 -0.039457876 0.010322625 0.0011053089
0000f0 93 75 4c bc 78 67 5f bd 74 c1 b7 bc 9b a2 8a bc
       -0.012479204 -0.054542035 -0.022431113 -0.01692324
000100 be f4 04 bc 6a 79 59 3c e2 fa 2f bc e0 82 df 3c
       -0.008114992 0.013273576 -0.0107409675 0.027284086
000110 3d cc 1e bc 68 04 8e bc 03 bd c2 3c 4e df 94 bd
       -0.009692249 -0.017336085 0.023771768 -0.072691545
000120 06 46 dc 3c e2 4d ab bb cd e9 0e bd 7d 68 68 bd
       0.026888859 -0.00522779 -0.03489094 -0.056740273
000130 d6 1d 06 bc 04 3a 44 3d 88 9c 34 bc 5d 53 0c bd
       -0.008185824 0.04790689 -0.011023648 -0.03425919
000140 ee 8d 36 bc da 0b 2c bc 5a 8f 04 bd 81 8c 16 3b
       -0.011142237 -0.0105008725 -0.032363273 0.002297193
000150 e9 e4 cf bc ff 00 c2 bc 69 28 d4 3b 5a bc ac 3c
       -0.025377708 -0.023682116 0.006474544 0.021085907
000160 73 cd 28 3d f2 fb b9 3c 38 33 89 3d 49 16 93 3c
       0.041211557 0.022703145 0.06699222 0.017954962
000170 a4 83 b3 bc fc af 53 3c e7 4d 89 3d 58 5a 40 3d
       -0.021913357 0.012920376 0.06704312 0.04696116
000180 6a 3b ef 3b a0 d0 5a bd fa 68 d8 bc 70 0c b1 bc
       0.007300784 -0.053421617 -0.026417244 -0.021612376
000190 58 0d 70 3c e7 8a 4c 3d e7 3d db 3c 11 0b 92 bd
       0.014651619 0.049937155 0.026762916 -0.07131017
0001a0 e9 4d 90 bd ff 20 dd 3c cc ce 2b bc 1c 55 a4 bb
       -0.0704611 0.026993273 -0.010486316 -0.0050150286
0001b0 a7 a2 f2 bb 0a 77 40 bd a7 54 c3 3b cb c9 e9 bc
       -0.0074046436 -0.046988524 0.005961019 -0.028538605
0001c0 d6 9c 67 bd 0a 01 a0 bc 6a 20 18 3c ac dd 10 39
       -0.056546055 -0.019531745 0.009285072 0.0001381549
0001d0 b2 3d 43 3c de f8 71 bc 80 af da 3d 0d c3 07 3d
       0.011916565 -0.014768807 0.10678005 0.033145
0001e0 e4 5a 13 38 ed 9d b6 3c 87 f3 36 3d 6d 4e ca bc
       3.513218e-05 0.022292102 0.04466584 -0.0246956
0001f0 be cd 83 bd 54 fd 8e 3b af 93 aa bd ea e4 f1 bc
       -0.064357266 0.004363695 -0.0832895 -0.0295281
000200 ff 0a d0 bc 00 d8 ae 3c 2e 81 9f 3d e9 11 19 bd
       -0.025395868 0.021343231 0.07788311 -0.037370596
000210 05 be ff bc f3 03 38 bb ec 01 4c bc 00 6e 99 3c
       -0.031218538 -0.0028078526 -0.01245163 0.01872921
000220 11 7b 92 bc 20 30 ce bc 36 92 0b bc 5b a1 89 bb
       -0.017880948 -0.025169432 -0.008518746 -0.0042001433
000230 fd c6 53 3c 18 18 23 bd 96 63 7f bc ba 1d bd 3c
       0.0129258605 -0.0398179 -0.015587708 0.023085464
000240 e8 f8 c7 3c ba 44 9b 3d 0a ae 67 3d 34 fe 5b 3d
       0.02441068 0.07581468 0.05656246 0.053709224
000250 96 02 9a 3d bb 36 d9 bb c2 f5 f0 bc ae cd cc bc
       0.075200245 -0.006628839 -0.029414061 -0.02500042
000260 42 10 bd 3a af a0 85 bc 3e 3c 34 3c 0a 28 ba bc
       0.0014424401 -0.016311971 0.011000691 -0.02272417
000270 e4 a4 1d bd cf ba 0c 3d 86 0a a2 3d b4 26 8a 3b
       -0.03848733 0.034357842 0.079121634 0.0042160396
000280 51 af 1f bd 22 72 88 bc ee c3 0a 3c bf dc 18 bd
       -0.038985554 -0.016655985 0.008469565 -0.037319895
000290 4e 36 eb bc 8d bf a1 bd ea c5 1a bd 34 21 73 3c
       -0.028712418 -0.078978635 -0.0377864 0.014839459
0002a0 de 8a 00 bd 90 7b cc bc ad 18 9f bc 18 da 1e bd
       -0.031382434 -0.024961263 -0.019420946 -0.03878221
0002b0 a7 9f 3d bc 25 8b 21 3d e1 51 8c 3d d5 3f 7d 3d
       -0.011573709 0.03943934 0.06851555 0.061828453
0002c0 ec ac 22 3d 60 d5 db 3b cc 60 da 3c f6 fb 05 bd
       0.039715692 0.006708786 0.026657484 -0.03271099
0002d0 ee 13 4c bd 65 46 09 bd 04 a7 ab bc a5 49 28 bd
       -0.049823694 -0.0335144 -0.020953663 -0.041085858
0002e0 0d 5d e4 ba a4 aa 7f 3d 22 07 25 3d 34 56 b8 3c
       -0.0017422751 0.062418595 0.040290006 0.022502042
0002f0 a9 da b7 bd 46 c8 92 bd cf 6d c3 3b 6e 7b 84 3c
       -0.08977253 -0.071671054 0.005964018 0.016172137
000300 a8 55 cc bd d0 ae e3 bc c8 c7 3c 3d b4 42 0c bc
       -0.09977275 -0.027793318 0.046088964 -0.008560825
000310 7e 65 47 bd 8b bb 89 bc 5e bb 42 bc 5b 0e 36 bc
       -0.048680775 -0.01681306 -0.011885492 -0.011111821
000320 e5 f8 ab bc b5 d0 1a 3d 68 e0 fb 3d c6 57 51 3d
       -0.020992706 0.037796695 0.122986615 0.051109098
000330 6f 70 90 3c e3 92 8d 3b d8 63 3f bb 27 b0 a1 bd
       0.017631738 0.004320489 -0.0029203799 -0.078949265
000340 6c c4 b7 bc 54 79 18 bd 74 2d 48 bd 53 43 0d 3d
       -0.022432528 -0.037225083 -0.048871472 0.034488034
000350 c3 7f 25 3d 10 78 56 3c 14 b4 ae 3d 4a 2f e2 3d
       0.040405046 0.013090149 0.08530441 0.11044176
000360 8a 7b cc 3d 32 fa 04 bd 67 bc 2a 3b ed da d7 bc
       0.09984501 -0.032465167 0.0026052238 -0.02634951
000370 89 ad 25 bd e1 21 43 bd 87 29 55 3c 55 b0 be bc
       -0.0404487 -0.04763973 0.013010389 -0.023277441
000380 ae 48 81 bb 28 64 90 3c 84 ab 9a bc e2 95 09 3c
       -0.0039454317 0.017625883 -0.018880613 0.008397551
000390 d0 88 e2 3c 5a 12 58 3d a7 09 80 3d 19 35 79 3d
       0.027653128 0.052751876 0.06251841 0.060841653
0003a0 7d b1 c0 3d 7e 4e c5 3c 35 a3 99 3c fc 31 95 bd
       0.09408853 0.02408528 0.018754581 -0.072849244
0003b0 52 a1 af 3c 97 75 8f bd 6d 02 e1 bd 0e 2e eb bd
       0.021439228 -0.0700485 -0.10986791 -0.114833936
0003c0 2e 38 34 3c 73 5a db 3d 34 4b 0f 3d 05 06 b7 bc
       0.010999722 0.10710611 0.03498383 -0.022341738
0003d0 2c 3e f7 bc 31 db 11 bd 32 51 27 3c bb 7d 3a bd
       -0.030181013 -0.035609428 0.01021223 -0.045530062
0003e0 55 36 2f bd 49 81 41 bd 23 ff 6c bd 69 bc 49 3b
       -0.042776424 -0.047242437 -0.057860505 0.0030782467
0003f0 8f d9 2f 3b ce 14 d7 3c ca cc a2 bc 81 13 dc 3c
       0.0026832556 0.026255038 -0.019873042 0.026864769

input_layer.bias f4 [128]
000000 8e a0 f8 3c c1 fe 60 bc 67 0b 14 3d eb 80 a7 3d
       0.030349996 -0.013732613 0.036143687 0.08178886
000010 04 ad 6d 3c b4 9f e6 3c e6 68 8b 3d 0a 68 8e 3d
       0.014506582 0.028152324 0.06807117 0.069534376
000020 2d 5a cd 3b 3c 37 26 bc 6a c7 2f 3d 38 98 9d 3c
       0.0062668533 -0.010145005 0.042914785 0.019237623
000030 dc 5a 17 bd ae 6b 3c 3d d1 26 55 3d fa 8a 5d bb
       -0.036951885 0.04600113 0.05203897 -0.003380476
000040 4a 95 38 3c bf 3e c3 bc b0 02 3b bd b4 95 5c bc
       0.011266062 -0.02383363 -0.04565686 -0.013463426
000050 ef ff 18 bd 79 f2 db bc 5e e3 2d bd 3b 56 98 bc
       -0.037353452 -0.026849018 -0.042453162 -0.018595805
000060 39 c9 b5 3c ee 9b 42 bc 3d 09 01 3d 03 45 0d bd
       0.022190677 -0.011877997 0.03150295 -0.034489643
000070 f3 a7 09 3d 54 65 33 3c ba f9 73 bc 33 05 1d 3d
       0.033607434 0.0109494515 -0.014891082 0.038335036
000080 4d 4b a5 3b 80 d7 a8 3c c7 8c 1e bd bb f0 0b 3d
       0.005044377 0.02061057 -0.038708474 0.034165125
000090 67 1f 6e 3b 7f 18 f9 bc 8c 13 22 3d 16 74 fe 3b
       0.0036334635 -0.030407188 0.039569423 0.0077653034
0000a0 fa a9 da bc f9 4e 70 3c 33 b2 e1 bc a8 20 20 3d
       -0.02669238 0.014667266 -0.027550792 0.039093643
0000b0 a2 f7 c6 bb 2c 4d 2a 3d 96 0e 03 bb df 2c 6a bc
       -0.0060720006 0.041577503 -0.0019997708 -0.014292925
0000c0 90 c6 f3 bb 14 14 46 bc 3f e6 3a 3c b4 13 a7 3b
       -0.007439442 -0.012089748 0.011407434 0.0050987843
0000d0 75 1d 1f 3d d3 e3 28 bd 11 1f 6c bc af 1a e0 bc
       0.03884645 -0.041232895 -0.014411704 -0.027356474
0000e0 eb 02 5f bd 87 5e 3f 3d a5 0f 53 3c ce 27 52 bd
       -0.054446142 0.046721008 0.012882148 -0.051307492
0000f0 d5 33 af 3c 45 e6 33 bd 3e 07 b7 3c 58 3d eb bc
       0.02138702 -0.043920774 0.02234232 -0.028715774
000100 88 90 8d bc 41 94 06 bd aa 7a 13 3c 4a a9 98 3b
       -0.017280832 -0.03285623 0.009001413 0.0046588527
000110 b7 87 db bc 0b 10 97 bc 37 32 20 bd 11 d7 d1 3c
       -0.026798112 -0.018440267 -0.03911039 0.025615247
000120 76 23 a3 3c a1 ce 2f 3c d7 e6 53 3c f0 e5 d7 ba
       0.01991437 0.0107304165 0.0129334545 -0.0016471725
000130 07 ce cb bb 87 68 3e bd 84 06 5c bd 2f 36 e4 3c
       -0.0062196287 -0.046486404 -0.05371715 0.027857868
000140 d1 c8 97 3c eb b9 de 39 06 8a 35 3d f8 4e 2b bc
       0.018528374 0.0004248166 0.044321083 -0.010455839
000150 1f d0 d5 bb 7e ff 0b bd 7e cc c8 3c ff 95 46 3b
       -0.006525054 -0.034179203 0.024511572 0.0030301807
000160 09 48 f7 ba 3e 94 e0 3c 70 51 a9 bc 70 60 d4 3c
       -0.0018866073 0.027414437 -0.020668715 0.025924891
000170 ae 61 06 bd ae 51 0f bd ee f0 c8 3c 8f cd c2 3c
       -0.032808 -0.034990005 0.024528947 0.023779659
000180 9c 2b 28 bd 5a 5c 34 bc bc df 02 bc ba 91 80 3d
       -0.041057214 -0.011008346 -0.007987913 0.06277795
000190 fb 0a 18 bc d8 a6 29 bb 31 05 fc 3b a1 c3 ca 3c
       -0.009279962 -0.00258868 0.0076910486 0.024751486
0001a0 b9 1a cd 3c 5c 03 51 bc 0a 39 b2 3c 62 f8 86 bd
       0.025037156 -0.012757149 0.021755714 -0.06590344
0001b0 0a 7c 21 bd 1f f0 24 bd ab 00 05 3d 2c 4e 6b 3c
       -0.039424933 -0.04026806 0.03247134 0.014361899
0001c0 08 9e a2 bc ac 4f e6 bb 3a c5 c7 3c cc 38 d1 3c
       -0.019850746 -0.0070285406 0.024386037 0.025539778
0001d0 b1 ac 3e 3d 63 37 c3 bc 59 22 b3 bc 56 c9 1b 3d
       0.04655141 -0.023830121 -0.021866964 0.038033806
0001e0 5f 0c c4 bc 7e fe db bc db ab c6 3c e9 42 f3 bb
       -0.02393168 -0.02685475 0.024251869 -0.007423748
0001f0 cb 6c 1b bd e7 4b 97 bc a6 ca 42 bd db a9 a9 bb
       -0.03794555 -0.01846881 -0.04755654 -0.005177719

output_layer.weight f4 [9, 128]
000000 d2 05 56 bd f8 4a c9 bc e0 68 fe 3d ba 3e 8d 3d
       -0.052251644 -0.02457188 0.12422347 0.0689673
000010 55 84 82 bc 18 2b d3 3d 92 6e 06 3e d0 a2 ae 3d
       -0.015932241 0.10310954 0.13128117 0.08527148
000020 9b e7 13 bd 6c f8 0c bd 39 10 36 bb de 34 62 3c
       -0.036109548 -0.0344166 -0.0027780666 0.01380655
000030 1b 01 d8 bd 2e 72 96 bd b5 e1 08 3e d0 69 74 bd
       -0.10547086 -0.07345997 0.1336735 -0.059671223
000040 a0 71 0f ba b5 49 89 3c e0 d6 7e bd 3f ea 17 3e
       -0.00054719485 0.016758779 -0.06221664 0.14835452
000050 0d 99 8d bd 2d d6 fb bd 51 84 10 be a9 e3 f9 bd
       -0.06913958 -0.1229671 -0.14112975 -0.12201626
000060 c6 57 9d 3d 24 82 c3 bd 1d cf 1c bd 4d e2 8c bd
       0.07682757 -0.09546307 -0.038283456 -0.06879101
000070 9f b0 28 bd 64 c4 e2 3d e6 33 28 be 2e 4d fc 3d
       -0.041184064 0.11072615 -0.16426048 0.12319408
000080 9c 9c 43 3d a3 0e bc bd 8c ac f3 bd 10 ed 9a bd
       0.047756776 -0.09182479 -0.11898145 -0.07564747
000090 fd 4a 3c 3e ee 92 41 be b8 36 9d bc 2a c5 1c bd
       0.18387981 -0.18903705 -0.019191131 -0.038273968
0000a0 1f 66 08 3e 67 50 24 3e a2 af b7 bd 6e 4b 2c 3e
       0.13320206 0.16046296 -0.08969046 0.16825649
0000b0 11 41 e0 3d c9 16 0e 3e d9 34 e1 3d 05 73 82 bd
       0.109499104 0.1387588 0.10996408 -0.063695945
0000c0 4d b3 77 bd df 47 50 3a 59 c9 01 3d 75 65 08 3e
       -0.06047373 0.000794528 0.03168616 0.13319953
0000d0 57 65 8a 3d 61 ef 25 bd 81 48 c0 bc c0 8d 04 be
       0.0675761 -0.040511493 -0.023472073 -0.12944698
0000e0 ef 97 da bd 1b 8f 42 3d fb 80 bb bc ee 3f d6 bb
       -0.1067351 0.047499757 -0.022888651 -0.0065383827
0000f0 2e ce 9a 3d 40 df 3b bd 79 b8 8e bd 20 d6 a6 bd
       0.07558857 -0.045867205 -0.06968779 -0.0814631
000100 29 a8 8d bd 7d 62 09 bd 41 f0 01 bd e3 87 a9 bc
       -0.0691684 -0.03354119 -0.031723265 -0.020694679
000110 9c 8e b3 3c 35 01 8a 3d 70 2d 91 bd b9 92 19 3e
       0.021918587 0.067385115 -0.07088745 0.14997377
000120 4c 9a 00 3e 52 7e b3 bc 16 ef 08 bd 12 cb 00 3e
       0.1255886 -0.02191082 -0.033431135 0.12577465
000130 40 57 48 bd 3a 79 6a bd 93 d5 9c bd 82 9a 05 3e
       -0.048911333 -0.057244517 -0.076579235 0.13047221
000140 90 fa 17 3d 3b 66 1b 3d a0 ec 95 bc db 2a 25 bb
       0.03710419 0.03793929 -0.018301308 -0.0025202546
000150 11 a7 bd 3d b3 b3 6c 3c 2f 53 cc 3c 04 0a e4 3d
       0.09260381 0.0144471405 0.024942009 0.11134723
000160 95 75 d4 bd 11 5d 97 3d 60 8d 3a 3d e9 f0 9a 3b
       -0.103739895 0.07390798 0.045544982 0.0047284258
000170 1e 30 11 be 38 98 ef bc 93 14 93 bd 82 64 c4 bd
       -0.14178512 -0.029247388 -0.071816586 -0.09589483
000180 00 83 72 bd e1 31 2c bd 0c 44 1e 3c 8f 8a 1c 3e
       -0.059206963 -0.042039756 0.009659778 0.15287231
000190 5f 98 92 3d 42 68 df bd db 99 68 3d fb ce ce 3d
       0.07157969 -0.109085575 0.056787353 0.10098072
0001a0 b7 b2 7e bc e7 24 ae 3d b0 0e 20 be c1 d3 9c bd
       -0.015545539 0.08503132 -0.15630603 -0.07657576
0001b0 d4 86 cd bb 32 7d 5a bd cc f0 c0 3d db 24 9d bd
       -0.0062721763 -0.05334205 0.09420928 -0.07673045
0001c0 13 1b 9f bd c4 00 f1 bd 42 40 a7 bd e6 fc 23 3b
       -0.07768836 -0.11767724 -0.08166553 0.0025022565
0001d0 b8 08 be bc e4 f2 04 be d2 10 5e 3d 53 3c 33 3e
       -0.023197517 -0.1298328 0.05421526 0.1750348
0001e0 43 04 ef bd 0c 0f f9 3c fc 37 54 bd 9c 3d ba bd
       -0.11670735 0.030402683 -0.051811203 -0.09093782
0001f0 26 d1 2f 3d 46 46 19 3e 8d 8d 06 be 35 ae ba bc
       0.04292407 0.14968213 -0.13139935 -0.022788147
000200 7c 7d 56 3d 0b f8 df bd 56 4b e3 3d 69 c4 97 bc
       0.052365765 -0.10935982 0.110983536 -0.018526273
000210 fe dd 09 3e cb 2b 31 bd 8b 81 fb 3c 67 ad 24 3e
       0.1346359 -0.043254655 0.03070142 0.16081773
000220 49 66 11 bd 17 ce 14 be 65 08 da bc 66 5d 28 be
       -0.035497937 -0.14531742 -0.026615331 -0.16441879
000230 a5 a0 b1 bd be d6 e5 bc 3e 88 ff 3d 0d b5 ed bd
       -0.08673219 -0.028056499 0.12477158 -0.11606798
000240 a3 00 7a bd 6e 6d 13 be 99 90 21 be ea 96 cd bd
       -0.061035763 -0.14397213 -0.15777816 -0.1003855
000250 c2 cc 26 be 70 94 ed bd b0 3c 9b 3a dd ac 0b 3e
       -0.16289046 -0.11600578 0.0011843648 0.13640161
000260 33 01 e3 3d d1 97 1e be d1 e3 68 3d 19 9b a5 bd
       0.11084213 -0.15487601 0.056857888 -0.08086223
000270 e6 6e c2 3d 7b 90 9e bd 59 73 15 bd 94 40 fe 3d
       0.094938084 -0.07742401 -0.036486957 0.12414661
000280 aa 4a c2 bd 76 f7 c6 bd b5 1b 17 3d 36 ce d5 3d
       -0.09486897 -0.09715168 0.036891658 0.10439722
000290 62 3b 4b 3e 90 fb 0c bd 48 34 8c 3d e1 46 27 bd
       0.19846871 -0.034419596 0.06845909 -0.04083908
0002a0 dd d7 02 bd 07 6c 2c 3d e6 ad 39 bd 06 87 16 3c
       -0.031944145 0.04209521 -0.045331858 0.0091874655
0002b0 e1 1a 8d 3c 05 f5 01 be 0b 9d 2d be ea d1 09 be
       0.01722473 -0.12691124 -0.16954438 -0.13458982
0002c0 f1 81 2b be 8b be c7 3d ff 39 bc 3d cb 72 24 bd
       -0.16748787 0.0975314 0.091907494 -0.040148538
0002d0 8b 6a 04 be 06 c1 30 bd 5d d1 c3 bd b8 21 2b 3e
       -0.12931268 -0.04315283 -0.09561417 0.16712081
0002e0 88 dc c2 3d 96 b4 0c be e5 d9 0c bd 2f c0 9f bd
       0.09514719 -0.13740763 -0.034387488 -0.07800328
0002f0 c1 1d 0a 3c e2 9c 20 bc d5 2b 3e 3d 99 89 e9 bd
       0.008429945 -0.009803029 0.04642852 -0.11403198
000300 fa cd fc 3d e5 a2 02 3e 8e 7f 9d 3d 45 e4 c7 bd
       0.123439744 0.12757452 0.07690345 -0.09760336
000310 fb d2 ad bd 71 17 13 be d2 40 3a 3e 87 39 c1 bd
       -0.08487507 -0.14364411 0.1818879 -0.094348006
000320 fd ed c0 bd 1a 3f 1f bd fb 41 ed 3d ee 3b 1a be
       -0.09420393 -0.038878538 0.115848504 -0.15061924
000330 5c 95 a3 3d d0 56 73 3d 31 15 16 be 44 3c 89 bd
       0.079874724 0.059408963 -0.14656521 -0.06700948
000340 e6 0d 18 3e 4e 9e 6a 3d 22 a7 c5 3d d9 6a 85 bd
       0.14849052 0.057279877 0.09651019 -0.0651452
000350 f5 6e 20 be 7d 59 e1 bd f0 23 d5 3d 1a 0a eb 3d
       -0.15667327 -0.11003397 0.10407245 0.11476536
000360 85 48 4b 3e 62 44 2a 3e 40 85 8d bd 0b 35 ef 3d
       0.19851883 0.16627648 -0.06910181 0.11680039
000370 0b e2 db 3c a1 52 2d 3d 08 c7 9f 3d 68 c0 9b 3d
       0.026841184 0.04231513 0.07801634 0.07605058
000380 03 fc bb bd 42 ed 92 bd a2 c4 d5 3d 1c ac dd 3d
       -0.09178927 -0.071741596 0.10437895 0.10823843
000390 7f 04 16 3e 0b 0e 45 3e 58 9b 1c 3e 29 13 af bd
       0.14650153 0.19243638 0.15293634 -0.085485764
0003a0 f6 64 08 3e fe a2 3f be ef c3 1c 3d 37 dc 21 be
       0.13319764 -0.1871452 0.038272794 -0.15806662
0003b0 49 f7 ba 3d 62 2b 1d 3e ae 85 07 be fb 96 54 3d
       0.09129197 0.1534858 -0.13234589 0.0519018
0003c0 6c f3 ad 3d ce 74 6c 3d 5f f3 e6 3d 47 2f ad 3d
       0.08493695 0.05772858 0.11276888 0.08456283
0003d0 c2 62 ca 3c 7a aa f7 bd f8 52 18 3e b5 28 0f 3e
       0.024705295 -0.12093063 0.148754 0.13980372
0003e0 7a 4f d3 3c 14 10 39 be 39 2b a6 3d 60 66 3d be
       0.025794733 -0.1807254 0.08113713 -0.18496084
0003f0 4c 72 3a be 2d c9 93 bc ee 2e dd bd bc dc 0b be
       -0.18207663 -0.018040264 -0.10799967 -0.13658422

output_layer.bias f4 [9]
000000 c1 33 08 3e d9 0c 9c 3d c1 e0 39 3e ec 69 2a 3d
       0.13300993 0.07619638 0.18152143 0.04160492
000010 20 ce 3f 3e 2f b7 ec 3d 02 ab 32 3e de 9c 76 3d
       0.18730974 0.11558377 0.17448047 0.060208194
000020 70 46 10 40
       2.2542992
