src/models/linear_fashionmnist_holdout_[8]_swil4.pt (torch, 408595 bytes, 4 tensors)

input_layer.weight f4 [128, 784]
0.011480039 -0.0074928547 -0.042024408 0.0109710395 -0.0027737091 -0.049798746 0.005361115 0.0877485
0.040292915 0.06589273 0.11047268 0.16010168 -0.02832826 -0.035700064 0.014313351 -0.07712652
0.07787442 0.115882955 0.02609002 0.03636231 0.12652415 0.067936376 -0.037130464 -0.0025003625
0.001769869 -0.05555757 -0.042769987 -0.016824128 -0.042776786 0.0022842877 -0.02790527 0.0020244117
-0.055614665 -0.025861338 0.013895402 -0.050476387 -0.014392282 -0.010104827 0.0386023 0.0019031558
0.01707718 0.024652466 0.04423619 -0.055354003 0.05558564 0.034408666 0.03734006 -0.0028927615
0.009181016 0.048285924 0.007179494 -0.052491046 -0.051862165 -0.03692715 0.010250644 -0.008435311
0.0058126203 -0.039457876 0.010322625 0.0011053089 -0.012479204 -0.054542035 -0.022431113 -0.01692324
-0.008114992 0.013273576 -0.0107409675 0.027284086 -0.009692249 -0.017336085 0.023771768 -0.072691545
0.026888859 -0.00522779 -0.03489094 -0.056740273 -0.008185824 0.04790689 -0.011023648 -0.03425919
-0.011142237 -0.0105008725 -0.032363273 0.002297193 -0.025377708 -0.023682116 0.006474544 0.021085907
0.041211557 0.022703145 0.06699222 0.017954962 -0.021913357 0.012920376 0.06704312 0.04696116
0.007300784 -0.053421617 -0.026417244 -0.021612376 0.014651619 0.049937155 0.026762916 -0.07131017
-0.0704611 0.026993273 -0.010486316 -0.0050150286 -0.0074046436 -0.046988524 0.005961019 -0.028538605
-0.056546055 -0.019531745 0.009285072 0.0001381549 0.011916565 -0.014768807 0.10678005 0.033145
3.513218e-05 0.022292102 0.04466584 -0.0246956 -0.064357266 0.004363695 -0.0832895 -0.0295281
-0.025395868 0.021343231 0.07788311 -0.037370596 -0.031218538 -0.0028078526 -0.01245163 0.01872921
-0.017880948 -0.025169432 -0.008518746 -0.0042001433 0.0129258605 -0.0398179 -0.015587708 0.023085464
0.02441068 0.07581468 0.05656246 0.053709224 0.075200245 -0.006628839 -0.029414061 -0.02500042
0.0014424401 -0.016311971 0.011000691 -0.02272417 -0.03848733 0.034357842 0.079121634 0.0042160396
-0.038985554 -0.016655985 0.008469565 -0.037319895 -0.028712418 -0.078978635 -0.0377864 0.014839459
-0.031382434 -0.024961263 -0.019420946 -0.03878221 -0.011573709 0.03943934 0.06851555 0.061828453
0.039715692 0.006708786 0.026657484 -0.03271099 -0.049823694 -0.0335144 -0.020953663 -0.041085858
-0.0017422751 0.062418595 0.040290006 0.022502042 -0.08977253 -0.071671054 0.005964018 0.016172137
-0.09977275 -0.027793318 0.046088964 -0.008560825 -0.048680775 -0.01681306 -0.011885492 -0.011111821
-0.020992706 0.037796695 0.122986615 0.051109098 0.017631738 0.004320489 -0.0029203799 -0.078949265
-0.022432528 -0.037225083 -0.048871472 0.034488034 0.040405046 0.013090149 0.08530441 0.11044176
0.09984501 -0.032465167 0.0026052238 -0.02634951 -0.0404487 -0.04763973 0.013010389 -0.023277441
-0.0039454317 0.017625883 -0.018880613 0.008397551 0.027653128 0.052751876 0.06251841 0.060841653
0.09408853 0.02408528 0.018754581 -0.072849244 0.021439228 -0.0700485 -0.10986791 -0.114833936
0.010999722 0.10710611 0.03498383 -0.022341738 -0.030181013 -0.035609428 0.01021223 -0.045530062
-0.042776424 -0.047242437 -0.057860505 0.0030782467 0.0026832556 0.026255038 -0.019873042 0.026864769
00000000: c616 3c3c 9f86 f5bb c921 2cbd e0bf 333c
00000010: 1ec7 35bb c5f9 4bbd 4bac af3b 7cb5 b33d
00000020: 2f0a 253d c5f2 863d 803f e23d b2f1 233e
00000030: ab10 e8bc 3b3a 12bd 8c82 6a3c 82f4 9dbd
00000040: a07c 9f3d 0b54 ed3d bdba d53c a5f0 143d
00000050: 8c8f 013e 3a22 8b3d 1d16 18bd 1fdd 23bb
00000060: f3fa e73a 5690 63bd 952f 2fbd c1d2 89bc
00000070: b636 2fbd fdb3 153b 9899 e4bc feab 043b
00000080: 34cc 63bd 28db d3bc 8aa9 633c 54c0 4ebd
00000090: 9bcd 6bbc b78e 25bc 721d 1e3d 5073 f93a
000000a0: 71e5 8b3c f8f3 c93c 0231 353d e1ba 62bd
000000b0: c5ad 633d 1af0 0c3d e4f1 183d 7c94 3dbb
000000c0: f96b 163c 76c7 453d f641 eb3b da00 57bd
000000d0: 6c6d 54bd ec40 17bd 51f2 273c 4234 0abc
000000e0: cb77 be3b 959e 21bd 3a20 293c 03e0 903a
000000f0: 9375 4cbc 7867 5fbd 74c1 b7bc 9ba2 8abc
00000100: bef4 04bc 6a79 593c e2fa 2fbc e082 df3c
00000110: 3dcc 1ebc 6804 8ebc 03bd c23c 4edf 94bd
00000120: 0646 dc3c e24d abbb cde9 0ebd 7d68 68bd
00000130: d61d 06bc 043a 443d 889c 34bc 5d53 0cbd
00000140: ee8d 36bc da0b 2cbc 5a8f 04bd 818c 163b
00000150: e9e4 cfbc ff00 c2bc 6928 d43b 5abc ac3c
00000160: 73cd 283d f2fb b93c 3833 893d 4916 933c
00000170: a483 b3bc fcaf 533c e74d 893d 585a 403d
00000180: 6a3b ef3b a0d0 5abd fa68 d8bc 700c b1bc
00000190: 580d 703c e78a 4c3d e73d db3c 110b 92bd
000001a0: e94d 90bd ff20 dd3c ccce 2bbc 1c55 a4bb
000001b0: a7a2 f2bb 0a77 40bd a754 c33b cbc9 e9bc
000001c0: d69c 67bd 0a01 a0bc 6a20 183c acdd 1039
000001d0: b23d 433c def8 71bc 80af da3d 0dc3 073d
000001e0: e45a 1338 ed9d b63c 87f3 363d 6d4e cabc
000001f0: becd 83bd 54fd 8e3b af93 aabd eae4 f1bc
00000200: ff0a d0bc 00d8 ae3c 2e81 9f3d e911 19bd
00000210: 05be ffbc f303 38bb ec01 4cbc 006e 993c
00000220: 117b 92bc 2030 cebc 3692 0bbc 5ba1 89bb
00000230: fdc6 533c 1818 23bd 9663 7fbc ba1d bd3c
00000240: e8f8 c73c ba44 9b3d 0aae 673d 34fe 5b3d
00000250: 9602 9a3d bb36 d9bb c2f5 f0bc aecd ccbc
00000260: 4210 bd3a afa0 85bc 3e3c 343c 0a28 babc
00000270: e4a4 1dbd cfba 0c3d 860a a23d b426 8a3b
00000280: 51af 1fbd 2272 88bc eec3 0a3c bfdc 18bd
00000290: 4e36 ebbc 8dbf a1bd eac5 1abd 3421 733c
000002a0: de8a 00bd 907b ccbc ad18 9fbc 18da 1ebd
000002b0: a79f 3dbc 258b 213d e151 8c3d d53f 7d3d
000002c0: ecac 223d 60d5 db3b cc60 da3c f6fb 05bd
000002d0: ee13 4cbd 6546 09bd 04a7 abbc a549 28bd
000002e0: 0d5d e4ba a4aa 7f3d 2207 253d 3456 b83c
000002f0: a9da b7bd 46c8 92bd cf6d c33b 6e7b 843c
00000300: a855 ccbd d0ae e3bc c8c7 3c3d b442 0cbc
00000310: 7e65 47bd 8bbb 89bc 5ebb 42bc 5b0e 36bc
00000320: e5f8 abbc b5d0 1a3d 68e0 fb3d c657 513d
00000330: 6f70 903c e392 8d3b d863 3fbb 27b0 a1bd
00000340: 6cc4 b7bc 5479 18bd 742d 48bd 5343 0d3d
00000350: c37f 253d 1078 563c 14b4 ae3d 4a2f e23d
00000360: 8a7b cc3d 32fa 04bd 67bc 2a3b edda d7bc
00000370: 89ad 25bd e121 43bd 8729 553c 55b0 bebc
00000380: ae48 81bb 2864 903c 84ab 9abc e295 093c
00000390: d088 e23c 5a12 583d a709 803d 1935 793d
000003a0: 7db1 c03d 7e4e c53c 35a3 993c fc31 95bd
000003b0: 52a1 af3c 9775 8fbd 6d02 e1bd 0e2e ebbd
000003c0: 2e38 343c 735a db3d 344b 0f3d 0506 b7bc
000003d0: 2c3e f7bc 31db 11bd 3251 273c bb7d 3abd
000003e0: 5536 2fbd 4981 41bd 23ff 6cbd 69bc 493b
000003f0: 8fd9 2f3b ce14 d73c cacc a2bc 8113 dc3c

input_layer.bias f4 [128]
0.030349996 -0.013732613 0.036143687 0.08178886 0.014506582 0.028152324 0.06807117 0.069534376
0.0062668533 -0.010145005 0.042914785 0.019237623 -0.036951885 0.04600113 0.05203897 -0.003380476
0.011266062 -0.02383363 -0.04565686 -0.013463426 -0.037353452 -0.026849018 -0.042453162 -0.018595805
0.022190677 -0.011877997 0.03150295 -0.034489643 0.033607434 0.0109494515 -0.014891082 0.038335036
0.005044377 0.02061057 -0.038708474 0.034165125 0.0036334635 -0.030407188 0.039569423 0.0077653034
-0.02669238 0.014667266 -0.027550792 0.039093643 -0.0060720006 0.041577503 -0.0019997708 -0.014292925
-0.007439442 -0.012089748 0.011407434 0.0050987843 0.03884645 -0.041232895 -0.014411704 -0.027356474
-0.054446142 0.046721008 0.012882148 -0.051307492 0.02138702 -0.043920774 0.02234232 -0.028715774
-0.017280832 -0.03285623 0.009001413 0.0046588527 -0.026798112 -0.018440267 -0.03911039 0.025615247
0.01991437 0.0107304165 0.0129334545 -0.0016471725 -0.0062196287 -0.046486404 -0.05371715 0.027857868
0.018528374 0.0004248166 0.044321083 -0.010455839 -0.006525054 -0.034179203 0.024511572 0.0030301807
-0.0018866073 0.027414437 -0.020668715 0.025924891 -0.032808 -0.034990005 0.024528947 0.023779659
-0.041057214 -0.011008346 -0.007987913 0.06277795 -0.009279962 -0.00258868 0.0076910486 0.024751486
0.025037156 -0.012757149 0.021755714 -0.06590344 -0.039424933 -0.04026806 0.03247134 0.014361899
-0.019850746 -0.0070285406 0.024386037 0.025539778 0.04655141 -0.023830121 -0.021866964 0.038033806
-0.02393168 -0.02685475 0.024251869 -0.007423748 -0.03794555 -0.01846881 -0.04755654 -0.005177719
00000000: 8ea0 f83c c1fe 60bc 670b 143d eb80 a73d
00000010: 04ad 6d3c b49f e63c e668 8b3d 0a68 8e3d
00000020: 2d5a cd3b 3c37 26bc 6ac7 2f3d 3898 9d3c
00000030: dc5a 17bd ae6b 3c3d d126 553d fa8a 5dbb
00000040: 4a95 383c bf3e c3bc b002 3bbd b495 5cbc
00000050: efff 18bd 79f2 dbbc 5ee3 2dbd 3b56 98bc
00000060: 39c9 b53c ee9b 42bc 3d09 013d 0345 0dbd
00000070: f3a7 093d 5465 333c baf9 73bc 3305 1d3d
00000080: 4d4b a53b 80d7 a83c c78c 1ebd bbf0 0b3d
00000090: 671f 6e3b 7f18 f9bc 8c13 223d 1674 fe3b
000000a0: faa9 dabc f94e 703c 33b2 e1bc a820 203d
000000b0: a2f7 c6bb 2c4d 2a3d 960e 03bb df2c 6abc
000000c0: 90c6 f3bb 1414 46bc 3fe6 3a3c b413 a73b
000000d0: 751d 1f3d d3e3 28bd 111f 6cbc af1a e0bc
000000e0: eb02 5fbd 875e 3f3d a50f 533c ce27 52bd
000000f0: d533 af3c 45e6 33bd 3e07 b73c 583d ebbc
00000100: 8890 8dbc 4194 06bd aa7a 133c 4aa9 983b
00000110: b787 dbbc 0b10 97bc 3732 20bd 11d7 d13c
00000120: 7623 a33c a1ce 2f3c d7e6 533c f0e5 d7ba
00000130: 07ce cbbb 8768 3ebd 8406 5cbd 2f36 e43c
00000140: d1c8 973c ebb9 de39 068a 353d f84e 2bbc
00000150: 1fd0 d5bb 7eff 0bbd 7ecc c83c ff95 463b
00000160: 0948 f7ba 3e94 e03c 7051 a9bc 7060 d43c
00000170: ae61 06bd ae51 0fbd eef0 c83c 8fcd c23c
00000180: 9c2b 28bd 5a5c 34bc bcdf 02bc ba91 803d
00000190: fb0a 18bc d8a6 29bb 3105 fc3b a1c3 ca3c
000001a0: b91a cd3c 5c03 51bc 0a39 b23c 62f8 86bd
000001b0: 0a7c 21bd 1ff0 24bd ab00 053d 2c4e 6b3c
000001c0: 089e a2bc ac4f e6bb 3ac5 c73c cc38 d13c
000001d0: b1ac 3e3d 6337 c3bc 5922 b3bc 56c9 1b3d
000001e0: 5f0c c4bc 7efe dbbc dbab c63c e942 f3bb
000001f0: cb6c 1bbd e74b 97bc a6ca 42bd dba9 a9bb

output_layer.weight f4 [9, 128]
0.056621462 -0.047036085 0.03727113 0.045723245 0.09981812 0.06412089 0.16672544 0.21312642
0.18513629 -0.031553455 -0.07032973 -0.043020166 0.054760065 -0.10475782 0.22375923 0.06729974
0.048429504 -0.07290716 -0.114637844 0.14766131 0.092341214 -0.23994192 -0.079455376 -0.0848617
0.17897068 -0.07277723 -0.062144835 0.07769613 -0.111997664 0.08784538 -0.15667367 0.2456472
-0.084755264 -0.13423163 0.021423846 -0.017658874 0.18730311 -0.19060491 -0.14064448 -0.07131267
0.21102893 0.2503241 -0.04266894 0.23585437 0.20656833 0.16248417 0.11373908 -0.1594344
0.05047008 -0.10374994 0.038615253 0.25890484 -0.0006819719 0.15646736 0.063017726 -0.20650512
-0.10841616 0.12223505 0.06917979 -0.082768604 0.018274574 0.018593667 0.15453365 0.14750877
0.08136225 0.06014429 0.06696299 -0.07015491 -0.11452973 0.205174 0.011710842 0.18645412
0.10364729 0.09900785 0.05622011 0.12698516 -0.25806862 -0.021838507 -0.14963932 0.13612589
0.05020173 0.056766078 -0.06956614 0.0984253 0.21859545 -0.004022895 -0.13515016 0.056646913
0.08881607 0.07882394 -0.058653552 0.027772376 -0.20385982 -0.040290713 -0.23217732 -0.28025392
0.03927822 0.11565463 0.17781655 0.1497215 0.11358978 -0.20277873 0.16990647 0.19871715
0.0039283065 0.12307445 -0.22954838 -0.09348781 -0.22641958 0.15494972 0.030465776 0.12476737
-0.16187513 0.043115616 0.15497881 0.11232265 0.026498267 -0.20584084 0.06200198 0.16753344
-0.1504042 0.014352358 0.13382237 -0.18795401 -0.15784277 0.2272195 -0.10123472 -0.14935943
0.06488112 -0.2019366 0.11294239 0.030258222 0.114615984 0.027585845 -0.013642077 0.19887534
0.046755597 -0.11816551 -0.123043284 -0.21964401 -0.028367309 -0.097410746 0.18329988 -0.13804717
0.0037426127 -0.14566372 -0.051423203 -0.18417187 -0.030447751 -0.19337949 -0.00861155 0.1586776
0.20274687 -0.17735687 -0.01563272 -0.014796512 0.03765122 -0.16580845 -0.036767084 0.19597906
-0.14625135 -0.13005212 0.10921247 0.037839577 0.24143355 -0.050288133 0.04162834 -0.1380839
0.02339184 0.11216034 0.07792637 0.09928941 0.1163836 -0.20300695 -0.07957383 -0.15319104
-0.1988864 0.041142277 0.14291859 0.047366492 -0.15802765 0.013599608 -0.14884293 -0.002247851
0.10893821 -0.16010952 -0.018241653 -0.09568978 0.016791822 0.12750238 0.0468833 -0.12512523
0.15562841 0.10744562 0.08913135 -0.116794184 -0.10734693 -0.040056072 0.26778206 -0.15962878
-0.15949722 -0.07459042 0.1754158 -0.22286497 0.1266882 0.08004283 -0.13844194 -0.07625813
0.18938605 0.09862951 0.14438394 -0.058871884 -0.16982275 -0.1340851 0.00028983978 0.14340228
0.20727883 0.24854794 -0.046354987 0.087040916 -0.055081848 0.060521454 -0.012477567 -0.08070777
-0.108240716 -0.057274774 0.1601762 0.16326126 0.18227494 0.05598781 0.19931605 -0.10841346
0.10131355 -0.22073583 -0.024360474 -0.17899692 0.119203195 0.11322871 -0.0795706 0.054156553
0.04618348 0.08357398 0.13886245 0.10326165 0.0068715764 -0.10655247 0.20819992 0.1491369
0.089619406 -0.24876067 0.09418621 -0.23948404 -0.22690278 0.05447806 -0.12068141 -0.21018694
00000000: e8eb 673d e9a8 40bd 9da9 183d 4c48 3b3d
00000010: 716d cc3d d051 833d 13ba 2a3e d03d 5a3e
00000020: 5e94 3d3e 323e 01bd 0909 90bd ea35 30bd
00000030: 174c 603d 458b d6bd 2421 653e 72d4 893d
00000040: 045e 463d 5950 95bd 3fc7 eabd 8734 173e
00000050: 641d bd3d 56b3 75be 80b9 a2bd f9cb adbd
00000060: 1744 373e 3a0c 95bd 958b 7ebd 261f 9f3d
00000070: 085f e5bd 47e8 b33d 106f 20be f18a 7b3e
00000080: 2b94 adbd 0474 09be 1081 af3c 58a9 90bc
00000090: 63cc 3f3e ef2d 43be 1b05 10be 610c 92bd
000000a0: f817 583e 7b2a 803e a0c5 2ebd cf83 713e
000000b0: a686 533e 4062 263e 09f0 e83d c542 23be
000000c0: b7b9 4e3d d97a d4bd 072b 1e3d 2d8f 843e
000000d0: 5cc6 32ba fb38 203e 700f 813d 1476 53be
000000e0: 4b09 debd 5f56 fa3d 22ae 8d3d 9682 a9bd
000000f0: 8fb4 953c bf51 983c 123e 1e3e 8a0c 173e
00000100: 40a1 a63d dc59 763d e423 893d 61ad 8fbd
00000110: 908e eabd 2219 523e d5de 3f3c d4ed 3e3e
00000120: 0845 d43d a1c4 ca3d 0f47 663d 6608 023e
00000130: 9221 84be abe6 b2bc 0d3b 19be 9664 0b3e
00000140: 54a0 4d3d 8c83 683d b178 8ebd 3493 c93d
00000150: 7cd7 5f3e 7dd2 83bb ce64 0abe 9806 683d
00000160: 33e5 b53d 726e a13d b53e 70bd e582 e33c
00000170: a1c0 50be e007 25bd e4bf 6dbe 717d 8fbe
00000180: 33e2 203d 56dc ec3d 8b15 363e 9850 193e
00000190: c2a1 e83d 3aa5 4fbe f6fb 2d3e 827c 4b3e
000001a0: 06b9 803b 750e fc3d bb0e 6bbe 8976 bfbd
000001b0: 89da 67be 24ab 1e3e 5d93 f93c 0986 ff3d
000001c0: 98c2 25be 009a 303d c4b2 1e3e 6b09 e63d
000001d0: e512 d93c f1c7 52be caf5 7d3d e38d 2b3e
000001e0: 8f03 1abe 2726 6b3c bb08 093e 0477 40be
000001f0: 89a1 21be 3bac 683e 2654 cfbd aef1 18be
00000200: 65e0 843d 78c8 4ebe 574e e73d 17e0 f73c
00000210: c9bb ea3d b6fb e13c 0583 5fbc faa5 4b3e
00000220: cc82 3f3d c200 f2bd 1efe fbbd 5cea 60be
00000230: 8f62 e8bc 497f c7bd f7b2 3b3e 3d5c 0dbe
00000240: 9f46 753b df28 15be 23a1 52bd 8d97 3cbe
00000250: 906d f9bc 4605 46be 7517 0dbc 617c 223e
00000260: e09c 4f3e 0a9d 35be 3110 80bc 126d 72bc
00000270: 2a38 1a3d b1c9 29be 1599 16bd bcae 483e
00000280: eac2 15be 622c 05be caaa df3d acfd 1a3d
00000290: 5b3a 773e eefa 4dbd 7a82 2a3d de65 0dbe
000002a0: 3ea0 bf3c 52b4 e53d dc97 9f3d 3f58 cb3d
000002b0: 865a ee3d 0ee1 4fbe 9bf7 a2bd 1dde 1cbe
000002c0: e0a8 4bbe ce84 283d 4059 123e 5e03 423d
000002d0: 00d2 21be e4d0 5e3c 486a 18be af50 13bb
000002e0: ff1a df3d c0f3 23be 856f 95bc 01f9 c3bd
000002f0: 018f 893c fc8f 023e b408 403d d420 00be
00000300: 0e5d 1f3e 730c dc3d 7f8a b63d ca31 efbd
00000310: b5d8 dbbd d611 24bd bb1a 893e ba75 23be
00000320: 3d53 23be ddc2 98bd 33a0 333e b736 64be
00000330: 8dba 013e 7fed a33d b9c3 0dbe 392d 9cbd
00000340: 6bee 413e 45fe c93d 62d9 133e a523 71bd
00000350: 04e6 2dbe 9b4d 09be a3f5 9739 0cd8 123e
00000360: e740 543e 5a83 7e3e bade 3dbd 8242 b23d
00000370: 819d 61bd 58e5 773d b66e 4cbc 1e4a a5bd
00000380: 4fad ddbd f498 6abd 3b05 243e f62d 273e
00000390: 48a6 3a3e 7953 653d 8219 4c3e e007 debd
000003a0: 7a7d cf3d 9308 62be 9e8f c7bc f84a 37be
000003b0: ce20 f43d 74e4 e73d e9f5 a2bd 43d3 5d3d
000003c0: e42a 3d3d d628 ab3d f531 0e3e d87a d33d
000003d0: f62a e13b 2e38 dabd 5c32 553e 58b7 183e
000003e0: 618a b73d 1ebb 7ebe b3e4 c03d 4e3b 75be
000003f0: 3459 68be 6324 5f3d d127 f7bd 3f3b 57be

output_layer.bias f4 [9]
0.18659388 0.12134411 0.0929101 0.1483272 0.089274384 -0.12868749 0.06587046 -0.16949718
-0.07706751
00000000: 7712 3f3e 4383 f83d a747 be3d 16e3 173e
00000010: 7dd5 b63d a7c6 03be 17e7 863d ab90 2dbe
00000020: 92d5 9dbd
